MTP 2021/Model/Ward1_critic.pth (torch_old, 152061 bytes, 13 tensors)

fcs1.weight f4 [256, 9]
0	0x3e0c7d48	0.13719666
1	0x3e84f65e	0.25969213
2	0xbd08de51	-0.033415142
3	0xbea04e43	-0.3130971
4	0xbe067c89	-0.13133444
5	0x3bab36b6	0.005225028
6	0xbc9c24ce	-0.019060519
7	0x3e24da25	0.1609884
8	0xbe47f0d4	-0.19525462
9	0xbe2b947c	-0.16755861
10	0x3c1437a6	0.009046471
11	0xbc5cfee5	-0.013488506
12	0x3e007c44	0.12547404
13	0xbae371c6	-0.0017352633
14	0xbe159941	-0.14609243
15	0x3d4a7f5c	0.049437866
16	0xbe400481	-0.18751718
17	0x3ed2c5d1	0.41166547
18	0x3d188279	0.037233803
19	0xbdb9aeed	-0.090665676
20	0xbcb0d47c	-0.021585695
21	0x3d3626fe	0.04447078
22	0x3db9c4fc	0.09070775
23	0xbd044605	-0.03229334
24	0xbc640571	-0.013917313
25	0x3b58f848	0.0033106972
26	0xbe15548c	-0.14583033
27	0xbd03516b	-0.032060068
28	0x3ec566b2	0.38554913
29	0x3e062457	0.130998
30	0x3de6b6c2	0.11265327
31	0x3e22380a	0.1584169
32	0x3d42744c	0.04747419
33	0xbdb6004c	-0.088867754
34	0xbe7c06ea	-0.24612013
35	0xbe254de4	-0.16142994
36	0xbe08f57a	-0.13374892
37	0x3ddedfba	0.10882516
38	0x3d202116	0.039094053
39	0x3d859033	0.065216444
40	0x3e2e5900	0.17026138
41	0xbe83f496	-0.25772542
42	0xbdf7b2b2	-0.1209463
43	0xbea3848a	-0.31937057
44	0x3eb82bf7	0.35971043
45	0xbc4f1960	-0.012640327
46	0xbd31f022	-0.0434419
47	0x3ceaaca0	0.028646767
48	0xbd383b0a	-0.04497818
49	0xbcf50488	-0.029909387
50	0xbd7be242	-0.061495073
51	0xbc74bf50	-0.014938191
52	0x3cbdf5f4	0.023188569
53	0x3d68aa1c	0.056802854
54	0xbcf70450	-0.030153424
55	0xbb0401bc	-0.0020142635
56	0x3c222f79	0.009899014
57	0xbdf45f8a	-0.11932285
58	0x3ba18b85	0.004929962
59	0xbd94ed41	-0.07271815
60	0xbd85dc44	-0.06536153
61	0xbe12b330	-0.14326167
62	0xbe1c1b6a	-0.15244833
63	0x3c417c36	0.011809399
64	0xbde6926f	-0.11258399
65	0xbde727ad	-0.112868644
66	0x3e6a63c5	0.22889622
67	0x3e706487	0.23475848
68	0x3e08a150	0.13342786
69	0x3d8c3582	0.06846143
70	0xbcd747cb	-0.02627935
71	0x3d8c8a9c	0.06862375
72	0x3c70af78	0.0146902725
73	0xbceb8db4	-0.028754093
74	0x3ceb40b8	0.028717384
75	0xbd6133a2	-0.05498088
76	0x3c0bc3c0	0.008530557
77	0xbc0815c0	-0.008305967
78	0xbd4345ae	-0.047673874
79	0xbd63156e	-0.05544036
80	0xbd58d6f6	-0.052939378
81	0x3dbdeed8	0.092740715
82	0x3ec27914	0.37983
83	0x3da37ccd	0.07982788
84	0x3d42f530	0.04759711
85	0x3ce64a35	0.028111557
86	0xbdec2784	-0.115309745
87	0xbe591e22	-0.21202901
88	0x3dd2f03c	0.10299727
89	0x3d37a898	0.044838518
90	0xbc83e7bc	-0.01610171
91	0xbd22d3d4	-0.039752796
92	0x3d4f1f52	0.05056698
93	0xbcfc1b68	-0.030774787
94	0xbd03ca9e	-0.032175653
95	0xbc9cb964	-0.01913137
96	0x3d53ebac	0.051738426
97	0xbd06a60a	-0.03287319
98	0xbca66d00	-0.020315647
99	0x3d0cccf2	0.03437514
100	0x3d955786	0.072920844
101	0xbdf3408c	-0.11877546
102	0xbe1b6159	-0.15173854
103	0x3e78bbf9	0.24290456
104	0xbd5b1a7c	-0.053492054
105	0x3e84075d	0.25786868
106	0x3b44a09a	0.0030002953
107	0x3e44c447	0.19215499
108	0xbd08be32	-0.03338451
109	0xbdc98821	-0.09840418
110	0xbd9d7986	-0.076891944
111	0x3ca4096f	0.02002403
112	0xbdfc52be	-0.12320469
113	0x3ce6a4f8	0.028154835
114	0x3d6e822b	0.058229607
115	0xbdad823f	-0.08472108
116	0x3cf495bb	0.029856553
117	0xbcab704d	-0.020927573
118	0x3e5ca999	0.21549071
119	0x3e7d4eac	0.24737042
120	0xbe27d7f6	-0.16390976
121	0xbced1aa5	-0.02894337
122	0x3df6473c	0.12025306
123	0x3d93af02	0.072111145
124	0x3d6c0363	0.057620417
125	0x3e4f8b6f	0.20268033
126	0xbe30e2d0	-0.17274022
127	0xbe4aaa3b	-0.197915
128	0x3de12446	0.10993247
129	0xbce22a49	-0.027608054
130	0x3e681ecd	0.22668
131	0x3e0bd950	0.13657117
132	0xbea00265	-0.31251827
133	0x3e2bb204	0.16767126
134	0xbde6c543	-0.112680934
135	0xbcc40b87	-0.023931278
136	0xbc6b789a	-0.014372015
137	0x3e0d7306	0.13813409
138	0x3d2e26be	0.042517416
139	0xbef80a4c	-0.48445356
140	0x3b8f08e2	0.0043650726
141	0x3ee34467	0.44388124
142	0xbd0bc7b0	-0.034125984
143	0xbe4efa5f	-0.20212696
144	0x3d69f882	0.05712176
145	0xbcd0a284	-0.025468118
146	0xbd481b2a	-0.04885403
147	0xbd691a54	-0.056909874
148	0x3c46cbf8	0.012133591
149	0xbd179c42	-0.037014253
150	0xbd68487a	-0.056709744
151	0xbca3c1ac	-0.01998981
152	0xbc788298	-0.015167855
153	0x3ccb5cd4	0.024824537
154	0xbbc22163	-0.00592439
155	0xbd79bc2f	-0.06097048
156	0xbe3a1810	-0.18173242
157	0xbd955980	-0.072924614
158	0x3d504da7	0.050855305
159	0xbe8ff3db	-0.28115734
160	0xbe50b8ac	-0.20382947
161	0x3f1cc87d	0.6124342
162	0xbba54550	-0.005043663
163	0xbd370372	-0.04468102
164	0xb9709200	-0.00022942573
165	0xbcdbca4c	-0.026829861
166	0x3c58d848	0.013235159
167	0xbc7236b8	-0.014783554
168	0x3cc942a4	0.02456791
169	0xbcb95b08	-0.022626415
170	0xbd1d4066	-0.038391493
171	0xbcca113d	-0.024666423
172	0x3e2660ff	0.16247939
173	0x3c12ea28	0.00896696
174	0x3bb42967	0.0054980996
175	0x3c1bf90c	0.009519827
176	0x3dd9e47c	0.10639283
177	0x3b886165	0.004162001
178	0x3e183aaa	0.14866129
179	0x3f138fae	0.5764111
180	0xbd3ad82e	-0.04561632
181	0xbdfbb090	-0.12289536
182	0xbe31aad1	-0.17350318
183	0x3cfc635d	0.030809099
184	0xbd534294	-0.051577166
185	0xbc3dd1c5	-0.0115856575
186	0xbc93b9a3	-0.018032854
187	0xbd94626f	-0.07245337
188	0xbaaf9617	-0.0013396171
189	0xbeab5e79	-0.33470514
190	0x3dbbe9c9	0.0917545
191	0x3e02ef2f	0.12786554
192	0x3e8659a7	0.26240274
193	0x3dcf34ae	0.1011747
194	0x3ddc5843	0.10759022
195	0xbe8129e8	-0.25227284
196	0xbdc95104	-0.09829906
197	0xbdb8556d	-0.09000669
198	0x3e363bfb	0.17796318
199	0xbe3ae324	-0.1825071
200	0xbdfbbccd	-0.1229187
201	0x3db15f03	0.086607
202	0xbd47770b	-0.048697513
203	0x3d6682b8	0.056277007
204	0xbd7e3399	-0.062060926
205	0x3e1eb34b	0.15498082
206	0x3d988bb0	0.07448518
207	0x3c2dbe75	0.0106044905
208	0xbd9b5a5f	-0.07585596
209	0xbda638d8	-0.08116311
210	0x3c8038ca	0.01565208
211	0xbd05a9aa	-0.032632507
212	0xbda4e082	-0.08050634
213	0xbce0a4a8	-0.027422264
214	0x3c910d7b	0.017706623
215	0x3b344f7b	0.0027513194
216	0xbddc763f	-0.10764741
217	0xbed7fba7	-0.42184183
218	0x3dfa49b4	0.12221089
219	0xbda5eb5d	-0.081015326
220	0x3e47cd66	0.19511947
221	0xbec2fd05	-0.38083664
222	0x3e0a5ed1	0.13512732
223	0x3bca5365	0.006174492
224	0x3c84bdeb	0.016203841
225	0xbd84dbdf	-0.064872496
226	0xbdc3ea0f	-0.095661275
227	0x3b402fd0	0.0029325373
228	0xbdabef92	-0.08395304
229	0xbd7f45ab	-0.0623223
230	0xbd9d2ec2	-0.07674934
231	0x3bd407d2	0.006470659
232	0xbc96415d	-0.018341715
233	0x3d2a4ba5	0.041576046
234	0xbde5681e	-0.112014994
235	0x3c91b6b6	0.017787319
236	0xbdd6c792	-0.10487284
237	0x3cd0710b	0.025444528
238	0xbda68635	-0.08131067
239	0xbca17fb8	-0.019714221
240	0x3b8d3000	0.0043087006
241	0xbdb26933	-0.087114714
242	0xbc5d58ca	-0.0135099385
243	0x3e751ea8	0.23937476
244	0xbdce8ead	-0.10085807
245	0x3de26032	0.11053504
246	0x3b49739a	0.003073907
247	0xbe382b5a	-0.17985287
248	0xbc2f8bc2	-0.010714473
249	0x3ea4ba08	0.3217318
250	0x3e0e1f9b	0.13879244
251	0xbebe7736	-0.37200326
252	0x3dc1f5fe	0.094707474
253	0x3dbd3b20	0.09239793
254	0xbe1978db	-0.14987509
255	0x3e66765f	0.22506092

fcs1.bias f4 [256]
0	0x3dcd6d9c	0.10030672
1	0xbe351fa6	-0.17687854
2	0xbe9d7b04	-0.30757916
3	0x3cba1f83	0.022720104
4	0xbe46f437	-0.19429098
5	0xbe9b4f47	-0.3033392
6	0x3de9d523	0.11417606
7	0x3beeb23f	0.007284432
8	0x3beb6f00	0.007184863
9	0x3ea9ad27	0.33139917
10	0xbe29099b	-0.1650757
11	0x3dc86ffa	0.09786983
12	0xbd056020	-0.032562375
13	0xbc802f31	-0.015647503
14	0xbd72108d	-0.059097815
15	0xbd8f4169	-0.06994898
16	0xbcbeb080	-0.023277521
17	0x3e2557ef	0.16146825
18	0xbcead100	-0.028664112
19	0xbd233844	-0.03984858
20	0x3e935621	0.2877665
21	0x3e66df9d	0.22546239
22	0xbef02c3b	-0.46908745
23	0xbdf8d63f	-0.12150239
24	0x3eec5502	0.46158606
25	0x3e17c7df	0.14822339
26	0x3d824278	0.06360334
27	0xbec4a8d9	-0.3841007
28	0xbdb1b92b	-0.08677896
29	0x3d601f44	0.054717317
30	0x3e8a356e	0.2699389
31	0x3e86c7e3	0.26324376
32	0x3ebeaa84	0.37239468
33	0xbd96b908	-0.07359511
34	0x3c652152	0.013984995
35	0x3dbbd3cb	0.09171256
36	0xbe9b1834	-0.30291903
37	0x3d774298	0.060366243
38	0xbe59bf0d	-0.21264286
39	0x3d02c48d	0.031925727
40	0xbe8b236b	-0.2717546
41	0x3e0f769a	0.14010087
42	0x3e209c87	0.1568471
43	0x3d701061	0.05860937
44	0x3e072cb9	0.13200654
45	0xbdbc541a	-0.091957286
46	0x3f1d0b0b	0.61344975
47	0xbe598123	-0.21240668
48	0x3ea360f2	0.319099
49	0x3e824ec8	0.2545073
50	0x3e9cd584	0.3063165
51	0xbe42624d	-0.18982811
52	0x3e2f7995	0.17136224
53	0x3c3f7f09	0.011688002
54	0xbe9a8110	-0.30176592
55	0xbe950c7a	-0.2911108
56	0x3ec98238	0.39357162
57	0xbe9ef615	-0.3104712
58	0xbe8b3e6b	-0.2719606
59	0x3c878d4e	0.016546872
60	0x3d6045a0	0.0547539
61	0xbe8241a6	-0.2544071
62	0xbe7c2449	-0.24623217
63	0x3ebe6712	0.3718801
64	0xbe5ddbd3	-0.21665888
65	0xbe1efa7b	-0.15525238
66	0x3cccf660	0.025019825
67	0xbe201590	-0.15633225
68	0x3be7891a	0.0070659043
69	0xbc1ecda8	-0.009692587
70	0x3d7b1768	0.06130162
71	0xbe129d6b	-0.14317863
72	0x3e04825d	0.12940355
73	0xbee4d629	-0.4469464
74	0x3dc470b2	0.095918074
75	0x3eef13f7	0.4669492
76	0xbeb5686b	-0.35431227
77	0xbba94f50	-0.0051669255
78	0x3e36b8a7	0.17843877
79	0xbdfe6516	-0.12421624
80	0x3e70f829	0.23532166
81	0xbeb26eff	-0.34850308
82	0x3e5609eb	0.20902221
83	0x3e82fbb2	0.25582653
84	0x3dcf76da	0.10130091
85	0x3f08600a	0.53271544
86	0x3e4f7d72	0.20262697
87	0xbe03331b	-0.12812464
88	0xbde78800	-0.11305237
89	0xbb9e97a2	-0.0048398534
90	0x3e52a95f	0.20572422
91	0xbe84879e	-0.25884718
92	0x3ef4a79f	0.47784135
93	0x3e1fcf96	0.15606532
94	0xbe5bc61b	-0.2146229
95	0xbda59a9d	-0.08086131
96	0x3e6825d8	0.22670686
97	0xbecad22e	-0.3961348
98	0x3e5d0abe	0.21586129
99	0xbe7c7283	-0.24653058
100	0x3bfc0a28	0.0076916404
101	0xbe8cce73	-0.27501258
102	0x3e7705b6	0.24123272
103	0xbe40fa53	-0.18845491
104	0xbea625b7	-0.3245065
105	0xbf011376	-0.5042032
106	0xbea0f62c	-0.31437814
107	0x3ec18ccc	0.37802732
108	0x3e687225	0.22699793
109	0xbea6d4c8	-0.32584214
110	0xbc9186d1	-0.01776448
111	0xbed380ef	-0.41309306
112	0xbe914fb8	-0.28381133
113	0x3e75ed71	0.24016358
114	0xbe178e38	-0.14800346
115	0x3d10014d	0.03515749
116	0x3e714a7c	0.2356357
117	0xbe37fd26	-0.17967662
118	0x3e0ce0f9	0.13757695
119	0x3d7ed3b5	0.06221362
120	0x3e76fad0	0.24119115
121	0xbd9be002	-0.076110855
122	0xbd0ad031	-0.033889953
123	0x3e413aaa	0.18870035
124	0xbe8cbdbd	-0.2748851
125	0xbeed8b1c	-0.46395195
126	0xbde3fac6	-0.111318156
127	0x3d91c87d	0.07118318
128	0x3d952a9b	0.07283517
129	0xbdfb27f0	-0.12263477
130	0x3e6fa7b5	0.23403819
131	0xbe574c78	-0.21025264
132	0x3deb4c07	0.114891104
133	0x3db4b663	0.0882385
134	0x3e5165f7	0.20449053
135	0x3f072c3d	0.5280188
136	0xbe6ebf2b	-0.23315112
137	0xbe64d087	-0.22345172
138	0x3e8a7cd1	0.27048352
139	0xbcb0ae00	-0.021567345
140	0x3df826f7	0.12116807
141	0xbcc0e852	-0.023548279
142	0xbeb21a4d	-0.3478569
143	0xbe475eb9	-0.19469728
144	0xbebe4613	-0.37162837
145	0xbc51b1e9	-0.012798765
146	0x3e844fcc	0.2584213
147	0xbde58780	-0.11207485
148	0x3f05b46e	0.5222844
149	0x3e453286	0.19257554
150	0xbe1e9f81	-0.15490533
151	0x3d25f942	0.040520914
152	0x3c4a2833	0.012338686
153	0xbc5701a0	-0.013122946
154	0x3e0cb3f7	0.13740526
155	0xbd7e8be8	-0.062145144
156	0xbe1df90f	-0.1542704
157	0xbe811f21	-0.25219062
158	0xbe7f35df	-0.24922894
159	0xbc2dc800	-0.010606766
160	0x3e4fdcba	0.20299044
161	0xbec1d515	-0.3785788
162	0xbe1cba6d	-0.15305491
163	0x3dde56ee	0.10856424
164	0xbecb6d17	-0.39731666
165	0x3ea4eeca	0.32213432
166	0xbea43037	-0.32068035
167	0x3ddcbbf1	0.107780345
168	0x3e1c1054	0.15240604
169	0x3e312ec4	0.17302996
170	0x3cfe5e03	0.031050688
171	0x3d5e5c58	0.054287285
172	0x3ecbdb26	0.39815634
173	0xbe9c0881	-0.30475238
174	0xbe59c2e8	-0.21265757
175	0x3e22b592	0.15889576
176	0xbe811e65	-0.25218502
177	0xbda8ab7c	-0.08235833
178	0x3e671869	0.22567905
179	0x3e916cd9	0.28403357
180	0xbd51f640	-0.051260233
181	0xbd879d8e	-0.06621848
182	0xbe965c7f	-0.29367444
183	0x3ea26506	0.317177
184	0x3f174131	0.5908385
185	0xbe2fbde5	-0.17162283
186	0xbe1d1f30	-0.15343928
187	0x3e209272	0.15680864
188	0x3dea64eb	0.1144503
189	0x3f0469f3	0.51724166
190	0x3e6b946d	0.23005839
191	0x3bb6af7a	0.0055751177
192	0x3da0ffeb	0.078613125
193	0x3e9adb02	0.30245215
194	0x3dd4d1a2	0.10391547
195	0xbbc41540	-0.0059839785
196	0x3eba22c2	0.36354643
197	0x3e8cda20	0.27510166
198	0x3d14e05e	0.036346786
199	0xbe9398ff	-0.28827664
200	0x3dbc6658	0.09199208
201	0x3e8d0231	0.27540734
202	0x3e0fba64	0.14035946
203	0x3db249ff	0.0870552
204	0xbe2be760	-0.16787481
205	0xbe5df856	-0.21676764
206	0x3d69a0c2	0.057038076
207	0xbd601308	-0.05470565
208	0x3e466790	0.19375443
209	0xbd93a948	-0.07210022
210	0xbdcd60ad	-0.10028205
211	0x3e3293a7	0.17439137
212	0x3e2f94b9	0.17146577
213	0xbdc23556	-0.09482829
214	0x3eaa63ea	0.33279353
215	0xbe1136f2	-0.14181116
216	0xbe909050	-0.28235102
217	0xbe9572b6	-0.2918908
218	0xbe472625	-0.19448145
219	0xbe63c3cb	-0.22242658
220	0xbe87224f	-0.26393363
221	0x3e633a4d	0.22190209
222	0xbdb2bb9c	-0.0872719
223	0xbe881541	-0.26578715
224	0xbe9dccf7	-0.30820438
225	0x3e06a61c	0.13149303
226	0x3e746efa	0.23870459
227	0xbe8a393b	-0.26996788
228	0xbe1100d1	-0.14160468
229	0xbc66eff5	-0.014095296
230	0xbbb42073	-0.0054970323
231	0x3e48a7ba	0.19595233
232	0xbe4d22ae	-0.2003276
233	0xbdd54d0c	-0.10415086
234	0x3e663574	0.22481328
235	0xbde1d156	-0.11026256
236	0xbe891058	-0.26770282
237	0xbe570a54	-0.21000034
238	0xbbad7e16	-0.0052945716
239	0x3de532f7	0.111913614
240	0xbf193a2d	-0.59854394
241	0x3d1c34be	0.038136236
242	0xbcb544c3	-0.022127515
243	0xbdbe920c	-0.093052
244	0xbe6887d6	-0.22708067
245	0xbea8bcf2	-0.32956654
246	0xbe5cc030	-0.21557689
247	0x3e50ceba	0.2039136
248	0xbdafd07c	-0.08584687
249	0x3a0bf0f1	0.0005338332
250	0xbe16d9a2	-0.14731458
251	0xbd0a9947	-0.033837583
252	0xbed8bd14	-0.42331755
253	0xbe9530a3	-0.2913867
254	0xbe73c826	-0.2380682
255	0xbf3d5307	-0.73954815

fc2.weight f4 [128, 259]
0	0x3e5c7534	0.21529084
1	0xbd9712dc	-0.07376644
2	0x3db7ba9d	0.089711405
3	0x3d359e3a	0.04434035
4	0xbdc57f21	-0.096433885
5	0xbd707aec	-0.058710977
6	0xbccdeb16	-0.025136512
7	0xbdbcab60	-0.09212375
8	0xbddb4dd0	-0.10708201
9	0xbe1b9b57	-0.15195976
10	0xbe15fb58	-0.14646661
11	0xbe9c45dc	-0.30522048
12	0xbe4400bc	-0.19140905
13	0xbe1c6d03	-0.1527596
14	0xbd508703	-0.050910007
15	0xbe61b3f5	-0.22041304
16	0xbcd635ed	-0.02614876
17	0xbceb5b7b	-0.028730145
18	0x3decb07f	0.115571015
19	0xbe2feaf8	-0.17179477
20	0xbcb4d6b8	-0.022075042
21	0x3e81306a	0.2523225
22	0x3df1354c	0.11777744
23	0xbdc37feb	-0.09545883
24	0xbf0e058e	-0.55477226
25	0x3d47a545	0.048741598
26	0xbd410abb	-0.047129374
27	0xbdb16fbe	-0.08663891
28	0xbd018b05	-0.03162672
29	0xbe9fbebe	-0.31200212
30	0xbf1024e7	-0.5630631
31	0xbe76efb7	-0.24114881
32	0x3e748eeb	0.23882644
33	0xbceefe5c	-0.029174022
34	0x3e22df9e	0.15905616
35	0xbf294c1f	-0.66131777
36	0x3e478251	0.19483306
37	0x3cedf30f	0.029046563
38	0xbd7c63e2	-0.061618693
39	0xbd5ab768	-0.053397566
40	0xbdf4432c	-0.119268745
41	0x3e0af9f4	0.13571912
42	0x3cead04b	0.028663775
43	0x3d057a2c	0.032587215
44	0xbe570c49	-0.2100078
45	0xbdab2d75	-0.083582796
46	0xbd017d80	-0.031613827
47	0xbd32a7d6	-0.043617092
48	0xbd865bc9	-0.065604754
49	0xbe01ccbc	-0.12675756
50	0xbe4bdca5	-0.19908388
51	0xbe8ce751	-0.2752023
52	0xbe8529af	-0.26008365
53	0xbd87f56d	-0.06638608
54	0x3c15d9e3	0.0091461865
55	0xbe5c9e78	-0.21544826
56	0xbe45779f	-0.19283913
57	0xbdd0f845	-0.10203604
58	0x3dcf4ae3	0.101217054
59	0xbe564aed	-0.2092702
60	0x3cbd342c	0.023096167
61	0x3ebcd20e	0.3687901
62	0x3edcd363	0.43130025
63	0x3e1e3961	0.15451576
64	0x3e02fb70	0.12791228
65	0xbdb6ef4c	-0.08932361
66	0x3dcbf1c1	0.0995822
67	0x3e086d59	0.13322963
68	0xbe01fcc0	-0.12694073
69	0xbcbec48d	-0.023287082
70	0xbe37039e	-0.17872474
71	0xbe3ac25a	-0.18238202
72	0xbdd8a186	-0.10577683
73	0xbe8adef1	-0.27123216
74	0x3cf008a3	0.029300993
75	0x3e09c6d0	0.13454747
76	0xbe8a7d2e	-0.2704863
77	0xbc90979c	-0.017650418
78	0x3dd2a1ad	0.102847435
79	0xbe40601e	-0.18786666
80	0xbe665fd4	-0.22497493
81	0x3e442640	0.19155216
82	0xbd905b59	-0.07048673
83	0x3c043561	0.008069367
84	0x3dbcf971	0.09227265
85	0x3e459043	0.19293313
86	0xbcda3a9a	-0.026639272
87	0x3e39d6b5	0.1814831
88	0x3d9502e2	0.072759405
89	0xbe4737b5	-0.19454844
90	0xbe09c198	-0.13452756
91	0xbdc45b00	-0.095876694
92	0x3d0c388a	0.034233607
93	0x3e20d786	0.15707216
94	0xbe3f8eca	-0.18706813
95	0xbe2186f4	-0.15774137
96	0x3d409a70	0.047022283
97	0xbe05c79e	-0.13064429
98	0xbdfb2c4c	-0.12264308
99	0xbe0d11ca	-0.13776317
100	0xbe7f3c54	-0.24925357
101	0x3e27e060	0.16394186
102	0xbe396f7a	-0.18108931
103	0x3e03be0d	0.12865467
104	0xbdb54139	-0.08850331
105	0xbe6c0696	-0.23049387
106	0x3c0a241d	0.008431462
107	0xbd025eea	-0.0318288
108	0xbe99f719	-0.30071333
109	0xbe485fa0	-0.19567728
110	0x3e1d09cf	0.15335773
111	0x3e36866f	0.1782472
112	0xbe4d2aa3	-0.20035796
113	0xbe5a1472	-0.21296862
114	0xbe14492c	-0.14481038
115	0xbe0f5efb	-0.14001076
116	0xbe1f4af4	-0.15555936
117	0x3cbf79c2	0.023373488
118	0xbe8c4277	-0.2739446
119	0xbe3ffb0b	-0.18748109
120	0x3cd49527	0.025950028
121	0xbe2e872f	-0.17043756
122	0xbdedbcf0	-0.116083026
123	0xbdf8814d	-0.12134037
124	0xbf36c448	-0.7139325
125	0x3e7cfebd	0.2470655
126	0xbc5ba622	-0.013406308
127	0xbd7af9ee	-0.061273508
128	0xbe0c2ee0	-0.13689756
129	0xbdcc7737	-0.09983676
130	0xbe545057	-0.20733772
131	0xbd0d3e19	-0.03448305
132	0xbca90560	-0.020632446
133	0x3de94c60	0.113915205
134	0x3d2c320a	0.04203991
135	0xbcc578f4	-0.024105527
136	0xbcb91812	-0.022594485
137	0xbdf6bdbc	-0.12047908
138	0x3e8182de	0.25295156
139	0xbe31bdea	-0.17357603
140	0xbdd74fba	-0.105132535
141	0xbdab91e4	-0.08377436
142	0x3de6184e	0.112351045
143	0xbd5f589e	-0.05452787
144	0x3dedceac	0.11611685
145	0xbd799d10	-0.060940802
146	0x3ced8568	0.028994277
147	0x3e95eaa0	0.29280567
148	0xbeb9e3d2	-0.36306626
149	0xbcc3236a	-0.023820598
150	0xbdfb9aa8	-0.12285358
151	0x3d8387cb	0.06422385
152	0xbe6273d7	-0.22114502
153	0x3e1fc6e3	0.15603213
154	0x3c00a727	0.007852352
155	0xbdefc823	-0.11708095
156	0xbd93049a	-0.07178612
157	0xbd7b0779	-0.061286423
158	0xbbc6544f	-0.006052531
159	0xbdaf8c1c	-0.085716456
160	0xbd992242	-0.07477237
161	0xbf0a99e5	-0.54141074
162	0xbe4ba30f	-0.1988642
163	0x3d43d0cf	0.047806557
164	0xbe7055a0	-0.23470163
165	0xbd185a6f	-0.03719562
166	0xbd556daf	-0.052106556
167	0xbdd14d6c	-0.10219845
168	0xbdc6dc42	-0.097099796
169	0xbd77312e	-0.060349636
170	0xbe583f13	-0.21117811
171	0xbe837058	-0.2567165
172	0xbdf214fd	-0.118204094
173	0x3db1397b	0.08653542
174	0xbd4cd60d	-0.050008822
175	0xbc889d0c	-0.016676448
176	0x3dc3009e	0.09521602
177	0xbe7fd64d	-0.24984093
178	0xbcdd2710	-0.026996166
179	0x3d9609ab	0.07326063
180	0xbe5f4dbb	-0.21806996
181	0x3e8e498b	0.27790484
182	0xbe9842fd	-0.29738608
183	0xbe8bbe21	-0.27293494
184	0xbe92329c	-0.28554237
185	0xbd96c636	-0.073620245
186	0xbd26cd45	-0.040723104
187	0xbe8ee4ad	-0.2790884
188	0xbd2bdfe5	-0.04196157
189	0xbd6cd588	-0.057820827
190	0xbe8d8226	-0.27638358
191	0xbe705a7c	-0.23472017
192	0x3c06d909	0.008230456
193	0x3e09edd9	0.13469638
194	0x3d2540d8	0.040345043
195	0x3da21f12	0.079160824
196	0xbe50f879	-0.20407285
197	0xbe8b00f9	-0.2714918
198	0xbe4d0e52	-0.20024994
199	0x3e06be8a	0.13158622
200	0x3cb63d8d	0.022246147
201	0xbe85e16f	-0.26148555
202	0xbead09b6	-0.3379647
203	0xbc127f97	-0.008941553
204	0xbdfba6c8	-0.122876704
205	0xbd824f4b	-0.0636278
206	0xbe931ef2	-0.28734547
207	0x3e552860	0.20816183
208	0xbe403127	-0.1876875
209	0xbdf87417	-0.121315174
210	0xbe51250d	-0.2042429
211	0xbd550a7b	-0.052011948
212	0xbdfaece0	-0.122522116
213	0xbd515f9f	-0.051116582
214	0x3e3d2fbd	0.18475242
215	0xbe4fb0d4	-0.20282298
216	0xbe5b21dd	-0.21399637
217	0x3e6da086	0.23205766
218	0x3de5b8f0	0.11216915
219	0xbc85f5a0	-0.016352475
220	0xbd118085	-0.035522956
221	0x3d0716f1	0.032980863
222	0x3e3efaff	0.18650435
223	0xbde1f5b1	-0.1103319
224	0xbd9e02c1	-0.07715369
225	0xbe5e45c2	-0.21706298
226	0xbc557528	-0.0130284205
227	0x3e2f1bb7	0.17100416
228	0xbe3d0ad2	-0.18461159
229	0x3c3ed50e	0.011647476
230	0xbdca41f4	-0.09875861
231	0xbdfce2b8	-0.12347931
232	0xbd72eea0	-0.0593096
233	0xbcbda8f3	-0.02315185
234	0xbe98d560	-0.29850292
235	0x3c3e8649	0.011628696
236	0x3e9def9a	0.30846864
237	0x3d0973f7	0.03355786
238	0xbe08f526	-0.13374767
239	0xbe27aa63	-0.16373591
240	0xbc747581	-0.014920593
241	0xbf0ef277	-0.5583872
242	0xbe5c9d05	-0.21544273
243	0x3e80f2b5	0.2518517
244	0xbe20141c	-0.15632671
245	0xbd7d9f51	-0.061919514
246	0xbd6bf88d	-0.057610083
247	0xbe13a25e	-0.14417407
248	0x3dfeb67b	0.12437149
249	0xbd83efaf	-0.064422004
250	0xbcb6f3e6	-0.022333097
251	0xbd13baa7	-0.036066677
252	0xbea3506b	-0.31897292
253	0x3d3ce180	0.04611349
254	0xbcffab3c	-0.03120958
255	0x3e376736	0.17910466

fc2.bias f4 [128]
0	0xbd4ad423	-0.049518716
1	0x3dfac673	0.122448824
2	0xbe6d260b	-0.23159043
3	0xbdcc8064	-0.09985426
4	0x3d2b100d	0.041763354
5	0xbe7e3828	-0.2482611
6	0xbe653f00	-0.22387314
7	0xbe26561f	-0.1624379
8	0x3ccf9cc1	0.0253433
9	0xbe1464b5	-0.14491542
10	0xbdcf9953	-0.10136666
11	0x3df790a8	0.12088138
12	0xbe19b5aa	-0.15010706
13	0xbe6592c0	-0.22419262
14	0xbe43eebc	-0.19134039
15	0xbe656a65	-0.22403868
16	0xbeb14e09	-0.3462985
17	0x3cd2423b	0.025666347
18	0xbe7a85e6	-0.2446514
19	0xbdf720bb	-0.1206679
20	0xbe33bc89	-0.17552389
21	0xbe2d9828	-0.16952574
22	0xbe982ba2	-0.2972079
23	0xbe0db243	-0.13837533
24	0x3df386f8	0.118909776
25	0x3e022aa9	0.12711586
26	0xbe610a48	-0.21976578
27	0xbe8f2284	-0.2795602
28	0x3de4e907	0.11177259
29	0xbe08feea	-0.13378492
30	0xbe96d423	-0.29458722
31	0xbe97c157	-0.29639694
32	0x3da645ea	0.08118804
33	0x3e4471f9	0.19184102
34	0x3dcf81ea	0.10132201
35	0x3e06ba91	0.13157107
36	0xbd8c92e7	-0.06863957
37	0xbe995757	-0.29949448
38	0xbe854833	-0.26031646
39	0xbee69aec	-0.4504007
40	0xbe0c65bc	-0.13710684
41	0xbe1ff7a0	-0.15621805
42	0xbe58c321	-0.21168186
43	0xbeea3c09	-0.45748928
44	0x3dfca431	0.123360045
45	0xbe00ff86	-0.12597474
46	0xbeea6082	-0.45776755
47	0xbe406c15	-0.1879123
48	0xbe6ad633	-0.22933273
49	0xbd2909f7	-0.04126927
50	0xbdc2d123	-0.09512546
51	0xbca12055	-0.019668737
52	0xbe1956a0	-0.14974451
53	0xbe052ae9	-0.1300465
54	0x3e55dfe1	0.20886184
55	0xbe6a0d1b	-0.22856562
56	0xbe0bd3f9	-0.1365508
57	0xbe15c386	-0.14625368
58	0xbd943ff1	-0.07238758
59	0xbe49b159	-0.19696559
60	0xbd1f4663	-0.038885485
61	0xbdbbf2fd	-0.09177206
62	0xbde833af	-0.11337983
63	0xbe15fdba	-0.1464757
64	0xbcb7d048	-0.022438183
65	0xbe478f7d	-0.1948833
66	0xbe6a11b4	-0.22858316
67	0xbe345f46	-0.17614469
68	0xbe672a0f	-0.22574638
69	0x3e0c1d38	0.13683021
70	0xbd78cb30	-0.06074065
71	0xbe7d5f69	-0.24743427
72	0xbe2b2a06	-0.1671525
73	0x3d55c0a7	0.05218568
74	0xbdc9c638	-0.0985226
75	0xbe1e7d15	-0.15477403
76	0xbe5be853	-0.21475343
77	0x3dfd9961	0.1238277
78	0xbd9aedaf	-0.07564866
79	0xbdf2330e	-0.11826144
80	0xbea1790d	-0.31537667
81	0xbe3750e7	-0.17901956
82	0xbe31fa03	-0.17380528
83	0xbdd6b02f	-0.10482823
84	0xbe3f497d	-0.18680377
85	0xbee0c51d	-0.43900385
86	0xbdd3229d	-0.10309336
87	0xbe2f293c	-0.17105573
88	0x3cae3607	0.021265997
89	0xbea48c1d	-0.32138148
90	0xbe83169b	-0.25603184
91	0xbe7077eb	-0.23483245
92	0xbe469ac1	-0.19394971
93	0xbd90cf68	-0.070708096
94	0xbe708534	-0.23488313
95	0xbe567854	-0.20944339
96	0xbe0b437b	-0.1359996
97	0x3d54a2c5	0.05191304
98	0xbee87292	-0.4539991
99	0xbe3a9edc	-0.18224663
100	0xbe483b52	-0.19553879
101	0xbeccedfd	-0.4002532
102	0xbe0ebfa9	-0.139403
103	0xbe24a505	-0.16078575
104	0xbf08f15d	-0.5349329
105	0xbe97e526	-0.29667014
106	0x3d96016d	0.07324491
107	0xbeeb9d30	-0.46018362
108	0xbe89e336	-0.2693116
109	0x3def49e7	0.11684018
110	0xbdb1b540	-0.08677149
111	0xbdf10eb3	-0.11770382
112	0xbebfdb3d	-0.37471953
113	0xbe4a7584	-0.19771391
114	0xbeaee7f0	-0.3416133
115	0xbe593d8c	-0.21214885
116	0xbdbdcecb	-0.09267958
117	0xbeac61a5	-0.33668247
118	0xbe83c50f	-0.2573628
119	0xbe29e3ae	-0.16590759
120	0xbeaf7b88	-0.34273934
121	0xbe0badad	-0.13640471
122	0xbe1af970	-0.15134215
123	0xbe839d02	-0.25705725
124	0xbe9a1f08	-0.301018
125	0xbf083540	-0.53206253
126	0xbe885e69	-0.2663453
127	0x3e2f6026	0.17126521

fc3.weight f4 [1, 128]
0	0x3e3156e2	0.173183
1	0x3e214c8e	0.1575186
2	0xbe41be31	-0.18920209
3	0xbe10465a	-0.14089337
4	0x3e521916	0.20517382
5	0xbe1b2be2	-0.15153459
6	0xbe87d9c1	-0.2653332
7	0xbe405d4d	-0.18785591
8	0x3e44cde2	0.19219163
9	0xbd1e3908	-0.038628608
10	0xbdc25533	-0.09488907
11	0x3e2e2d46	0.17009458
12	0xbe6dd6d0	-0.23226476
13	0xbe03716b	-0.12836234
14	0xbe665f27	-0.22497235
15	0xbd95e935	-0.07319871
16	0xbe74f149	-0.23920168
17	0x3e59f15f	0.21283482
18	0xbdf42dbb	-0.11922785
19	0xbe87dd15	-0.2653586
20	0xbda92abb	-0.08260103
21	0xbd613b60	-0.054988265
22	0xbe3bc571	-0.18337037
23	0xbd1d2f3f	-0.038375136
24	0x3e170efa	0.14751807
25	0x3e32ef22	0.17474034
26	0x3e7fd653	0.24984102
27	0xbe0320bf	-0.1280546
28	0x3e281e2a	0.16417757
29	0xbd89e7aa	-0.067336395
30	0x3e9e59e5	0.3092796
31	0xbde7312a	-0.11288674
32	0x3e75d0e1	0.24005462
33	0x3e186e27	0.1488577
34	0x3e2293c8	0.15876687
35	0x3e3f84ae	0.18702957
36	0xbe160041	-0.14648534
37	0xbe6637d0	-0.22482228
38	0xbe1a2433	-0.15052871
39	0xbef8d4e2	-0.48599917
40	0xbe216fb3	-0.15765266
41	0xbda86ef6	-0.08224289
42	0xbe7dca7b	-0.24784271
43	0xbf1138bc	-0.56727195
44	0x3e414c0e	0.18876669
45	0xbd70b187	-0.058763053
46	0xbe8cf046	-0.27527064
47	0xbd851666	-0.06498413
48	0xbe00683d	-0.12539764
49	0xbe07a9b4	-0.1324833
50	0xbdfebba7	-0.124381356
51	0xbd87c355	-0.066290535
52	0xbdbaf77b	-0.091292344
53	0x3e84ad50	0.25913477
54	0x3e1f6f4e	0.15569803
55	0xbe1ab3be	-0.15107629
56	0xbe0c389c	-0.1369347
57	0xbdea4ea4	-0.11440781
58	0xbd821e37	-0.06353419
59	0xbe1fa9fd	-0.15592189
60	0xbdd58619	-0.10425968
61	0xbe3a23be	-0.18177697
62	0xbe37a151	-0.17932631
63	0xbd5a2597	-0.053258505
64	0xbe0df073	-0.13861255
65	0xbefbbe73	-0.4916874
66	0x3f2a77b0	0.6658888
67	0xbd5536ec	-0.05205433
68	0x3ea6308b	0.3245891
69	0x3e20551a	0.15657464
70	0xbdb7d8b5	-0.089768805
71	0xbe255454	-0.1614545
72	0xbdf22904	-0.11824229
73	0x3e236853	0.15957765
74	0x3e1b6be7	0.1517788
75	0xbdbc30e3	-0.09189012
76	0xbdb29606	-0.08720021
77	0x3e2ba0ab	0.16760509
78	0x3e79a98d	0.24381085
79	0xbe29e2b7	-0.16590391
80	0xbe300aa1	-0.17191555
81	0xbd5fe912	-0.054665633
82	0x3e1c9c74	0.15294057
83	0xbdbca7f2	-0.092117205
84	0xbd70c7a7	-0.058784153
85	0xbe9d9507	-0.3077776
86	0xbd032382	-0.032016285
87	0xbe5c56c7	-0.21517478
88	0x3de4782f	0.11155736
89	0xbf2c9380	-0.6741257
90	0xbe08a7a0	-0.13345194
91	0xbe6aa66d	-0.22915049
92	0xbd8d18fc	-0.06889531
93	0xbd91c792	-0.07118143
94	0xbe9bc0c7	-0.30420515
95	0xbed93107	-0.42420217
96	0xbd76b43f	-0.06023049
97	0x3e16fa6b	0.14743964
98	0xbecde446	-0.4021322
99	0x3e0bea95	0.13663705
100	0xbdaf3708	-0.08555418
101	0xbe9fcb8e	-0.31209987
102	0xbdce3acb	-0.100698076
103	0xbe2276a7	-0.15865575
104	0xbecbda86	-0.39815158
105	0xbedc7051	-0.4305444
106	0x3e62606e	0.22107098
107	0xbe464fc9	-0.19366373
108	0xbe052caa	-0.13005319
109	0x3e6ec365	0.23316725
110	0xbd7ac4df	-0.061222907
111	0xbd8eb841	-0.069687374
112	0xbea4b539	-0.32169512
113	0xbe0be05a	-0.13659802
114	0xbda250f5	-0.079255976
115	0xbdbaa0c7	-0.09112697
116	0xbda4e1e5	-0.080508985
117	0xbdbbe962	-0.091753736
118	0xbe6eeb7d	-0.23332019
119	0xbda2c41c	-0.07947561
120	0xbea6a81c	-0.32550132
121	0xbdcee6bb	-0.10102602
122	0xbe452e22	-0.1925588
123	0xbe113502	-0.14180377
124	0xbe3dd85f	-0.1853957
125	0xbf559967	-0.834372
126	0xbec97e5c	-0.39354217
127	0x3e3d3a96	0.1847938

bn1.weight f4 [256]
0	0x3f8a205d	1.0791126
1	0x3f89dfce	1.0771425
2	0x3f8e2ee5	1.1108061
3	0x3eb72d20	0.35776615
4	0x3f82255c	1.0167651
5	0x3f800000	1.0
6	0x3f86ad34	1.0521607
7	0x3eb593c7	0.35464308
8	0x3f800000	1.0
9	0x3e804c36	0.25058144
10	0x3f800000	1.0
11	0x3eec0e05	0.46104446
12	0x3f8245b4	1.0177522
13	0x3f13d8dd	0.5775278
14	0x3f8320f0	1.0244427
15	0x3f454bcb	0.77068776
16	0x3f800000	1.0
17	0x3f7f9a77	0.9984507
18	0x3f800000	1.0
19	0x3f5eb530	0.8699522
20	0x3f81ce1f	1.0141028
21	0x3e9715b7	0.29508755
22	0x3f867b83	1.0506443
23	0x3f78bdc4	0.9716456
24	0x3f5ace38	0.85470915
25	0x3f844e10	1.0336323
26	0x3f90a530	1.1300411
27	0x3f873cb8	1.0565405
28	0x3f794875	0.97376186
29	0x3f847d8c	1.0350814
30	0x3f944244	1.1582723
31	0x3eb124b6	0.3459832
32	0x3f8bce0e	1.0922258
33	0x3f86ec81	1.0540925
34	0x3f8928f6	1.0715625
35	0x3f98b29f	1.1929511
36	0x3f7b6419	0.9819961
37	0x3f800000	1.0
38	0x3f7a28d4	0.9771855
39	0x3f8128e6	1.0090606
40	0x3f800000	1.0
41	0x3f501690	0.8128443
42	0x3ece5c60	0.40304852
43	0x3f80bbb9	1.0057288
44	0x3eb797c4	0.35857975
45	0x3f6ef9ce	0.9334992
46	0x3fcd2f93	1.6030143
47	0x3f800000	1.0
48	0x3f3adecb	0.72996205
49	0x3f555127	0.83326954
50	0x3f5abbf0	0.8544302
51	0x3f7b6402	0.98199475
52	0x3f2f6190	0.68508244
53	0x3f80b2df	1.0054587
54	0x3f800000	1.0
55	0x3f800000	1.0
56	0x3f82231c	1.0166965
57	0x3f257202	0.6462709
58	0x3fa1af11	1.2631551
59	0x3f10411a	0.5634934
60	0x3f800000	1.0
61	0x3f991d2b	1.1962026
62	0x3f880284	1.0625768
63	0x3fb141ba	1.3848183
64	0x3f800000	1.0
65	0x3f800000	1.0
66	0x3f31d3cc	0.694638
67	0x3f6dbf72	0.9287025
68	0x3f79aae3	0.9752638
69	0x3f8ea5e2	1.1144373
70	0x3f800000	1.0
71	0x3f3db8a5	0.7410987
72	0x3f87ed86	1.0619361
73	0x3efab7a7	0.4896824
74	0x3f39d9ba	0.7259785
75	0x3f8c028f	1.0938281
76	0x3f6ea5b9	0.9322162
77	0x3ee522db	0.44753155
78	0x3f83d95b	1.0300707
79	0x3f800000	1.0
80	0x3e555b17	0.2083553
81	0x3f390586	0.72274053
82	0x3fafe4d8	1.3741713
83	0x3f909fd9	1.1298782
84	0x3f82c0a6	1.0215042
85	0x3f8ecd17	1.1156338
86	0x3f903de7	1.1268891
87	0x3f800000	1.0
88	0x3f800000	1.0
89	0x3f90ab47	1.130227
90	0x3f8ae69d	1.0851628
91	0x3f87d0ae	1.0610559
92	0x3f05669c	0.52109694
93	0x3f8953fc	1.0728755
94	0x3f800000	1.0
95	0x3f19fd06	0.6015171
96	0x3f6367b7	0.8883013
97	0x3f836202	1.0264285
98	0x3f56d3d4	0.83916974
99	0x3f800000	1.0
100	0x3f748d27	0.9552788
101	0x3f7fe0a6	0.9995216
102	0x3f92ea47	1.1477746
103	0x3f800000	1.0
104	0x3f800000	1.0
105	0x3f41a056	0.7563528
106	0x3f8da9a4	1.1067395
107	0x3eada96a	0.33918315
108	0x3e9977c2	0.2997418
109	0x3f332197	0.6997313
110	0x3f8a4404	1.0802007
111	0x3f662147	0.8989453
112	0x3f800000	1.0
113	0x3f3b81f4	0.7324517
114	0x3f83f12b	1.0307974
115	0x3f737489	0.95099694
116	0x3f284175	0.6572488
117	0x3f800000	1.0
118	0x3f1a2d9c	0.60225844
119	0x3f13c264	0.5771849
120	0x3f77092c	0.9649837
121	0x3f85f12f	1.0464228
122	0x3f7b7d01	0.98237616
123	0x3f8199f6	1.012511
124	0x3f873db3	1.0565704
125	0x3f806304	1.0030217
126	0x3f84c7fb	1.0373529
127	0x3f8601de	1.046932
128	0x3f869f8a	1.0517437
129	0x3f800000	1.0
130	0x3f39fb44	0.72649026
131	0x3f800000	1.0
132	0x3f70ca36	0.9405855
133	0x3f69724e	0.9119004
134	0x3f7b65b6	0.98202074
135	0x3faea4d0	1.3644047
136	0x3f800000	1.0
137	0x3f7726c6	0.9654354
138	0x3f464101	0.7744294
139	0x3f800000	1.0
140	0x3ea84af0	0.32869673
141	0x3f85e3e8	1.0460176
142	0x3f85b111	1.0444661
143	0x3f89ecaf	1.0775355
144	0x3f8f430d	1.1192337
145	0x3f06b6d6	0.52622736
146	0x3faded33	1.3588012
147	0x3f800000	1.0
148	0x3f1bbd01	0.6083527
149	0x3f699669	0.9124513
150	0x3ef5f900	0.48041534
151	0x3f82b4fb	1.0211481
152	0x3ec18cc6	0.37802714
153	0x3f800000	1.0
154	0x3f89091d	1.0705906
155	0x3f800000	1.0
156	0x3f8cb032	1.099127
157	0x3f90661f	1.1281165
158	0x3f814909	1.0100414
159	0x3f737495	0.95099765
160	0x3f6e48dc	0.93079925
161	0x3f462cf7	0.7741236
162	0x3f040bf9	0.5158077
163	0x3f5425bc	0.8287008
164	0x3ebe7d02	0.37204748
165	0x3edc7849	0.4306052
166	0x3f800000	1.0
167	0x3f869421	1.0513955
168	0x3f82ab0a	1.0208447
169	0x3f9a3032	1.2045958
170	0x3f7a743f	0.9783363
171	0x3f5191b0	0.81862926
172	0x3f3362aa	0.70072424
173	0x3f86405f	1.0488394
174	0x3f800000	1.0
175	0x3f8418e4	1.0320096
176	0x3f84ed7c	1.0384974
177	0x3f492040	0.78564835
178	0x3f8d1169	1.1020938
179	0x3f83f6cc	1.0309691
180	0x3f800000	1.0
181	0x3f6e578c	0.93102336
182	0x3f7f2818	0.99670553
183	0x3f2ebce8	0.68257
184	0x3f437726	0.7635368
185	0x3f767cd6	0.96284235
186	0x3f7b63d4	0.981992
187	0x3e8e10f5	0.27747312
188	0x3f8d25b9	1.1027137
189	0x3f4961a7	0.7866463
190	0x3f3da00f	0.74072355
191	0x3e7081b9	0.23486985
192	0x3f8d66d6	1.1047008
193	0x3f6682e0	0.9004345
194	0x3f7b63a8	0.9819894
195	0x3f800000	1.0
196	0x3fdb3945	1.7126852
197	0x3f970c43	1.1800617
198	0x3eb67389	0.3563502
199	0x3f800000	1.0
200	0x3f576e2f	0.841525
201	0x3e77b3de	0.24189708
202	0x3f175108	0.5910802
203	0x3f23fbdb	0.64056176
204	0x3f800000	1.0
205	0x3f800000	1.0
206	0x3ee72c37	0.4515092
207	0x3f800000	1.0
208	0x3f477b3e	0.7792243
209	0x3f81cfc5	1.0141531
210	0x3f29ec70	0.663764
211	0x3f9f47f4	1.2443833
212	0x3eb7bdd9	0.3588703
213	0x3f0bcc56	0.54608667
214	0x3f8d9f0f	1.1064166
215	0x3ef9f3af	0.48818728
216	0x3f2f10e0	0.68385124
217	0x3f800000	1.0
218	0x3f9a55c0	1.2057419
219	0x3f800000	1.0
220	0x3f8c4e8f	1.0961474
221	0x3f47e931	0.78090197
222	0x3f800000	1.0
223	0x3f323f7c	0.6962812
224	0x3f800000	1.0
225	0x3f0380f5	0.5136865
226	0x3f90157b	1.1256555
227	0x3f800000	1.0
228	0x3f788220	0.97073555
229	0x3eebedda	0.46079904
230	0x3f6dd49a	0.9290253
231	0x3f7d15e9	0.9886156
232	0x3f7f9463	0.99835795
233	0x3f800000	1.0
234	0x3f17daf0	0.5931845
235	0x3f800000	1.0
236	0x3f800000	1.0
237	0x3f967a04	1.1755986
238	0x3ed3d44e	0.41372913
239	0x3f7b63b7	0.9819903
240	0x3f800b8b	1.0003523
241	0x3f6403c0	0.8906822
242	0x3e9eb47d	0.30997077
243	0x3f800000	1.0
244	0x3f800000	1.0
245	0x3f800000	1.0
246	0x3f800000	1.0
247	0x3dd6c381	0.10486508
248	0x3f800000	1.0
249	0x3f6f58df	0.9349498
250	0x3f8b537e	1.0884855
251	0x3f898246	1.0742881
252	0x3f24eb30	0.6442137
253	0x3f800000	1.0
254	0x3f8353c5	1.025994
255	0x3faf39e4	1.3689542

bn1.bias f4 [256]
0	0x3df207f8	0.11817926
1	0x3e398e01	0.18120576
2	0x3bc73b47	0.0060800645
3	0xbe850445	-0.2597982
4	0xbccae1ec	-0.024765931
5	0xbc5611ee	-0.013065798
6	0xbaf9d924	-0.0019061905
7	0x3c392967	0.011301375
8	0x3beb1afe	0.0071748486
9	0xbe1ef9be	-0.15524957
10	0x3a86981a	0.0010268718
11	0x3e303ad5	0.17209943
12	0x3d8a594a	0.06755312
13	0x3daef51c	0.08542845
14	0x3df17d6a	0.11791499
15	0x3e332237	0.1749352
16	0x3e4984b2	0.19679525
17	0x3ec6172d	0.38689557
18	0x3bbaed59	0.0057045636
19	0x3d8fec72	0.0702752
20	0x3e042188	0.12903416
21	0xbda2f057	-0.079559974
22	0x3d9161c6	0.07098727
23	0x3ba11208	0.0049154796
24	0x3e756ef7	0.23968111
25	0xbb8b02a5	-0.0042422586
26	0x3de5269b	0.11189004
27	0x39e92104	0.00044465822
28	0x3dd9f4e8	0.10642415
29	0xbde6e55d	-0.11274216
30	0x3e904c3e	0.28183168
31	0x3e126d52	0.14299515
32	0x3bcf258d	0.006321615
33	0xbb7944a2	-0.0038035293
34	0x3df2f78f	0.11863624
35	0x3cf28465	0.029604146
36	0xbe3db48d	-0.18525906
37	0x3b855b33	0.0040697097
38	0x3e2b69c9	0.16739573
39	0x3e34bf86	0.17651185
40	0xbba124ba	-0.004917708
41	0x3d3f4756	0.04669889
42	0x3b84810a	0.004043703
43	0xbbd81c9c	-0.0065952074
44	0x3ddbc632	0.10731162
45	0xbbae44d8	-0.0053182654
46	0x3e371b23	0.17881446
47	0xba50268e	-0.00079403154
48	0xbde7d471	-0.11319817
49	0x3e10de65	0.14147337
50	0x3e79c984	0.24393278
51	0x3e186abb	0.14884464
52	0x3ee2e51c	0.44315422
53	0x3d5fac2e	0.054607563
54	0x3e8333ee	0.25625557
55	0x3c3e2833	0.011606264
56	0x3dbd925a	0.0925643
57	0xbc94471a	-0.01810031
58	0xbdaa6693	-0.08320346
59	0xbca83504	-0.020533092
60	0x3a692c2d	0.00088948273
61	0xbdeeed70	-0.11666381
62	0x3db2f16c	0.08737454
63	0x3e58bcb1	0.2116573
64	0xbc5fcc82	-0.013659598
65	0x3db733a6	0.08945398
66	0x3e42f69d	0.19039388
67	0xbdbfdfa9	-0.09368832
68	0x3e521a17	0.20517765
69	0x3e2de8fe	0.1698341
70	0x3be81433	0.007082486
71	0x3dad11b3	0.084506415
72	0x3c6ecd07	0.0145752495
73	0xbca6a7d6	-0.020343702
74	0x3d81f112	0.06344809
75	0x3ed2fef8	0.4121015
76	0x3e167154	0.14691669
77	0xbce73505	-0.028223524
78	0x3b04b8a0	0.0020251647
79	0x3c4e4126	0.012588775
80	0x3dc60fd7	0.0967099
81	0xbe51c694	-0.20485908
82	0x3e5a0c56	0.21293768
83	0x3e22e1f4	0.15906507
84	0xbc7db4e3	-0.015485021
85	0x3e05e035	0.1307381
86	0x3e1091da	0.14118138
87	0xbc3c8e00	-0.011508465
88	0xba465886	-0.00075662916
89	0x3e8d2253	0.2756525
90	0x3e0bb7a9	0.1364428
91	0x3c5bd269	0.013416865
92	0xbe73ea5f	-0.23819874
93	0x3e1cd6b9	0.15316285
94	0x3d8b47d0	0.068008065
95	0x3e4d35f0	0.20040107
96	0xbd5f96bc	-0.05458711
97	0xbd18b453	-0.037281346
98	0x3e7499ce	0.23886797
99	0x3c3ee09b	0.01165023
100	0x3b01d4a7	0.0019810589
101	0x3e2b7322	0.16743138
102	0xbe06ed07	-0.13176356
103	0xbbc479e2	-0.005995975
104	0xbbbdbf99	-0.0057906625
105	0x3df3e428	0.11908752
106	0xbbb1e746	-0.0054291813
107	0xbe6ff6e2	-0.23434022
108	0x3d8b9347	0.068152
109	0x3d9eb425	0.077492036
110	0xbc2ae148	-0.010429688
111	0xbd5664b3	-0.052342128
112	0x3c10f39f	0.008847146
113	0x3e4cb8dd	0.19992395
114	0x3deca0b7	0.115540914
115	0x3da612c7	0.0810905
116	0xbe197314	-0.14985305
117	0xbb11817e	-0.0022202427
118	0x3c96ed02	0.018423561
119	0xbdd3cdaa	-0.10341962
120	0x38ecbebc	0.00011288884
121	0x3c5ac697	0.013353012
122	0x3ce54fd9	0.027992176
123	0x3bdd2a20	0.0067494065
124	0xbe164f8a	-0.14678779
125	0x3d9b59b2	0.075854674
126	0x3d2cde3a	0.04220412
127	0x3e41c1c2	0.18921569
128	0x3e38c996	0.18045649
129	0xbbe41ae5	-0.006961214
130	0x3da790be	0.08181904
131	0xba8de0be	-0.0010824425
132	0x3e77c9b6	0.2419804
133	0x3e5162e2	0.20447877
134	0x3be3c05d	0.0069504217
135	0x3dd30d13	0.10305228
136	0xbabc2be4	-0.0014356342
137	0x3e3921f3	0.18079357
138	0x3e114d74	0.14189702
139	0x3bda19cc	0.0066559073
140	0xbcc70e1f	-0.024298726
141	0x3c14c7f5	0.009080877
142	0xbc1f439c	-0.009720709
143	0x3ca6d1be	0.020363685
144	0xbb3395fa	-0.0027402625
145	0x3ec74489	0.38919476
146	0xbcb08395	-0.021547118
147	0xbcdb20aa	-0.026748974
148	0xbe8110f5	-0.2520825
149	0xbc8ca3f2	-0.017168019
150	0xbb72fb2a	-0.0037075975
151	0xba5916df	-0.0008281301
152	0xbcb2e404	-0.021837242
153	0xbe41f5c2	-0.18941405
154	0x3c498044	0.012298647
155	0x3e8c5068	0.27405095
156	0xbaa01432	-0.001221305
157	0x3bdbf602	0.006712676
158	0x3ba0079b	0.004883719
159	0x3c35e244	0.011101309
160	0xbc67c02c	-0.014144938
161	0x3c57790d	0.013151419
162	0xbe4ec47f	-0.20192145
163	0xbc7414f6	-0.014897576
164	0xbd80dd8b	-0.06292256
165	0xbde49a16	-0.11162202
166	0x3c6f1fba	0.014594967
167	0x3c9d705c	0.019218616
168	0x3c0d7501	0.008633853
169	0x3b4099af	0.0029388478
170	0x3baabda5	0.0052105957
171	0x3e2a86bc	0.1665296
172	0x3e88ac40	0.26693916
173	0xbe0fa515	-0.14027818
174	0xbaa92be7	-0.0012906761
175	0x3c7b9a9c	0.015356686
176	0xbc409151	-0.011753396
177	0xbc99c452	-0.01877037
178	0x3e047de1	0.12938644
179	0x3c809a51	0.015698584
180	0x3ba1faba	0.004943219
181	0xbe58ffb2	-0.2119129
182	0x3dd0c53d	0.1019387
183	0x3e652a16	0.22379336
184	0xbd0b4b57	-0.034007397
185	0x3a8388eb	0.0010035312
186	0x3e476f2b	0.19476001
187	0x3e1a58e9	0.15072979
188	0xbe7971c8	-0.2435981
189	0x3e87d4f5	0.2652966
190	0x3d0641d9	0.03277764
191	0x3d32a648	0.04361561
192	0x3dc5fefd	0.09667776
193	0x3d380846	0.044929765
194	0x3a17aafa	0.00057856704
195	0x3b036fde	0.0020055692
196	0xbde9000d	-0.11376963
197	0xbdacea97	-0.08443182
198	0x3d875442	0.06607868
199	0xbb971ba4	-0.0046114493
200	0x3e8d4a01	0.27595523
201	0x3dcabad9	0.098989196
202	0x3e835dc0	0.25657463
203	0x3dfdc3a0	0.12390828
204	0x3bbf14c0	0.005831331
205	0x3dee5651	0.11637557
206	0x3e8acc70	0.27109098
207	0xbe11df69	-0.1424538
208	0x3e16f556	0.14742026
209	0x3c5a6b28	0.013331212
210	0x3d14458c	0.036199138
211	0x3e715477	0.23567377
212	0xbe6a9ebc	-0.22912115
213	0x3e4cb992	0.19992664
214	0x3e0b6a54	0.1361478
215	0x3dc017c3	0.09379532
216	0x3d22464b	0.039617818
217	0xbc66051d	-0.014039305
218	0x3e736794	0.2376998
219	0x3b52dde6	0.0032175719
220	0x3e63ea42	0.22257331
221	0x3c902c76	0.017599326
222	0xbb93b59d	-0.004507734
223	0x3de8485c	0.113419265
224	0x3c205802	0.009786608
225	0x3d5bb83d	0.0536425
226	0xbd995579	-0.07487006
227	0xbdbafffb	-0.09130856
228	0x3e1c6b23	0.15275244
229	0x3d132d9a	0.03593216
230	0x3e765465	0.24055631
231	0x3e729305	0.23688896
232	0x3e7fd7be	0.24984643
233	0xbc3c5cae	-0.011496706
234	0x3eae3b0b	0.3402942
235	0xbc1e7efa	-0.009673828
236	0xbc9a2f89	-0.018821495
237	0x3e621a9e	0.22080466
238	0x3e0b7522	0.13618901
239	0x3dfa538f	0.12222969
240	0x3e6de4de	0.23231837
241	0x3df488ed	0.11940179
242	0xbdcdf7d5	-0.10057036
243	0xbc808b13	-0.015691316
244	0x3c540f76	0.012943139
245	0xbc364c64	-0.011126611
246	0x3c5f7c38	0.013640456
247	0xbcc6bbec	-0.02425953
248	0x3bbf5f1d	0.005840196
249	0x3b53b80c	0.0032305745
250	0x3cbf0f18	0.023322627
251	0xbdd8ac1d	-0.10579703
252	0x3dec520c	0.11539087
253	0x3b998ac6	0.0046857325
254	0x3b9c3650	0.0047672167
255	0x3ec1df60	0.37865734

bn1.running_mean f4 [256]
0	0x3db03b23	0.086050294
1	0x3e3bdb16	0.18345293
2	0x00000004	6e-45
3	0x3f1a7f7a	0.60350764
4	0x3d8b6764	0.068068296
5	0x00000000	0.0
6	0x00000004	6e-45
7	0x3f696b40	0.91179276
8	0x00000000	0.0
9	0x3f961772	1.1725905
10	0x00000000	0.0
11	0x3f7eec14	0.99578977
12	0x00000004	6e-45
13	0x3fa9ed5c	1.3275561
14	0x3d164598	0.036687464
15	0x3daf26c9	0.085523196
16	0x00000000	0.0
17	0x3e7e5b6b	0.2483956
18	0x00000000	0.0
19	0x3fec4536	1.8458622
20	0x00000004	6e-45
21	0x3e561254	0.20905429
22	0x3cb6dde7	0.022322608
23	0x00000004	6e-45
24	0x3d306124	0.04306139
25	0x00000004	6e-45
26	0x00000004	6e-45
27	0x3decaa2a	0.11555894
28	0x3db1f17b	0.08688637
29	0x3dcf14ad	0.101113655
30	0x3c965040	0.018348813
31	0x3ff73343	1.9312519
32	0x3ddba12a	0.10724099
33	0x00000004	6e-45
34	0x3e11fb42	0.14256003
35	0x3ce0116c	0.027352057
36	0x00000004	6e-45
37	0x00000000	0.0
38	0x00000004	6e-45
39	0x3e0be26f	0.13660596
40	0x00000000	0.0
41	0x3e442772	0.19155672
42	0x3fc43c3e	1.5330884
43	0x00000004	6e-45
44	0x3f9623e6	1.1729705
45	0x00000004	6e-45
46	0x3cfc478d	0.030795837
47	0x00000000	0.0
48	0x3e63f135	0.22259982
49	0x3f306144	0.68898416
50	0x3e9ef2d2	0.31044632
51	0x00000004	6e-45
52	0x3fc4ba85	1.5369421
53	0x3e7ff426	0.24995479
54	0x00000000	0.0
55	0x00000000	0.0
56	0x3dad5078	0.08462614
57	0x00000004	6e-45
58	0x3c8feaa9	0.01756795
59	0x3fd674e0	1.6754417
60	0x00000000	0.0
61	0x00000004	6e-45
62	0x3cf05901	0.029339315
63	0x00000004	6e-45
64	0x00000000	0.0
65	0x00000000	0.0
66	0x3ea9ddc7	0.33177015
67	0x3d83e460	0.064400434
68	0x00000004	6e-45
69	0x00000004	6e-45
70	0x00000000	0.0
71	0x3cf34a38	0.029698476
72	0x00000004	6e-45
73	0x3e97fe7e	0.2968635
74	0x00000004	6e-45
75	0x3ea16b1a	0.31527025
76	0x3d9898d8	0.07451028
77	0x3deff87e	0.11717318
78	0x00000004	6e-45
79	0x00000000	0.0
80	0x3f9241f1	1.1426374
81	0x3d7aab21	0.061198357
82	0x3e055d64	0.13023907
83	0x3ddbd38c	0.10733709
84	0x00000004	6e-45
85	0x3d9978b9	0.07493729
86	0x3da7ab04	0.081869155
87	0x00000000	0.0
88	0x00000000	0.0
89	0x3e8e3984	0.27778256
90	0x00000004	6e-45
91	0x00000004	6e-45
92	0x3e487148	0.19574463
93	0x00000004	6e-45
94	0x00000000	0.0
95	0x3f975fca	1.1826108
96	0x00000004	6e-45
97	0x00000004	6e-45
98	0x3def2cff	0.11678504
99	0x00000000	0.0
100	0x00000004	6e-45
101	0x3e4a5e12	0.19762447
102	0x00000004	6e-45
103	0x00000000	0.0
104	0x00000000	0.0
105	0x3ed0bea2	0.4077044
106	0x00000004	6e-45
107	0x3f6575a4	0.8963263
108	0x3ff99313	1.9498008
109	0x3fe816f3	1.8132004
110	0x00000004	6e-45
111	0x00000004	6e-45
112	0x00000000	0.0
113	0x3fb85edb	1.4403948
114	0x00000004	6e-45
115	0x00000004	6e-45
116	0x3ff00ed2	1.8754523
117	0x00000000	0.0
118	0x3fa04c55	1.2523295
119	0x400ec49b	2.2307498
120	0x00000004	6e-45
121	0x00000004	6e-45
122	0x00000004	6e-45
123	0x00000004	6e-45
124	0x3c7d61ed	0.015465242
125	0x3d14e807	0.03635409
126	0x3e6c2bba	0.23063555
127	0x3d8827c0	0.06648207
128	0x00000004	6e-45
129	0x00000000	0.0
130	0x4005c4db	2.09014
131	0x00000000	0.0
132	0x3e2f841b	0.17140238
133	0x3da16a0c	0.07881555
134	0x00000004	6e-45
135	0x3d8cbb79	0.06871695
136	0x00000000	0.0
137	0x3cb24647	0.021762026
138	0x3a175c02	0.0005773903
139	0x00000000	0.0
140	0x3fcb0520	1.5860939
141	0x00000004	6e-45
142	0x00000004	6e-45
143	0x00000004	6e-45
144	0x00000004	6e-45
145	0x3f213a71	0.629798
146	0x00000004	6e-45
147	0x00000000	0.0
148	0x3e5fb321	0.21845676
149	0x00000004	6e-45
150	0x00000004	6e-45
151	0x00000004	6e-45
152	0x3fa431aa	1.2827656
153	0x00000000	0.0
154	0x00000004	6e-45
155	0x00000000	0.0
156	0x00000004	6e-45
157	0x00000004	6e-45
158	0x00000004	6e-45
159	0x00000004	6e-45
160	0x00000004	6e-45
161	0x3c9f05ba	0.01941191
162	0x40060bf7	2.0944803
163	0x00000004	6e-45
164	0x3f1e16e7	0.61753696
165	0x3fa28598	1.269702
166	0x00000000	0.0
167	0x00000004	6e-45
168	0x00000004	6e-45
169	0x00000004	6e-45
170	0x00000004	6e-45
171	0x4005a653	2.0882766
172	0x3ea5ee5f	0.32408425
173	0x00000004	6e-45
174	0x00000000	0.0
175	0x00000004	6e-45
176	0x00000004	6e-45
177	0x3ffdf958	1.9841719
178	0x00000004	6e-45
179	0x00000004	6e-45
180	0x00000000	0.0
181	0x00000004	6e-45
182	0x3bec6147	0.007213745
183	0x3fe4622d	1.7842461
184	0x3e60436b	0.21900718
185	0x00000004	6e-45
186	0x00000004	6e-45
187	0x3f7c78da	0.98621905
188	0x00000004	6e-45
189	0x3c6a9cf4	0.014319647
190	0x3fec11d4	1.8442941
191	0x3f3f1e66	0.7465576
192	0x00000004	6e-45
193	0x00000004	6e-45
194	0x00000004	6e-45
195	0x00000000	0.0
196	0x3dcb2ab7	0.099202566
197	0x3e08576f	0.13314603
198	0x3f9439ce	1.158014
199	0x00000000	0.0
200	0x3ee7bb7f	0.45260236
201	0x4001f875	2.0307896
202	0x3e9fbd65	0.31199184
203	0x3d22d9b6	0.039758407
204	0x00000000	0.0
205	0x00000000	0.0
206	0x3fbc3752	1.4704382
207	0x00000000	0.0
208	0x3fe06286	1.7530067
209	0x00000004	6e-45
210	0x3dc25d39	0.09490437
211	0x3c97ea66	0.018544387
212	0x3f5491b2	0.83034813
213	0x3f67277b	0.9029462
214	0x00000004	6e-45
215	0x3fa275c0	1.2692184
216	0x3e90a7db	0.28253064
217	0x00000000	0.0
218	0x3d26e3b1	0.040744487
219	0x00000000	0.0
220	0x00000004	6e-45
221	0x00000004	6e-45
222	0x00000000	0.0
223	0x3e86ec18	0.26352
224	0x00000000	0.0
225	0x3f279629	0.654635
226	0x00000004	6e-45
227	0x00000000	0.0
228	0x00000004	6e-45
229	0x3ede2f03	0.43395242
230	0x00000004	6e-45
231	0x3dd3d465	0.103432454
232	0x3da24d70	0.07924926
233	0x00000000	0.0
234	0x3fa455e3	1.283871
235	0x00000000	0.0
236	0x00000000	0.0
237	0x3df9ec09	0.12203223
238	0x3fad5c53	1.35438
239	0x00000004	6e-45
240	0x3d0efda1	0.034909848
241	0x3dd11361	0.10208774
242	0x3fea7607	1.8317269
243	0x00000000	0.0
244	0x00000000	0.0
245	0x00000000	0.0
246	0x00000000	0.0
247	0x3f9a25b9	1.2042762
248	0x00000000	0.0
249	0x3d5a9ba0	0.05337107
250	0x00000004	6e-45
251	0x00000004	6e-45
252	0x3ee36c67	0.44418642
253	0x00000000	0.0
254	0x00000004	6e-45
255	0x3d8a6dc1	0.06759215
