MTP 2021/Model/Ward2_actor.pth (torch_old, 144378 bytes, 13 tensors)

fc1.weight f4 [256, 3]
000000 b0 ca 48 3c 98 8d e5 3c e6 3f 55 bd 1b a1 95 3d
       0.012255356 0.028021619 -0.05206289 0.07306119
000010 b8 52 f7 3d 3c 9f e0 3c 1c 18 2a be c9 f6 8b bd
       0.12076324 0.027419679 -0.1661076 -0.0683418
000020 af 80 9a bc c2 15 22 bd f8 02 10 bc e0 14 a7 3c
       -0.01886019 -0.03957153 -0.00878977 0.020395696
000030 d1 62 7a 3e 6e 71 84 bb 49 c4 08 bd eb e0 2c 3e
       0.24451758 -0.004041842 -0.033390317 0.16882674
000040 b2 1b 9a 3c 7d ef 9e 3d 46 fa 77 3d 25 ec 16 3e
       0.018812034 0.077605225 0.060541414 0.1473852
000050 37 8b df bc d8 cf 6c 3d f8 95 02 bc 72 c5 16 3d
       -0.027288062 0.057815403 -0.007970326 0.036809392
000060 00 0f c8 ba 0a c1 7e 3d 74 a6 ab bc d6 8b 10 bd
       -0.0015263259 0.062195815 -0.020953394 -0.035289608
000070 eb e0 34 3e cf c1 54 3d bf 19 a2 3c de 93 a9 3d
       0.17663924 0.051942643 0.019787667 0.082801566
000080 9e e9 f7 3d ef 28 ff bb a3 4d 73 3e 6b 58 b0 3c
       0.12105106 -0.007786862 0.23760085 0.021526536
000090 9e 9e 0c bd 7e 7c 1f bd a0 29 41 3e a0 fe d5 3b
       -0.034330957 -0.038937084 0.18863535 0.006530598
0000a0 c8 03 f6 bc ca e6 47 bd 6e 30 9e 3d 69 fe 66 3d
       -0.0300311 -0.048804082 0.07724081 0.05639497
0000b0 f9 5e b6 3d 33 4f 29 3e 2f be 92 bd 2c ed e3 3c
       0.08904833 0.16534118 -0.07165181 0.027823053
0000c0 7e b7 cb 3b 5f 67 f4 3d 40 db c2 3d 25 ba 53 3d
       0.0062169423 0.11933779 0.09514475 0.051691193
0000d0 a7 77 e1 3d d8 e0 09 be ad 1c 1f be 1c 98 e7 bc
       0.1100915 -0.13464677 -0.15538283 -0.028270774
0000e0 63 b8 1b bc 20 7d 3e 3e c9 1c 88 bc 14 84 ba bb
       -0.00950441 0.18602419 -0.016615288 -0.0056920145
0000f0 97 25 0f 3e c2 9f 19 bd 4a 14 16 bd d2 f6 29 bd
       0.13979183 -0.037505873 -0.036640443 -0.04149515
000100 b9 7c a0 bd e4 af 0b be 5d 14 26 be 27 0e 09 3d
       -0.07836289 -0.13641316 -0.16218705 0.033460762
000110 12 e3 01 bc 7e f8 76 3d 80 eb 0a bd e8 cf b6 bc
       -0.007927673 0.060295574 -0.033915997 -0.022315934
000120 3a dd b9 3d 46 9b 05 be dc 48 0e 38 b5 68 20 be
       0.09075399 -0.13047513 3.3923294e-05 -0.15664943
000130 6b 8e af bc 6e 3e 45 bc a8 92 08 3e c7 d5 8c 3c
       -0.021430215 -0.01203881 0.13337195 0.01719178
000140 e1 73 94 bd 11 45 49 be d2 3a 1e 3d 15 ef 92 3c
       -0.07248665 -0.19655253 0.038630314 0.017936269
000150 35 65 1f be 84 12 fd 3c 3b de f3 3c 1c ba b8 3c
       -0.15565951 0.030892618 0.029769054 0.022549681
000160 88 4b 3f 3e fa 1d 2c 3d 58 d1 43 3d 72 cd 51 3d
       0.18681157 0.042020775 0.047807068 0.05122132
000170 86 b0 38 bd 90 fd e7 bb b2 08 79 3d a0 15 1c 3c
       -0.04509022 -0.0070797876 0.060799308 0.00952664
000180 2f d2 a0 3d 46 71 2d 3d c1 98 41 be f7 bb 7b 3c
       0.07852589 0.042344354 -0.18905927 0.0153646385
000190 d7 32 8e 3c 40 29 2f bd 40 c2 46 be 18 c1 9d 3c
       0.017358227 -0.04276395 -0.19410038 0.019257113
0001a0 d8 26 41 3d 48 f3 16 bd d0 26 4c 3c 52 07 4a bd
       0.047156185 -0.036853105 0.0124604255 -0.049323387
0001b0 20 f1 f9 bd b9 e8 99 bb e5 4e f6 3d 90 7d 0c bc
       -0.12204194 -0.004696932 0.12026767 -0.008574858
0001c0 40 ab 96 3c 90 77 f5 bb 08 df 54 3c 88 d7 3b bc
       0.018392205 -0.0074910596 0.012992628 -0.011464961
0001d0 38 cd 67 3c c0 0b db ba 28 7d 48 bd 40 fe 22 3c
       0.014148049 -0.0016711876 -0.048947483 0.009948313
0001e0 f4 b4 88 3c 5c ac a5 3c 50 a2 5e bd 0e ca 01 be
       0.016687848 0.020223789 -0.054354012 -0.12674734
0001f0 4e 16 05 be 5b 2e f9 bd 91 43 80 3e 99 bf e3 3b
       -0.1299679 -0.12167045 0.2505155 0.0069503305
000200 cd 73 02 bd 50 17 84 3c 5a a6 09 3d 74 cf 24 bd
       -0.031848717 0.016124398 0.03360591 -0.040236905
000210 8c ea 33 bd 96 4d 2f 3d e8 d6 30 bd 90 62 4c bd
       -0.043924853 0.0427986 -0.0431737 -0.049898684
000220 68 da 39 3e 0c 42 4e 3d c0 75 c5 bb 9d 5d bd 3d
       0.18149722 0.050355956 -0.006026 0.09246371
000230 ae 2d 99 be 73 0e 32 3e 80 ef 81 bc 0b 28 05 bd
       -0.29917663 0.17388324 -0.015861273 -0.03250889
000240 50 b9 f9 3b 0a bb 23 bd 36 db 3d bd 35 85 6d 3e
       0.007620968 -0.039973296 -0.046351634 0.23195346
000250 c7 dd 9c bc 49 3c 90 bc 8d f9 8e bd 0c 22 3f 3d
       -0.01914872 -0.017606871 -0.06981192 0.04666333
000260 94 77 e2 3d 78 2f 9d bd c6 9c bf 3d 7e 3c 7b 3d
       0.11057964 -0.076750696 0.09356074 0.061336987
000270 c2 09 3a bd f4 0f 8f 3c 38 3b 62 3d 79 da 19 3d
       -0.045419462 0.017463662 0.055232257 0.037561867
000280 ac 9a 50 bd 79 8a 8d bd be e6 75 bd be 4e 1b 3d
       -0.050928757 -0.06911177 -0.060034506 0.03791689
000290 20 8b 36 bb d5 e4 0c 3e 40 26 4c bc d5 47 77 bd
       -0.002785392 0.13759167 -0.012460291 -0.06037124
0002a0 b1 39 17 be 30 30 2a bd 97 70 a1 bc f8 ce a6 3c
       -0.14768101 -0.04154986 -0.019707007 0.020362362
0002b0 98 a5 fb bc e0 71 0a 3c ac 72 4c bd 50 20 7d 3c
       -0.03071861 0.0084500015 -0.049914047 0.015449598
0002c0 66 12 1e bd c0 82 b8 bc 64 61 5a bd d8 7b 0b 3d
       -0.038591765 -0.022523284 -0.053315535 0.034053653
0002d0 2d 9b 37 3e 10 9e 14 3d 33 29 ca 3c 8c 02 61 3d
       0.17930289 0.036283553 0.024677848 0.05493407
0002e0 85 94 b7 bd 0e f2 e7 bc 7d c5 22 bc 47 7b b7 bd
       -0.08963875 -0.028313663 -0.00993478 -0.0895906
0002f0 23 46 7c bd 00 41 e0 bc 24 4e 77 bd 6c 63 e2 3c
       -0.061590325 -0.027374744 -0.060377255 0.027635299
000300 0d 5a 6b 3e 51 47 f3 bc f3 ce 9a 3a 5f c9 d8 3d
       0.2298357 -0.029697092 0.0011810943 0.105852835
000310 b4 40 83 bd 02 dd 30 bd 29 75 df bc c4 08 87 3e
       -0.064088255 -0.04317952 -0.027277546 0.26373875
000320 ee c8 99 bd b8 e1 ea bc 22 55 17 bd aa d6 3a bd
       -0.075090274 -0.028672084 -0.036946423 -0.045614876
000330 a0 5d 28 bb bc 27 56 bd 0a 7d 5a 3d 36 83 5e 3e
       -0.002569057 -0.052283987 0.053341903 0.2172974
000340 0d 04 e6 bb 12 dd 19 bd 3f c9 20 3e c1 30 6c bd
       -0.007019526 -0.037564345 0.1570177 -0.057663683
000350 af 1f 78 bc 73 16 2d bd eb 5f 72 3e 22 b9 3b bb
       -0.015144273 -0.042257737 0.23669402 -0.0028644283
000360 e4 ff ce bc 36 ae 52 3d a6 3e 52 bd 18 0e e5 3c
       -0.025268503 0.05143567 -0.051329277 0.027960822
000370 6c 3b 9e 3c 70 41 4b bd df 2c 0a bd 9a 56 64 bd
       0.019315444 -0.049622953 -0.0337342 -0.055746652
000380 c5 0a 7c bd 4f 81 35 3e 1f d2 00 bd 7e 70 b6 ba
       -0.061533708 0.17725109 -0.031450387 -0.0013919023
000390 f5 e9 3e be 93 ca 0a bd 9c 84 11 bc bc a7 84 3c
       -0.18643935 -0.033884596 -0.008881714 0.016193263
0003a0 98 07 fa bc 2a 8f 7d bd a4 e6 c6 bc dc a0 42 bd
       -0.0305212 -0.06190411 -0.0242799 -0.04751669
0003b0 60 5d 65 bc c7 90 84 3e 59 23 22 bd 10 34 a5 bc
       -0.013999313 0.25891706 -0.03958449 -0.020166427
0003c0 67 a1 66 bc f3 9d 97 bd 43 ae 8c bd 8e cc 7e bd
       -0.014076567 -0.07403173 -0.06869175 -0.062206797
0003d0 27 28 6e 3e 00 7c d8 3c 5f a8 22 be d3 a9 4d 3c
       0.23257504 0.026426315 -0.15884541 0.012552696
0003e0 8d 3d 66 3c e8 95 0c bd 04 00 a2 bc 18 b0 14 bd
       0.014052761 -0.03432265 -0.019775398 -0.03630075
0003f0 3c 04 59 bd f6 1a 32 3d 64 4b 78 3d e3 07 c0 bd
       -0.052982554 0.043482743 0.060618773 -0.09376504

fc1.bias f4 [256]
000000 0e 33 9e be 9b 7b 83 3e b1 41 3f 3e ac 57 d2 be
       -0.30898327 0.2568024 0.18677403 -0.41082513
000010 3c 4f b5 3e 8a fc 26 bd b7 f4 c2 3e 3d 50 10 bf
       0.35412014 -0.040768184 0.38077328 -0.56372434
000020 1f b6 02 bf 47 0c 75 3e b0 57 01 3f 7f 62 4a 3e
       -0.51059145 0.23930465 0.50524426 0.19764136
000030 77 77 07 3f 9a 48 0a bf e2 44 cb 3e 80 93 1a 3e
       0.52916664 -0.5401703 0.3970099 0.1509533
000040 63 03 42 3e f7 97 92 3e 59 26 0c 3e 16 ba 0b 3f
       0.18946604 0.28631565 0.13686503 0.5458082
000050 9f 1c 0b 3f 67 b9 4f 3e ed 61 0f 3f f1 b1 a4 be
       0.5434055 0.20285569 0.560088 -0.3216701
000060 a9 6e d5 3e e8 5f 1c 3f 2c 8d a7 3e fa e6 0f 3f
       0.4168599 0.6108384 0.32724893 0.5621182
000070 ea bc c5 3e 4f 62 d0 3e dc a1 b2 be b2 12 0f bf
       0.38620692 0.40700004 -0.34889114 -0.558879
000080 b4 a7 76 3e 52 48 18 be be c9 0c 3f ca dc 0d be
       0.24087411 -0.14871338 0.54995334 -0.13853756
000090 48 4d cc 3e a4 32 06 bf e8 5a 59 be 00 a2 3b bb
       0.3990271 -0.5242102 -0.21226084 -0.0028630495
0000a0 85 73 dc be 4d de 82 3e c2 96 3e 3d 84 25 c6 be
       -0.43056884 0.25560227 0.046530493 -0.38700497
0000b0 98 27 03 bf 99 3b 8a 3d 21 59 70 3e a0 d4 0c 3f
       -0.5123229 0.067496486 0.234715 0.5501194
0000c0 f0 50 d5 be f0 2c 83 3d 87 ee 49 3e ad 62 84 3d
       -0.41663313 0.064050555 0.19719897 0.064641334
0000d0 d2 6a d8 be 24 52 0b bd 98 8c d4 bd e3 0c 02 3e
       -0.42268997 -0.034013882 -0.10378379 0.12700228
0000e0 54 34 21 3e d4 33 b9 bd a7 4f d3 3c ce 43 04 bf
       0.15742618 -0.090430886 0.025794817 -0.5166596
0000f0 32 6e b1 3e 40 d6 a9 3e ce fe 56 3d 60 d2 2f bd
       0.34654385 0.33171272 0.052489094 -0.04292524
000100 79 97 c3 bc bc 72 b9 3e 65 39 93 3e ba 47 cd be
       -0.023875939 0.36220348 0.28754726 -0.40093786
000110 3a 80 ef be da 8f db 3e 25 70 1d 3e 40 14 5f 3e
       -0.46777517 0.42883188 0.15374811 0.21785069
000120 18 bb 61 be 50 aa d7 bd 1d 98 00 3e 12 3f 87 3d
       -0.22044027 -0.105305314 0.12558027 0.066038266
000130 52 2f 2c 3e ae e3 4d be 4c 4d df bd 19 62 9d 3e
       0.16814926 -0.20106384 -0.10903415 0.30738905
000140 a5 a3 64 3e e6 6f 1a bd 75 30 fa 3e ca fa 4e be
       0.2232805 -0.03770437 0.48865095 -0.20212856
000150 10 9d 0d bf 6b 49 a1 3e e8 ec e0 3e cd 6d 90 be
       -0.55317783 0.31501326 0.43930745 -0.2820877
000160 a8 94 cb be 41 17 10 3f 50 0f 1d bd 24 df 11 3f
       -0.39761853 0.5628548 -0.03834468 0.5698111
000170 e7 d0 00 bf 36 53 b7 3e 30 d8 11 3f b0 60 d3 3e
       -0.5031876 0.35805672 0.569705 0.41284704
000180 50 cd 0b bf d3 9f 35 3e 3c 5e 2d 3e b3 58 21 3d
       -0.54610157 0.1773675 0.16930479 0.03939123
000190 c0 0c 4f 3c d0 f8 aa be ba c0 ce 3e ac 5b 5e be
       0.012637317 -0.33392954 0.40381414 -0.21714658
0001a0 5c 67 06 3f 65 b5 d6 3d 37 af 8d 3e e0 62 dc be
       0.52501464 0.10483817 0.2767274 -0.43044186
0001b0 2a 50 17 be 38 51 86 bd 4a a5 d9 3e 31 ff 0d 3e
       -0.14776674 -0.0655846 0.42508918 0.13866879
0001c0 b1 dc b2 3d 57 e3 50 3e 7b 74 8a be ee 2a ab 3e
       0.087335 0.20399223 -0.27041993 0.3343119
0001d0 e0 20 71 3d 95 00 a1 bd 0c 40 b6 bc 2a cd f2 3d
       0.058869243 -0.07861439 -0.022247337 0.11855538
0001e0 14 ce 8d be 7a 71 d1 3e 69 b3 01 3f 5f 57 fe be
       -0.27696288 0.40906888 0.50664383 -0.49676034
0001f0 ea a8 05 3e e6 4d c7 3c 51 da 01 bf 96 bf 26 3f
       0.13052717 0.024329137 -0.5072375 0.65136087
000200 22 c1 14 3f e2 c7 ce be 91 72 80 3d 49 fc 9d 3e
       0.581072 -0.40386873 0.06271852 0.3085654
000210 2a 42 a4 3e 73 f4 aa be dc 55 bc 3d 14 1f a6 3e
       0.3208173 -0.33389625 0.09196064 0.32445586
000220 4e 81 a2 3e da 7d e0 be 23 ae a9 be f7 5f 1e 3e
       0.31739277 -0.43846017 -0.33140668 0.15466295
000230 78 e8 2a 3e 08 06 d8 bd e8 61 a1 3d 0a e1 d9 be
       0.16690242 -0.10548025 0.07880002 -0.42554504
000240 ca f8 b9 3e 24 cd db 3e 6e f7 e5 be 3c 45 26 be
       0.36322623 0.42929947 -0.44915336 -0.16237348
000250 7f 5a ad 3e 0b ff af be 2a 47 8d 3d a5 31 f2 bb
       0.33858106 -0.3437427 0.06898339 -0.007391172
000260 98 55 11 bf 31 cd 1d be 19 ac b4 be c2 74 23 be
       -0.5677123 -0.15410306 -0.3528755 -0.15962508
000270 a2 47 ea 3e 6c 18 03 3f 6b 5f 62 3c 46 8e f0 be
       0.45757776 0.5120914 0.013816695 -0.46983546
000280 4a a6 8d 3e a5 74 bf be 1c 01 eb 3e 4a 23 fb be
       0.2766593 -0.3739368 0.45899284 -0.4905036
000290 a0 2f 2f 3e 30 53 57 3d 75 56 26 3e a5 f9 db be
       0.17108011 0.05256957 0.16243918 -0.429639
0002a0 7c 67 96 3e e2 63 4a be b0 4f 06 bf 87 b8 08 3e
       0.29375827 -0.19764665 -0.52465343 0.13351642
0002b0 16 25 c7 be 39 ba 98 be fc f2 db 3e c8 04 a8 3d
       -0.38895482 -0.29829577 0.4295882 0.08204037
0002c0 28 c5 8e 3d cc 21 10 3e a4 61 b7 3b 82 cb 0b bf
       0.06971198 0.14075392 0.0055963565 -0.54607403
0002d0 1e 77 ee 3e c8 24 b8 be 3b e1 0e 3f 7e 4b ff bd
       0.46575254 -0.35965562 0.55812424 -0.12465571
0002e0 31 ba 72 3e 7b 05 9a 3e 34 e9 50 be 5e f1 34 be
       0.23703839 0.30082306 -0.2040146 -0.176702
0002f0 bf 45 a7 bc fd e8 fa 3d 7a 01 00 bf df e8 b2 be
       -0.020419 0.1225147 -0.50002253 -0.34943292
000300 2f 13 64 3e f1 74 ba 3c dd d3 41 3e e8 0a f1 3e
       0.22272943 0.02276084 0.18928476 0.47078633
000310 4a fd 8f be 2e dd ce 3e be e2 e3 3d f6 c3 e4 3e
       -0.28122932 0.40403122 0.11127232 0.44680756
000320 13 7d c7 be 2c 50 87 3d cf 74 d9 3d 93 2d ee be
       -0.38962612 0.066070884 0.106179826 -0.46519145
000330 bb 6f 1f 3f 60 cd ce be 5e 0a 35 3f e4 c8 ae 3d
       0.6227986 -0.40391064 0.70718944 0.085344106
000340 e3 26 ec 3e d0 09 c7 be 79 87 83 be d7 36 25 3c
       0.46123418 -0.38874674 -0.25689295 0.010083876
000350 41 68 c9 3e 30 c8 f5 3e b3 43 d0 be 20 d6 01 3d
       0.39337352 0.48004293 -0.4067665 0.031698346
000360 8a 87 86 bd 5a 0e 89 3e 34 af 06 bf 02 1a b1 be
       -0.06568821 0.26768762 -0.5261109 -0.34590155
000370 dc e2 94 be 25 3e bb be 33 a9 56 3e f6 fa 9b be
       -0.2907933 -0.3657085 0.20962982 -0.30464906
000380 da d8 fa 3b 6a 7c e6 3e 26 a2 5b be 9a e8 dd be
       0.0076552453 0.45016795 -0.21448573 -0.43341523
000390 b1 78 26 be a5 3e 10 3f 5f ec 9a 3e 48 29 b5 bd
       -0.16256978 0.5634559 0.30258462 -0.088457644
0003a0 ff b9 21 3f c7 70 4c 3e f7 40 9c 3e ac 01 df be
       0.6317443 0.19964896 0.30518314 -0.43555963
0003b0 66 d9 19 3e 86 22 ee be b0 f3 46 bd 03 e1 c9 be
       0.15024337 -0.46510714 -0.048572242 -0.39429483
0003c0 e0 0a a0 bd 79 11 af 3e 94 1a 1d 3e c5 90 ed be
       -0.07814574 0.34193018 0.1534217 -0.46399513
0003d0 3e 48 c3 3d 16 cf 04 3f b2 5f af 3e 8d 91 0c be
       0.095352635 0.5187849 0.34252697 -0.13727398
0003e0 7e f4 38 be 81 7c 9f be 91 5a 28 3e 6d e3 89 3e
       -0.18062016 -0.31149676 0.16440798 0.26931325
0003f0 5a 69 91 3d cb 27 0b bf 46 0c 68 be 8f 84 11 bf
       0.07100172 -0.54357594 -0.22660932 -0.56842893

fc2.weight f4 [128, 256]
000000 af 30 3d be ff 46 89 3d f9 c8 8f bd 1a 6e 05 3d
       -0.18475603 0.067029946 -0.07020754 0.032575704
000010 87 95 bd bc 7c 15 c8 bc b2 e5 ac 3b 26 ab 0c 3e
       -0.02314259 -0.024424307 0.0052764053 0.13737163
000020 59 b6 75 3e 09 64 43 3d 79 c6 e4 3c 27 a8 83 bd
       0.23995341 0.047702823 0.02792667 -0.06428557
000030 73 1a 3f 3c e7 1b 30 be ca 16 96 3d 5d 8e 87 3d
       0.011664021 -0.17198144 0.073285654 0.066189505
000040 a0 a1 9d bd d4 05 29 bd 95 97 bd 3d 5f d5 8b 3d
       -0.07696843 -0.041265324 0.092574276 0.06827807
000050 f6 4b 98 bb e3 4a 22 3d 82 e2 bb bd 32 50 c0 3d
       -0.004647727 0.0396222 -0.09174062 0.09390296
000060 03 06 a7 bd eb e5 8b 3d f1 d5 6d 3d 59 1d 26 bc
       -0.081554435 0.06830963 0.05806536 -0.010138833
000070 77 b1 72 bd 05 ea 87 bd 38 47 29 bd 0a 65 a3 3d
       -0.059251275 -0.066364326 -0.041327685 0.07978256
000080 bb 26 e5 3d 57 5b ad bd 60 77 f2 bc bb 78 2f be
       0.11189028 -0.08464687 -0.029597938 -0.17135899
000090 96 df 5a bd 30 e8 52 3e b4 40 3f 3e b8 81 17 be
       -0.053435884 0.20596385 0.18677026 -0.14795578
0000a0 7a 75 d7 3d 85 3d 9c 3d 87 c1 d7 3b 69 64 46 be
       0.10520454 0.076289214 0.0065843496 -0.19374241
0000b0 6a d2 cb 3d 19 b4 0d bd b6 80 93 3d 4e a3 9c bd
       0.09952243 -0.034595583 0.07202284 -0.076483354
0000c0 eb 4c aa 3d 55 81 02 3d 56 6f 80 3b ab 3d b9 bd
       0.08315452 0.031861622 0.0039195223 -0.09044965
0000d0 bf 58 d8 bc 75 16 12 3e eb 5d 9c 3d 4e d2 e8 bc
       -0.026409505 0.14266379 0.07635101 -0.028420594
0000e0 56 ae a3 bd ad c0 c0 3d a6 6c f0 3c f3 e0 70 3e
       -0.07992236 0.0941175 0.029348683 0.23523311
0000f0 2b b6 19 bc 79 82 42 3d 77 85 4a be 82 bc b8 bd
       -0.009381811 0.04748771 -0.19777475 -0.0902033
000100 6b 48 14 bc 67 25 46 3d 3d f4 95 bd 76 fc 59 3e
       -0.009050469 0.048375513 -0.073219754 0.21287712
000110 a2 94 15 be 0d 43 a4 3d 87 df d8 3b 5e 24 c2 3c
       -0.1460748 0.080206014 0.0066184434 0.023698982
000120 79 9b 2e be 94 af 3c be e0 50 cb bb 73 e0 5f 3c
       -0.17051496 -0.18426353 -0.0062047094 0.013664353
000130 66 4a 89 bd 01 88 f0 3d aa 8c 1a 3e 94 d3 dc 3d
       -0.067036435 0.11744691 0.15092722 0.10782543
000140 5e f1 a5 3d 2b 52 51 3d 51 62 00 be a4 3e e2 bd
       0.08102678 0.051103752 -0.12537505 -0.11047104
000150 40 86 05 be 00 7c 3d 3d b2 c1 b7 3d 44 b1 c8 bd
       -0.13039494 0.046260834 0.08972491 -0.09799436
000160 05 e3 ba 3d cd f7 4a bd 7f 00 1e 3e c7 bf e8 bd
       0.09125332 -0.049552727 0.15429877 -0.113647036
000170 ce 0a 47 be b7 b9 a5 3d 9e 0a 75 bd b2 55 37 3d
       -0.19437715 0.08092063 -0.05982458 0.04475946
000180 c6 f4 22 3e 36 37 2c 3b fb b5 ad bd 20 99 93 bd
       0.15913686 0.0026278025 -0.08481976 -0.07206941
000190 bb ac 59 be 09 b5 13 bd 64 de 71 3d cd 81 48 3e
       -0.21257298 -0.03606132 0.05904998 0.19580765
0001a0 27 b8 0c 3d 1e ff a8 bc 6a 95 90 3d e2 86 2e be
       0.03435531 -0.020629462 0.070597485 -0.17043641
0001b0 ad 8a 6f be 2e 8d d3 bd d0 11 c4 3c e6 c1 22 3d
       -0.23392744 -0.10329662 0.023934275 0.039735697
0001c0 bf 94 9e 3d b4 6c 06 3d d3 ef 29 3e 68 0d 3b 3d
       0.07743215 0.03281851 0.16595392 0.045667082
0001d0 de 05 12 3e f3 f2 31 3d 5b c6 c6 bb 3f 68 b6 bd
       0.1426005 0.043444585 -0.0060661263 -0.08906602
0001e0 0a 0c 62 3e 1b 17 b2 3d 9c b8 c4 bc 6f ba e9 3d
       0.22074905 0.08695813 -0.02401381 0.114125125
0001f0 e3 db 9a 3c 74 13 82 bd fe 07 61 be 5a 61 9f bb
       0.018903678 -0.06351367 -0.21975705 -0.0048639
000200 d0 14 ed 3d c1 01 51 3d 31 a6 aa 3d 88 f2 46 3b
       0.11576235 0.051027063 0.0833248 0.0030356962
000210 76 26 57 3d 16 52 95 3d 1b d4 fe 3c ef 5b 96 bd
       0.052526914 0.07291047 0.031107 -0.07341754
000220 12 8c 91 3d b3 9b f2 3d e9 dc d8 3d 97 78 de bd
       0.071067944 0.118461035 0.1058901 -0.108628444
000230 08 7f e8 3c 8c 5d b8 bd 4c d0 1a 3e dc 36 71 3c
       0.028380886 -0.09002218 0.15118521 0.014722552
000240 13 6a b3 3d 5c 1d 34 3d 32 a6 3c 3e 33 e4 2b 3e
       0.087604664 0.04397331 0.18422773 0.1678627
000250 e1 9d 9f bd 0a 3d 5e be 62 96 74 bd 17 9a 95 bd
       -0.07793785 -0.21702972 -0.05971373 -0.07304781
000260 42 ab 68 3e fd 3c 80 3e f5 42 5d 3e 6c b9 76 3e
       0.2272158 0.2504653 0.21607573 0.2409417
000270 c2 2c 86 3c 64 b5 53 3d 3d 8a ed bd 6e 3a 0a be
       0.016378764 0.05168666 -0.115986325 -0.13498852
000280 03 b4 db 3c 13 1f 8c bc ff fd 42 3b 77 92 28 be
       0.026819235 -0.017104661 0.0029753444 -0.16462122
000290 f0 a5 48 3e 96 d4 48 3c 2f 25 9c 3c c7 9e 3d be
       0.1959455 0.012257716 0.0190607 -0.185176
0002a0 16 71 18 3c 19 35 22 3e 87 bc f9 3d 83 dd 45 bd
       0.009304306 0.15840568 0.12194162 -0.048306953
0002b0 4c 2d 15 3e 0b f7 e7 3d af fe c2 3c 86 fc 19 3d
       0.1456806 0.113264166 0.023803083 0.03759434
0002c0 37 ba 66 be fa 83 72 bc ed 90 9e bc b8 9b f6 3d
       -0.22531973 -0.0148019735 -0.019356215 0.1204142
0002d0 1f f3 15 3d db 49 85 3e e7 60 ec 3b e2 0b 24 3d
       0.03660881 0.2603291 0.0072137 0.040050395
0002e0 d3 45 19 3d fe f9 18 bd 44 1d bd bd 23 2f 65 3e
       0.037420105 -0.037347786 -0.092340976 0.22381262
0002f0 06 73 e9 3c d6 16 8d 3c 15 38 4d be 6e ec 28 3e
       0.02849723 0.017222803 -0.20040925 0.16496441
000300 63 76 1b 3d 64 cc 7a bd 39 83 aa bc 9a 53 e7 bd
       0.0379547 -0.06123008 -0.020814525 -0.112952426
000310 54 15 14 3e 1c c9 d4 bc 47 c9 83 bd 77 d9 a3 3b
       0.14461261 -0.025974803 -0.06434875 0.005000289
000320 0d 8a 02 be f4 4f 13 bd 87 d3 cb bc 30 69 f5 bd
       -0.12747975 -0.03596492 -0.024881138 -0.119829535
000330 84 b3 a7 bd 4f d5 1c 3e 6f ed 97 3d 95 94 ea 3d
       -0.08188537 0.15315746 0.07418334 0.11454121
000340 e4 77 40 3d 7c a7 de 3d bb d9 ac 3c e5 f1 20 bd
       0.046989337 0.10871789 0.021099916 -0.03929319
000350 27 65 5c bd 6e 38 81 3d a6 c2 20 3e 74 f1 61 be
       -0.053807404 0.06309591 0.15699252 -0.22064763
000360 df bd 01 be b8 5a 97 3d 72 2c ed bd 14 3d 5e 3b
       -0.12670086 0.0739035 -0.11580743 0.0033910917
000370 42 8e 2f 3e 73 b2 40 be bd b2 9d 3d 26 fb ee 3d
       0.17144111 -0.18818073 0.07700107 0.116689965
000380 34 af 3c bc 4a 47 72 3c 75 47 11 3e ba d4 ce 3d
       -0.011516381 0.014787504 0.14187415 0.10099168
000390 1b 2a 28 be d5 0a d1 3d a8 b3 93 3d 33 5c fa bd
       -0.16422312 0.10207144 0.07212001 -0.12224617
0003a0 08 8a 52 bd 80 30 0f bd 25 01 5c bb 6e 76 79 3e
       -0.051401168 -0.034958363 -0.0033570018 0.24361584
0003b0 10 75 ab bd 96 f3 01 3e e5 52 7c 3e 3a 75 81 3e
       -0.08371937 0.12690577 0.24640997 0.2528475
0003c0 f9 57 8c bd 67 04 9a bd 0a 10 03 be d1 dd 21 be
       -0.06852717 -0.07520371 -0.12799087 -0.15807272
0003d0 10 4d 18 bd ff 8a 52 bd a6 4d 88 bd 4c b4 df bc
       -0.037182868 -0.05140209 -0.06655435 -0.027307652
0003e0 27 0c 56 3e 9b f7 8b 3d 05 e9 e3 bb c7 de 20 bd
       0.20903073 0.06834336 -0.0069552683 -0.039274957
0003f0 a8 1f 5f bd 9a 90 07 be 6a b4 55 3e 78 b1 59 bd
       -0.05447355 -0.13238755 0.20869604 -0.053147763

fc2.bias f4 [128]
000000 18 12 58 be 48 9d 00 3e 09 ca b2 bd ac 55 42 be
       -0.21100652 0.12559998 -0.087299414 -0.18977994
000010 54 d7 71 bd 20 31 35 be 74 e4 80 bd 66 9a 5b 3e
       -0.059043244 -0.17694521 -0.06293574 0.21445617
000020 8e 81 38 be 4d e0 bd bb 79 c5 bc bd a5 61 12 be
       -0.18018171 -0.005794561 -0.092173524 -0.14295061
000030 68 0d 1f 3d 3c 76 23 bd 18 91 f6 bd 09 c8 bb 3c
       0.038831145 -0.03990768 -0.12039393 0.022922533
000040 68 0c 9c 3d b6 d4 24 be 2d b9 36 be 94 d7 ab bd
       0.07619554 -0.16096768 -0.17844076 -0.08390728
000050 21 24 da bd 4d 95 6c be c8 52 d0 3c b6 64 03 be
       -0.10651422 -0.23103829 0.025430098 -0.12831387
000060 b0 02 02 be 13 a9 45 be 3d 98 a3 bd 65 8b 46 3d
       -0.12696338 -0.19302778 -0.079880215 0.04847278
000070 87 58 4d be c4 77 50 be 92 2b 26 be 2d 36 78 bc
       -0.20053302 -0.20358187 -0.16227558 -0.015149635
000080 0b 01 f9 bc 95 e7 45 be 04 1d 58 3d 21 d9 f1 bd
       -0.030396005 -0.19326623 0.052762046 -0.11808992
000090 06 c7 e3 ba e6 46 5e bc c0 60 fa 3b 3d 56 4c be
       -0.0017378039 -0.013566708 0.007640928 -0.19954772
0000a0 d6 52 83 3c 52 9f 96 3d 05 5a f4 bd 49 8f f5 bd
       0.01603071 0.07354607 -0.11931232 -0.1199022
0000b0 9e 6d 84 3d ab f7 b5 3d c6 2b 16 3e e7 ba 4d 3e
       0.0646622 0.088851295 0.14665136 0.20090829
0000c0 46 65 06 be 66 51 5e b9 6d 24 9b be 26 26 5b be
       -0.1312457 -0.00021201893 -0.30301228 -0.21401271
0000d0 12 ce ee bd c2 cf 30 be a6 31 3f 3d d0 82 17 be
       -0.116603985 -0.17266753 0.046678208 -0.14795995
0000e0 c6 42 e4 3d 04 b5 24 be 30 c9 80 be d2 80 81 be
       0.111455485 -0.16084677 -0.25153494 -0.25293595
0000f0 34 2d ad bd 7e 6a 1c be a4 ab 9c bd fa 72 89 bd
       -0.084558874 -0.15274999 -0.07649925 -0.06711383
000100 4e 7c 90 be c3 07 1e 3d 16 36 05 be eb e1 2e be
       -0.28219837 0.03858162 -0.13008913 -0.17078368
000110 70 e0 8d 3d 64 c7 1c bd 6a b1 79 bd 11 2f 1e be
       0.06927574 -0.03827609 -0.06096021 -0.15447642
000120 fc f5 d2 3c 24 02 c2 3d 5f 1d 65 be 88 c3 0b be
       0.02575206 0.094730645 -0.22374485 -0.13648808
000130 69 53 06 be b5 b4 38 bd f5 66 08 be 3c a2 71 3c
       -0.13117756 -0.04509421 -0.13320525 0.014748152
000140 b9 aa 50 be 44 c0 94 3c 11 95 16 bd ec 95 b8 3c
       -0.20377626 0.018158086 -0.036763255 0.022532426
000150 e2 a8 2f be b1 3a c3 bd 5c f4 14 be 4d 42 1b 3d
       -0.17154267 -0.09532679 -0.1454634 0.037905026
000160 39 f2 2f be 94 ac 5f 3d 7c 3b 04 3e c7 e6 2c bc
       -0.17182244 0.054607943 0.12913316 -0.0105530685
000170 29 68 53 bd 87 9e 95 bd 8d 3e 32 be d8 3e 69 be
       -0.051613007 -0.07305627 -0.17406674 -0.22777879
000180 4e af 04 3e da e8 59 bb a7 d0 f6 bd 93 9e 70 bd
       0.12957498 -0.0033250363 -0.12051516 -0.05874498
000190 00 b1 40 be a3 53 23 be 9a 36 51 3d 32 e7 69 bd
       -0.1881752 -0.15949874 0.051077463 -0.05710525
0001a0 01 24 15 be 4a d0 09 be 3e 8c 1e bd 30 cc 2f be
       -0.14564516 -0.13458362 -0.038707964 -0.17167735
0001b0 e9 02 83 be 43 e5 b1 bc 66 52 27 be 42 cb d8 bc
       -0.25588158 -0.021715766 -0.16340026 -0.026464108
0001c0 bf 9e 2e 3e dc 72 11 3d 51 94 95 bd 06 38 1c be
       0.17052744 0.03550993 -0.0730368 -0.15255746
0001d0 a8 6e 74 be ae 69 a1 3d d1 99 71 bd 48 6e 04 be
       -0.23870337 0.07881485 -0.05898458 -0.12932694
0001e0 e1 73 4f be 08 b8 0b 3d 66 2e f4 bd 7e c3 8a bd
       -0.20259048 0.034111053 -0.11922912 -0.067755684
0001f0 25 21 93 bd d0 2e 65 be 54 62 66 bd ce f6 2c 3e
       -0.07184056 -0.22381139 -0.056246117 0.16891024

fc3.weight f4 [1, 128]
000000 7f dd f5 ba cf da ef 3a 1b 71 20 3d 41 71 8f 3b
       -0.0018758028 0.0018299463 0.039170366 0.0043775146
000010 f8 2d b8 bb 95 b3 d9 3c ba 13 c7 ba a1 21 f1 bc
       -0.0056207143 0.02657489 -0.0015188374 -0.02943498
000020 4a a1 89 bd 3e 26 34 bc 87 42 30 bc e9 64 d7 bc
       -0.067202166 -0.010995446 -0.010758049 -0.026293235
000030 5b 33 87 ba c5 ea 1d bb ce 5c 7a bb 35 bf 42 bc
       -0.0010314988 -0.0024096232 -0.0038202289 -0.011886408
000040 ce f5 9d ba 24 47 1c bd 4f 2b ae 3c 72 64 0a bc
       -0.0012051405 -0.038153782 0.021260886 -0.0084468
000050 22 13 87 bb 2b 65 fc 3b 2d e5 90 ba d9 57 2b bd
       -0.004122154 0.00770249 -0.0011054628 -0.041831825
000060 a8 84 ce bc d7 d3 3e bc 99 f1 f2 bb a2 3b 44 3c
       -0.02520974 -0.011647186 -0.0074140546 0.011977108
000070 29 36 99 bd 97 97 39 3b 4c fd 4a bd 09 9d 43 3c
       -0.07481033 0.0028319114 -0.04955797 0.011939296
000080 ad fe 2b 3d 9c 92 04 bc e4 57 18 bb 92 92 62 3d
       0.041990925 -0.008091595 -0.0023245746 0.05531556
000090 6e 83 86 bc 9f 7a ce bb 7f cf f4 bb dd 50 30 3e
       -0.016420092 -0.0063012387 -0.0074710245 0.17218347
0000a0 c1 12 21 bb c5 47 c6 3a e9 34 a8 bc 76 27 e0 bc
       -0.0024577829 0.001512759 -0.020533042 -0.027362566
0000b0 6f ab 08 bc c4 6e 4f bb 24 b7 cd bc 97 7f 50 bd
       -0.008341654 -0.0031651715 -0.025111742 -0.05090293
0000c0 7e 1d 23 3c 65 56 dd bb 31 a3 32 bd c1 64 56 bc
       0.009955762 -0.006754684 -0.043612663 -0.013085545
0000d0 dc 87 17 3b d8 62 26 3c 17 10 38 bb f8 32 29 bb
       0.002312175 0.010155402 -0.0028085762 -0.0025817733
0000e0 d0 38 22 38 5b a1 af bb ee 82 31 be 4a 3d b0 bd
       3.867672e-05 -0.0053598112 -0.17335102 -0.0860544
0000f0 02 ad 69 bc ce 5e da 3c 7a 4e 9e bc 12 2b 8a 3b
       -0.01426244 0.026656535 -0.01932453 0.00421656
000100 b3 5a 3c be 4f f3 d1 ba 16 f0 7b bb 1e 42 47 bc
       -0.18393974 -0.0016017946 -0.0038442663 -0.01216176
000110 fb ee 81 bd 48 0f f4 3c 25 84 7c bc b5 c9 a0 bc
       -0.0634441 0.029792443 -0.015412365 -0.019627431
000120 85 9c ac bb 37 4b 2f bc 3a ab ab bd 0b e0 33 bd
       -0.005267682 -0.010699085 -0.08382268 -0.043914836
000130 52 10 42 bb 79 ee 36 3c a5 99 86 bd 54 3b 82 bc
       -0.0029611778 0.011165255 -0.06572274 -0.01589743
000140 31 15 94 bd e5 e7 40 ba 36 5c aa 3b 47 8c 90 ba
       -0.072306044 -0.0007358774 0.0051989807 -0.0011028134
000150 d2 f2 34 bd a1 e8 85 bc 35 1b 0c bc b6 bd 90 bb
       -0.044176884 -0.016346278 -0.008551409 -0.0044171466
000160 37 45 32 be e4 32 1d 39 19 3a a6 39 55 94 34 bc
       -0.17409216 0.00014991645 0.00031705273 -0.011021693
000170 10 56 97 3d a8 4c 68 bb dd 7b 2a 3c 13 55 03 bc
       0.07389462 -0.0035446081 0.010405508 -0.008015889
000180 86 bc 28 bc 02 ca d3 3b 20 ed 25 bb ac ce f2 bb
       -0.010298854 0.00646329 -0.002531834 -0.007409891
000190 f6 e3 74 bd c1 17 a0 bd c1 cd 89 bb ae c7 8e bc
       -0.059787713 -0.07817031 -0.004205436 -0.0174292
0001a0 46 f2 1d bd 5a 56 1f bd 0e af 71 bb 69 05 d6 bc
       -0.038561128 -0.03890071 -0.0036878022 -0.026125627
0001b0 ac f7 aa bc 8f 37 c1 3c b6 0c 83 bc 87 77 45 bc
       -0.020870052 0.023586063 -0.015997272 -0.012052423
0001c0 08 4b a9 bc cb e5 ae 39 ed ea ca ba c9 8a ca bb
       -0.02066566 0.00033359075 -0.001548139 -0.0061810953
0001d0 5b 1a 17 bc 92 41 fa ba eb eb ca bb 3d 77 31 bd
       -0.009222592 -0.0019093028 -0.0061926744 -0.043326605
0001e0 f3 44 94 bc ba 8c aa bb 31 74 83 bb 44 72 22 ba
       -0.018099284 -0.005204764 -0.004011654 -0.00061968365
0001f0 14 f3 7d 3d 7f 93 3f bc 54 db 80 bc 74 91 3c bd
       0.061999395 -0.011692881 -0.015729584 -0.046037152

bn1.weight f4 [256]
000000 00 00 80 3f cc dd 3e 3f 34 a0 76 3f 00 00 80 3f
       1.0 0.74557185 0.963382 1.0
000010 74 a4 3b 3f 84 4d 4c 3f 82 0e 4b 3f 00 00 80 3f
       0.7329781 0.7980578 0.7931901 1.0
000020 00 00 80 3f 0e a8 2d 3f 75 f0 36 3f ae e6 36 3f
       1.0 0.67834556 0.7146066 0.7144574
000030 02 d2 5f 3f 00 00 80 3f 2c 21 30 3f 63 04 49 3f
       0.8742982 1.0 0.68800616 0.7852232
000040 48 7e 24 3f 13 47 5e 3f f6 4a 82 3f b0 d2 12 3f
       0.6425519 0.868272 1.0179126 0.57352734
000050 f4 3b 0c 3f 1f 6c 7f 3f 28 ce 35 3f 00 00 80 3f
       0.5477898 0.99774355 0.71017694 1.0
000060 3f 8e 45 3f 78 24 1e 3f d5 69 32 3f 2f 08 48 3f
       0.77170175 0.61774397 0.69692737 0.7813749
000070 03 a9 3b 3f 3f 8d 45 3f 00 00 80 3f 00 00 80 3f
       0.73304766 0.7716865 1.0 1.0
000080 c1 cf 51 3f 5d 74 83 3f 2e 7b 49 3f 00 00 80 3f
       0.8195763 1.0269886 0.7870358 1.0
000090 8e e6 60 3f 00 00 80 3f 00 00 80 3f 00 00 80 3f
       0.878518 1.0 1.0 1.0
0000a0 00 00 80 3f f2 35 a8 3f d2 49 4e 3f 00 00 80 3f
       1.0 1.3141463 0.8058139 1.0
0000b0 00 00 80 3f af f0 32 3f 9a 8f 4f 3f 17 44 0d 3f
       1.0 0.69898504 0.81078494 0.5518202
0000c0 00 00 80 3f 94 a3 48 3f 11 f0 24 3f 67 b3 8f 3f
       1.0 0.783746 0.6442881 1.1226624
0000d0 00 00 80 3f a5 50 7c 3f 00 00 80 3f ac b9 29 3f
       1.0 0.98560554 1.0 0.6629894
0000e0 84 63 93 3f 00 00 80 3f b0 07 92 3f 00 00 80 3f
       1.1514745 1.0 1.1408596 1.0
0000f0 3c d0 30 3f 02 35 80 3f 5e 49 83 3f 00 00 80 3f
       0.6906774 1.0016177 1.0256765 1.0
000100 64 49 51 3f a5 ea 37 3f e3 a7 67 3f 00 00 80 3f
       0.8175261 0.71842414 0.9049055 1.0
000110 00 00 80 3f bc 72 27 3f 14 1a 32 3f 4c 89 3e 3f
       1.0 0.65409446 0.6957104 0.7442825
000120 00 00 80 3f 00 00 80 3f 35 f3 83 3f 71 3d 2f 3f
       1.0 1.0 1.0308596 0.6845313
000130 34 29 96 3f 00 00 80 3f 00 00 80 3f 18 90 5d 3f
       1.1731324 1.0 1.0 0.86547995
000140 42 e9 9a 3f 2f f1 4f 3f 94 2a 38 3f 00 00 80 3f
       1.2102435 0.8122739 0.7193997 1.0
000150 00 00 80 3f a9 38 1c 3f 33 92 39 3f 00 00 80 3f
       1.0 0.61023957 0.7248871 1.0
000160 00 00 80 3f 82 72 39 3f 00 00 80 3f 7b 92 54 3f
       1.0 0.7244035 1.0 0.8303601
000170 00 00 80 3f 64 d9 8f 3f 3d 50 22 3f cc 41 63 3f
       1.0 1.1238217 0.63403684 0.88772273
000180 00 00 80 3f 97 8c 7d 3f 8a f7 8c 3f a6 74 95 3f
       1.0 0.9904265 1.1013043 1.1676223
000190 00 00 80 3f 9d ab 81 3f 1b 33 26 3f 00 00 80 3f
       1.0 1.0130497 0.6492173 1.0
0001a0 73 eb 53 3f 9e 86 83 3f 32 aa 56 3f 00 00 80 3f
       0.8278114 1.0275457 0.8385345 1.0
0001b0 00 00 80 3f 00 00 80 3f e8 aa 81 3f 18 56 24 3f
       1.0 1.0 1.0130281 0.6419387
0001c0 6b ac 85 3f e2 af 42 3f 00 00 80 3f 68 50 2f 3f
       1.0443243 0.76049626 1.0 0.68482065
0001d0 00 00 80 3f dd 86 34 3f 50 5c 8e 3f a9 f8 27 3f
       1.0 0.70518285 1.1121922 0.656138
0001e0 00 00 80 3f c4 7f 43 3f 2e 1b 51 3f 00 00 80 3f
       1.0 0.7636683 0.816821 1.0
0001f0 4e 1e 44 3f 72 27 8f 3f 00 00 80 3f 53 26 48 3f
       0.7660874 1.1183913 1.0 0.7818348
000200 d0 ad 60 3f 00 00 80 3f a2 4b 85 3f b9 27 90 3f
       0.87765217 1.0 1.0413706 1.1262122
000210 09 fc 5a 3f 00 00 80 3f 59 4d 89 3f ee 2f 3e 3f
       0.85540825 1.0 1.072673 0.74291885
000220 f2 a5 3e 3f 00 00 80 3f 00 00 80 3f d9 c9 8b 3f
       0.7447196 1.0 1.0 1.0920974
000230 80 7e 4f 3f 00 00 80 3f 70 24 b5 3f 00 00 80 3f
       0.810524 1.0 1.4151745 1.0
000240 a9 50 3f 3f 4c 6b 52 3f 00 00 80 3f 00 00 80 3f
       0.7473245 0.8219497 1.0 1.0
000250 d6 0b 27 3f 00 00 80 3f 80 48 79 3f cf 0d 50 3f
       0.65252435 1.0 0.9737625 0.8127107
000260 00 00 80 3f c1 9a 7d 3f 00 00 80 3f 00 00 80 3f
       1.0 0.9906426 1.0 1.0
000270 ed 9b 51 3f 10 b4 39 3f 1e 88 93 3f 00 00 80 3f
       0.8187855 0.7254038 1.1525915 1.0
000280 6e b4 39 3f 00 00 80 3f 9e 78 1f 3f 00 00 80 3f
       0.7254094 1.0 0.6229342 1.0
000290 7e 50 7c 3f 00 00 80 3f ef 91 30 3f 00 00 80 3f
       0.9856032 1.0 0.68972677 1.0
0002a0 e2 c0 52 3f 00 00 80 3f 00 00 80 3f 6b 28 8c 3f
       0.82325566 1.0 1.0 1.0949835
0002b0 00 00 80 3f 00 00 80 3f 5c 1f 5c 3f 6f ca 8e 3f
       1.0 1.0 0.8598535 1.1155528
0002c0 00 00 80 3f c2 8e 4a 3f eb 09 93 3f 00 00 80 3f
       1.0 0.7912408 1.1487402 1.0
0002d0 07 a7 1e 3f 00 00 80 3f e2 7c 35 3f 68 40 44 3f
       0.61973614 1.0 0.7089368 0.76660776
0002e0 a0 6c 1e 3f 39 b9 4a 3f 00 00 80 3f 00 00 80 3f
       0.618845 0.7918888 1.0 1.0
0002f0 75 f8 14 3f 6e bd ba 3f 00 00 80 3f 00 00 80 3f
       0.58191615 1.4589059 1.0 1.0
000300 3e 04 56 3f cb f3 86 3f 49 e8 41 3f 85 81 1c 3f
       0.83600223 1.054315 0.75745064 0.6113513
000310 00 00 80 3f 38 ae 41 3f b2 5c 2b 3f 60 5f 4e 3f
       1.0 0.7565646 0.66938317 0.8061428
000320 00 00 80 3f fc d5 39 3f ca c0 40 3f 00 00 80 3f
       1.0 0.7259214 0.7529417 1.0
000330 b6 43 3b 3f 00 00 80 3f aa c3 69 3f ca 83 53 3f
       0.73150194 1.0 0.91314185 0.8262297
000340 84 84 63 3f 00 00 80 3f 00 00 80 3f ff b5 8d 3f
       0.8887408 1.0 1.0 1.1071166
000350 40 a6 69 3f a3 46 3c 3f 00 00 80 3f 00 00 80 3f
       0.912693 0.73545283 1.0 1.0
000360 ee 72 81 3f 0a b5 67 3f 00 00 80 3f fe 80 82 3f
       1.0113199 0.9051062 1.0 1.0195615
000370 00 00 80 3f 00 00 80 3f 1b 11 4b 3f 00 00 80 3f
       1.0 1.0 0.79322976 1.0
000380 84 0d 32 3f 14 8d 3b 3f fc 43 7d 3f 00 00 80 3f
       0.69551873 0.73262143 0.9893186 1.0
000390 93 eb 80 3f bb 28 2a 3f a6 97 9b 3f 00 00 80 3f
       1.0071892 0.664684 1.2155654 1.0
0003a0 3a 1e 43 3f 99 14 3d 3f ab 83 9a 3f 00 00 80 3f
       0.76218 0.73859555 1.2071432 1.0
0003b0 c8 73 7d 3f 00 00 80 3f 00 00 80 3f 00 00 80 3f
       0.99004793 1.0 1.0 1.0
0003c0 42 d7 3d 3f 8b 59 4f 3f 30 3f 83 3f 00 00 80 3f
       0.7415658 0.80996007 1.0253658 1.0
0003d0 64 77 35 3f 66 dd 5e 3f 7f 66 47 3f 16 48 39 3f
       0.708853 0.8705658 0.7789077 0.7237562
0003e0 00 00 80 3f 00 00 80 3f ce 77 88 3f c1 af 2e 3f
       1.0 1.0 1.0661561 0.6823693
0003f0 49 e1 96 3f 00 00 80 3f 00 00 80 3f 00 00 80 3f
       1.1787502 1.0 1.0 1.0

bn1.bias f4 [256]
000000 22 f1 12 3e 70 fe 28 bd 02 f3 b8 bb 07 e6 60 b9
       0.14349797 -0.041258276 -0.005644203 -0.00021447997
000010 f4 f2 16 3e 33 e3 87 bc 6b 56 92 3d bf 4b b9 bb
       0.14741117 -0.01658783 0.07145389 -0.0056547816
000020 16 1e a6 bd 23 f0 e4 3c 00 61 40 3d b4 71 16 3d
       -0.08111207 0.027946537 0.046967506 0.03672953
000030 35 e0 8a bd 79 29 47 3e 5c 30 a8 3d e6 c7 92 bd
       -0.06781045 0.19449414 0.08212349 -0.07167034
000040 13 b2 44 3d 23 e9 89 3d d8 1e 05 be d0 a3 d7 3d
       0.048021387 0.067339204 -0.13000047 0.10529292
000050 96 93 9a bc f3 7f c2 3b 81 f1 9a 3d 58 e8 91 bd
       -0.018869203 0.005935663 0.075655945 -0.07124394
000060 5a a2 de bd 06 cb 71 bd ba 7d 2a 3d 19 68 ea bc
       -0.1087081 -0.05903151 0.04162381 -0.02861409
000070 61 fc f3 bd 45 58 39 3c b9 df f6 3a 70 19 67 bd
       -0.11913372 0.011312549 0.0018834985 -0.056420743
000080 d3 c2 16 3e 95 23 9d 3d c6 6e d6 bd 70 6e 4b 3e
       0.14722757 0.07672802 -0.10470347 0.19866347
000090 d4 c6 14 be 44 17 18 bd 99 70 39 bd 17 ad 1f 3d
       -0.14528972 -0.037131563 -0.045273397 0.03898343
0000a0 a1 1b 82 bd 93 d2 0e 3d 0e 4e 17 3e 1b 13 d4 3d
       -0.06352926 0.034868788 0.14775869 0.103552066
0000b0 cb 48 a7 bc 7d 48 8a 3d e8 2d bd bd f9 88 6d 3d
       -0.020420453 0.06752107 -0.092372715 0.057991955
0000c0 b5 3a b0 bd 36 aa a6 3d 86 1e ea bc 56 6a b6 bb
       -0.086049475 0.08137934 -0.028579008 -0.0055668755
0000d0 06 61 00 bb 52 e0 6e bd cb 55 25 3a c2 e2 c9 3d
       -0.001958908 -0.058319397 0.00063070346 0.09857704
0000e0 fd d0 4f 3c 99 01 ac bd 09 76 1d 3c 6c ed 6c be
       0.012684104 -0.08398742 0.009610661 -0.23137444
0000f0 3d 2b 58 3d 7d 2a f9 bc 6f 27 aa 3d b4 72 8c 3d
       0.05277561 -0.030415768 0.083083026 0.068578154
000100 34 cb 53 3d 3a d7 0c bd 6f 79 97 3c 30 63 0e be
       0.05170746 -0.034384944 0.018490521 -0.13905025
000110 f9 c9 aa 3b 35 85 03 3e a6 a6 8a 3d d5 10 a2 3d
       0.0052120653 0.12843783 0.06770067 0.07913367
000120 3c b6 4b 3d 21 12 44 3d 7a f0 eb 3d 2f 98 84 bc
       0.04973434 0.04786885 0.11520477 -0.016185848
000130 27 97 a9 bd 1f 7b 64 bd 1c 2b b2 ba 4d 06 1a 3d
       -0.08280783 -0.05578148 -0.001359317 0.037603665
000140 e1 96 8d bd 06 96 d6 3d e8 9f ce bc a3 8a c8 3d
       -0.069135435 0.104778334 -0.025222734 0.09792068
000150 d6 ba 01 3e dd 0e 33 bd d9 ec 5b bd 12 02 c6 3d
       0.12668929 -0.043715347 -0.053692672 0.09668364
000160 1b 50 e6 bc d3 6d 94 3d bd bf 8e bd 29 1d c0 bc
       -0.02811437 0.0724751 -0.06970165 -0.023451405
000170 d9 5b e3 3d eb cb 84 be 37 cb 08 3d 10 32 a2 bd
       0.11101503 -0.25936827 0.033396926 -0.07919705
000180 f6 1d 55 bd 36 b5 73 bd 94 aa bc bc 4d 06 98 3c
       -0.052030526 -0.059498988 -0.023030557 0.018557692
000190 b4 93 85 3d 72 b7 1c 3e 2c cd 2b 3d ec 9f cf bd
       0.06522313 0.15304354 0.041943714 -0.101379246
0001a0 a2 cc 77 3d 0b 9b d1 b8 0d ea fa 3d 83 c6 b4 3d
       0.060497887 -9.9947756e-05 0.12251673 0.088269256
0001b0 28 8b 63 3e f1 59 6a 3d 22 e0 67 bd 64 aa b1 3d
       0.22221053 0.05721468 -0.056610234 0.086750776
0001c0 af f2 3f bc 69 06 86 3d 2d 57 25 bc 60 61 98 3d
       -0.011715575 0.065441914 -0.010091585 0.07440448
0001d0 0b 33 bd bd 36 c3 40 3e 7e e9 a9 b9 3f 93 21 3e
       -0.09238251 0.18824467 -0.00032408157 0.15778826
0001e0 44 a4 a9 bd 0b ac f0 3c ef af 3f bb 7a cd 69 bd
       -0.08283284 0.029378911 -0.0029249152 -0.057080723
0001f0 ec 41 23 3e 9f 9c 29 3d 4f 16 1b 3d db 8e 1d be
       0.15943116 0.04140913 0.037863072 -0.15386526
000200 58 9f d3 3d 6b f5 ac bd 3f d9 e2 3c 04 f3 ee bd
       0.10333127 -0.08445247 0.027691482 -0.11667445
000210 56 38 3a bd 6a ae e8 3a af 3a c8 3c b7 26 93 3d
       -0.045463882 0.0017752175 0.024442045 0.07185119
000220 75 b4 20 3e e8 89 07 bd aa 00 a2 bc 56 d3 d9 bd
       0.15693839 -0.033090502 -0.019775707 -0.10636012
000230 50 f7 dd 3d f3 91 4b 3d 2d 9b 3f be 22 17 18 bb
       0.10838187 0.049699735 -0.18711539 -0.0023207148
000240 14 5a 92 bc 9e a5 bb 3d 87 76 bb bd de 27 7d bd
       -0.017865218 0.09162448 -0.09153467 -0.0618056
000250 13 fa 78 bc 3f 50 e8 3d d9 48 dd 3d 9c 97 ac bb
       -0.015196341 0.11343431 0.1080491 -0.0052670967
000260 4f cc bc bd 8a b3 72 be 23 07 18 bd ff ed 09 be
       -0.09218656 -0.23701301 -0.03711618 -0.13469695
000270 9e 9a a1 bd 9f 9d 35 be 51 67 08 3e 5b bc a2 3c
       -0.07890819 -0.17735909 0.13320662 0.019865206
000280 4f 95 41 3e 9f c8 63 bc 3f c3 1b be 91 8b 87 3d
       0.18904613 -0.013902812 -0.15211199 0.06618417
000290 57 09 da bd 28 ed 8d b9 64 9f 61 3d 04 d5 ad 3d
       -0.10646313 -0.0002707031 0.055083647 0.08487895
0002a0 b8 ca 8d bd b4 93 a7 bd 18 5f da bd 08 85 ac bd
       -0.06923431 -0.08182469 -0.10662669 -0.08423811
0002b0 4f 49 38 bd e8 5c b9 bd 61 08 61 3d b8 2e 38 3d
       -0.044991788 -0.090509236 0.05493963 0.04496643
0002c0 60 74 87 3d dc 14 00 bd a6 eb cf 3b 63 eb cb bd
       0.06613994 -0.031269893 0.00634523 -0.09957006
0002d0 0c 0c 24 bd d7 aa 8d be 85 df 64 bc 28 d6 d0 3d
       -0.04005055 -0.27669403 -0.013969307 0.10197097
0002e0 e5 fe 78 3d 7e 15 b5 3d 6e aa b5 3d d6 cf 8a bd
       0.06078996 0.0884199 0.088703975 -0.06777923
0002f0 82 80 52 3d 2f c8 f8 bd 90 81 a0 3d e9 a4 a6 bd
       0.051392086 -0.12147557 0.07837212 -0.08136923
000300 b2 a4 b4 3d ed 55 a2 3c df 02 30 3d 25 32 0d 3d
       0.08820476 0.019816363 0.042971488 0.03447165
000310 56 ae 70 bb 8a d7 e8 bc 62 2d 36 3e d1 67 1e be
       -0.0036725006 -0.02842309 0.1779075 -0.1546929
000320 dc e6 45 3e a1 1e b9 3d 71 59 02 3e 14 c6 c2 3d
       0.19326347 0.09039045 0.12729432 0.09510437
000330 bb b2 f6 bd 2a d1 8a bd 3f e9 0c 3e e3 28 b2 3d
       -0.12045809 -0.06778176 0.13760851 0.08699205
000340 04 72 71 bd 1c 87 b0 39 a9 b8 18 bc fb 52 2e bd
       -0.058946624 0.0003367 -0.00932137 -0.042559605
000350 71 0d 74 bc 97 71 3c be 76 a8 c8 bd a3 fa 83 3d
       -0.014895783 -0.18402706 -0.097977564 0.064442895
000360 54 d7 81 3d de 47 a4 3d 87 e5 ab 3d 08 87 0b bc
       0.06339899 0.0802152 0.08393388 -0.008516081
000370 66 65 a5 bd 3d b4 03 3e a4 0d 53 3c 8f 13 d3 bd
       -0.08075981 0.12861724 0.01288167 -0.10306465
000380 66 36 17 3e 83 be 81 bd 0b 4a f0 bd 1e dc a7 bc
       0.14766845 -0.06335165 -0.117328726 -0.020490702
000390 63 08 29 3e 90 1c 36 bd d5 9e ca bd 04 2a 6f 3d
       0.16507106 -0.044460833 -0.09893576 0.05838968
0003a0 fe b8 55 3d 22 dc 46 3d b5 b1 5d bd 7b da 55 be
       0.052178375 0.04854978 -0.054124553 -0.20884125
0003b0 b1 3f f0 3c 4e 0e 06 bd 53 93 af bd 30 78 77 be
       0.029327245 -0.032728486 -0.08573022 -0.24166942
0003c0 2f 72 a9 3d 76 6b 97 bd fc 60 b1 3d c3 b8 d4 3d
       0.08273732 -0.073935434 0.086610764 0.10386803
0003d0 90 d1 e5 3d b2 c2 17 3e 8e b9 53 3d fa b2 3b 3e
       0.112216115 0.14820364 0.05169063 0.18329993
0003e0 7b 9b 86 bd 1a bd ce ba c3 22 2f 3b ea bc da 3c
       -0.06572624 -0.0015772909 0.00267236 0.02670141
0003f0 1b 18 41 bb da 9e eb 3b 74 db 92 bd ea 54 c7 3b
       -0.002946383 0.0071905674 -0.071707636 0.0060831206

bn1.running_mean f4 [256]
000000 00 00 00 00 f2 2a 28 3f 04 00 00 00 00 00 00 00
       0.0 0.6569053 6e-45 0.0
000010 15 23 34 3f 10 84 e0 3e ca 8c 33 3f 00 00 00 00
       0.7036603 0.43850756 0.701367 0.0
000020 00 00 00 00 aa f2 18 3f f0 9a 6c 3f 6f 26 28 3f
       0.0 0.59745276 0.92423916 0.65683645
000030 c5 b5 43 3f 00 00 00 00 c0 8d 4e 3f b6 35 ba 3e
       0.76449233 0.0 0.80685043 0.36369103
000040 04 ce 19 3f 50 7d a1 3e 04 00 00 00 d3 10 54 3f
       0.6007998 0.31540918 6e-45 0.8283817
000050 0a 21 26 3f 04 00 00 00 84 6c a5 3e 00 00 00 00
       0.64894164 6e-45 0.32309353 0.0
000060 20 e2 ae 3e e4 77 8d 3e 31 93 e7 3e d1 05 a8 3e
       0.34156895 0.27630532 0.45229486 0.32816938
000070 e6 f1 6c 3e f8 ea 5d 3f 00 00 00 00 00 00 00 00
       0.23139152 0.8668666 0.0 0.0
000080 e9 2b e3 3d 04 00 00 00 7c cf af 3e 00 00 00 00
       0.110923596 6e-45 0.34337986 0.0
000090 3c 55 d3 3e 00 00 00 00 00 00 00 00 00 00 00 00
       0.41275966 0.0 0.0 0.0
0000a0 00 00 00 00 ce b2 fb 19 96 3e dc 3e 00 00 00 00
       0.0 2.602501e-23 0.430165 0.0
0000b0 00 00 00 00 f6 fa cd 3e 04 76 d7 3c 95 81 43 3f
       0.0 0.4023053 0.026301391 0.763696
0000c0 00 00 00 00 b8 cd ca 3e e9 11 c0 3e bd 38 5f 3e
       0.0 0.39610076 0.37513664 0.21798988
0000d0 00 00 00 00 04 00 00 00 00 00 00 00 9a a6 6a 3e
       0.0 6e-45 0.0 0.22915116
0000e0 04 00 00 00 00 00 00 00 04 00 00 00 00 00 00 00
       6e-45 0.0 6e-45 0.0
0000f0 d6 7d 45 3f 51 00 58 3e 04 00 00 00 00 00 00 00
       0.77145135 0.2109387 6e-45 0.0
000100 30 99 a4 3e 86 59 b3 3e 77 0b 14 3f 00 00 00 00
       0.32148123 0.35029238 0.57829994 0.0
000110 00 00 00 00 5c bd 37 3f 6d df 95 3e e9 ec 10 3f
       0.0 0.71773314 0.29272023 0.56611496
000120 00 00 00 00 00 00 00 00 04 00 00 00 f5 44 a2 3e
       0.0 0.0 6e-45 0.31693235
000130 04 00 00 00 00 00 00 00 00 00 00 00 9f 21 25 3f
       6e-45 0.0 0.0 0.64504427
000140 84 e7 20 3c fa 61 a2 3e c6 ba 85 3e 00 00 00 00
       0.009820823 0.31715375 0.2611906 0.0
000150 00 00 00 00 2e 27 db 3e ba 9f df 3e 00 00 00 00
       0.0 0.4280333 0.4367655 0.0
000160 00 00 00 00 c4 63 20 3f 00 00 00 00 c0 6c 02 3f
       0.0 0.6265223 0.0 0.5094719
000170 00 00 00 00 e3 2b a0 3c 1c 61 8e 3e d4 e2 c0 3e
       0.0 0.019552177 0.27808464 0.37673056
000180 00 00 00 00 04 00 00 00 2e 6b 8c 3e 04 00 00 00
       0.0 6e-45 0.27425522 6e-45
000190 00 00 00 00 04 00 00 00 df b3 2d 3f 00 00 00 00
       0.0 6e-45 0.67852587 0.0
0001a0 ca 54 36 3f 04 00 00 00 15 a8 80 3e 00 00 00 00
       0.7122313 6e-45 0.25128236 0.0
0001b0 00 00 00 00 00 00 00 00 9c 98 9f 3e 44 b1 92 3e
       0.0 0.0 0.3117112 0.28650868
0001c0 04 00 00 00 60 8a 3a 3e 00 00 00 00 8f d1 5b 3f
       6e-45 0.18216848 0.0 0.85866636
0001d0 00 00 00 00 d4 72 8d 3e 04 00 00 00 74 b0 af 3e
       0.0 0.2762667 6e-45 0.3431431
0001e0 00 00 00 00 25 ec 0f 3f 7c 8d 85 3e 00 00 00 00
       0.0 0.562197 0.26084507 0.0
0001f0 4f ef ad 3e 04 00 00 00 00 00 00 00 c5 0e ad 3e
       0.3397164 6e-45 0.0 0.3380033
000200 10 42 82 3e 00 00 00 00 bb 67 92 3e 03 fc 59 3e
       0.25441027 0.0 0.28594765 0.21287541
000210 f1 e8 82 3e 00 00 00 00 72 7e 52 3e 12 fb 4c 3f
       0.25568345 0.0 0.20556048 0.800706
000220 de 26 a9 3e 00 00 00 00 00 00 00 00 8a cd 95 3e
       0.33037466 0.0 0.0 0.29258376
000230 ff 2b 1b 3f 00 00 00 00 c1 5c 17 3b 00 00 00 00
       0.6061401 0.0 0.0023096057 0.0
000240 52 cf 0f 3f 66 db 34 3f 00 00 00 00 00 00 00 00
       0.5617572 0.70647275 0.0 0.0
000250 42 24 26 3e 00 00 00 00 0c 20 65 3e 92 c0 77 3e
       0.16224769 0.0 0.22375506 0.24194553
000260 00 00 00 00 04 00 00 00 00 00 00 00 00 00 00 00
       0.0 6e-45 0.0 0.0
000270 37 01 af 3e 7e fe 8d 3e 04 00 00 00 00 00 00 00
       0.34180614 0.27733225 6e-45 0.0
000280 02 12 1f 3f 00 00 00 00 04 a8 86 3e 00 00 00 00
       0.6213685 0.0 0.2630006 0.0
000290 04 00 00 00 00 00 00 00 be 59 1c 3f 00 00 00 00
       6e-45 0.0 0.61074436 0.0
0002a0 39 93 29 3f 00 00 00 00 00 00 00 00 80 68 a4 3e
       0.6624027 0.0 0.0 0.32110977
0002b0 00 00 00 00 00 00 00 00 f7 a8 a2 3e 71 c1 9d 3e
       0.0 0.0 0.31769535 0.30811647
0002c0 00 00 00 00 63 70 c4 3e 04 00 00 00 00 00 00 00
       0.0 0.38366994 6e-45 0.0
0002d0 17 73 0c 3f 00 00 00 00 d1 f9 89 3f d2 6a bc 3e
       0.54863113 0.0 1.0779363 0.36800247
0002e0 89 a1 7e 3e 6f 80 13 3f 00 00 00 00 00 00 00 00
       0.24866308 0.5761785 0.0 0.0
0002f0 89 1e ad 3e f0 72 95 3c 00 00 00 00 00 00 00 00
       0.3381236 0.018243283 0.0 0.0
000300 cd 5f 97 3e 69 bb 6e 3e 7b 94 f7 3e ba 02 5a 3f
       0.29565278 0.23313679 0.4835547 0.8516041
000310 00 00 00 00 49 29 47 3f 53 29 aa 3e d7 a1 8d 3e
       0.0 0.7779737 0.33234653 0.27662537
000320 00 00 00 00 eb e7 e0 3e 17 28 69 3e 00 00 00 00
       0.0 0.4392694 0.227692 0.0
000330 f5 4f a0 3e 00 00 00 00 de 6a 95 3e ca a0 08 3f
       0.31311002 0.0 0.29183096 0.53370345
000340 ba b4 d8 3e 00 00 00 00 00 00 00 00 04 00 00 00
       0.42325383 0.0 0.0 6e-45
000350 fb b3 19 3f 39 8f 97 3e 00 00 00 00 00 00 00 00
       0.60040253 0.29601458 0.0 0.0
000360 04 00 00 00 0d cd 82 3e 00 00 00 00 04 00 00 00
       6e-45 0.25547066 0.0 6e-45
000370 00 00 00 00 00 00 00 00 e4 65 82 3e 00 00 00 00
       0.0 0.0 0.2546836 0.0
000380 90 00 43 3e fd 93 13 3f 04 00 00 00 00 00 00 00
       0.19043183 0.5764769 6e-45 0.0
000390 04 00 00 00 54 d5 50 3f e4 6c 2a 3c 00 00 00 00
       6e-45 0.8157551 0.010401938 0.0
0003a0 ac 24 86 3e 66 89 c1 3e 29 69 11 3d 00 00 00 00
       0.26199853 0.3780014 0.03550068 0.0
0003b0 dd a0 87 3e 00 00 00 00 00 00 00 00 00 00 00 00
       0.26489916 0.0 0.0 0.0
0003c0 b0 10 96 3e 16 8c 97 3e 04 00 00 00 00 00 00 00
       0.29309607 0.29599065 6e-45 0.0
0003d0 7f 90 96 3e f1 aa 90 3e 08 5f d9 3e 8e 30 a7 3e
       0.29407117 0.28255418 0.42455316 0.32654232
0003e0 00 00 00 00 00 00 00 00 04 00 00 00 9c 6b 06 3f
       0.0 0.0 6e-45 0.5250795
0003f0 04 00 00 00 00 00 00 00 00 00 00 00 00 00 00 00
       6e-45 0.0 0.0 0.0
