Code/Model/Ward3_critic.pth (torch_old, 152061 bytes, 13 tensors)

fcs1.weight f4 [256, 9]
0.005812498 0.05808523 0.06348007 -0.47056097 -0.24673206 0.23254438 0.025043793 0.06559442
-0.05432573 -0.1135932 0.070757486 0.17211008 0.2516873 -0.12786496 0.031792957 -0.20275496
-0.21113622 0.056537412 -0.18413186 -0.013512853 0.01721859 0.11498796 0.47338945 -0.14557213
-0.030528147 0.04446656 -0.13330568 0.06502914 -0.046948276 -0.09310599 -0.23400106 0.29202545
-0.060861647 -0.19911787 -0.14233005 -0.15726219 -0.036268886 -0.037457332 0.03258309 -0.06771965
-0.101591825 -0.15998219 0.041876923 0.03840604 0.055018455 -0.012640327 -0.0434419 0.028646767
-0.04497818 -0.029909387 -0.061495073 -0.014938191 0.023188569 0.056802854 0.0009971219 -0.062404227
0.07707499 -0.039955072 0.02501312 -0.028307447 -0.012299085 -0.09037508 -0.09793011 -0.016725684
-0.08387564 -0.081135705 -0.016427321 0.032094005 4.0394203e-05 -0.011258388 -0.076297455 -0.020601548
0.0146902725 -0.028754093 0.028717384 -0.05498088 0.008530557 -0.008305967 -0.047673874 -0.05544036
-0.052939378 -0.010052997 -0.061321422 -0.067291066 0.00048818014 0.00089146366 -0.105135575 -0.094001144
0.0407071 -0.13892587 -0.01610171 -0.039752796 0.05056698 -0.030774787 -0.032175653 -0.01913137
0.051738426 -0.03287319 -0.020315647 0.084656864 0.22913387 -0.033740506 -0.2660497 0.1678091
-0.14875077 0.114503466 0.060741648 -0.05486362 -0.105823204 -0.009129923 -0.039849352 0.05737864
-0.108633235 0.12141017 0.28261048 0.046802633 0.12439128 -0.046563398 -0.17532046 0.18893301
-0.14216188 -0.056181442 0.1262424 0.029960692 -0.029115764 0.25220615 0.1254125 -0.037393082
-0.0018396961 -0.020159632 0.43092033 0.21524577 0.037608333 0.14754453 -0.04165449 0.005718551
-0.11032677 0.18995222 -0.062298324 -0.1076103 0.0465637 -0.011051633 -0.11297528 -0.09795172
0.05712176 -0.025468118 -0.04885403 -0.056909874 0.012133591 -0.037014253 -0.056709744 -0.01998981
-0.015167855 -0.1647292 0.011057033 -0.093913436 0.12659574 0.033570934 0.21530895 0.17997642
0.18271022 0.17826807 -0.005043663 -0.04468102 -0.00022942573 -0.026829861 0.013235159 -0.014783554
0.02456791 -0.022626415 -0.038391493 -0.06756206 0.07802108 -0.027947275 -0.13614918 -0.04316005
-0.036405012 -0.11669135 0.03584692 0.035991717 0.017070673 -0.0841226 -0.29981416 0.073886946
-0.020570522 -0.09559316 -0.012703239 -0.04199487 -0.027660474 -0.3880119 -0.06609855 0.090109974
0.050610524 0.2680081 0.15424146 -0.04097873 0.06864556 0.089895055 0.092387125 -0.3576489
0.0087208245 -0.041749317 0.13187344 -0.15602988 0.22435804 0.13194647 -0.01171295 0.05537335
-0.038831994 -0.011299449 -0.0033601369 -0.08107219 -0.16905469 -0.12535475 0.047569286 -0.0069765686
-0.13118745 -0.1299681 0.34116098 0.011170767 0.033343304 0.089992195 -0.05984208 0.08570464
0.057060696 -0.02725369 -0.028177511 0.0003480517 -0.056764305 -0.052390337 -0.09071319 0.0016363264
-0.030517766 0.0128470585 -0.12396438 -0.02637008 -0.12898757 -0.030681074 -0.13416246 -0.109184116
-0.048254915 -0.09710421 -0.07223152 -0.52854836 0.13738401 0.056942567 0.12139762 -0.0075369803
0.36329362 0.024964051 -0.16507365 -0.06169657 0.23588595 0.15032272 -0.03642937 0.065978564
00000000: c476 be3b c7ea 6d3d d701 823d 5eed f0be
00000010: 54a7 7cbe 1d20 6e3e a428 cd3c 5e56 863d
00000020: a884 5ebd 8da3 e8bd 4de9 903d a03d 303e
00000030: 28dd 803e 08ef 02be 5539 023d ff9e 4fbe
00000040: 1834 58be c693 673d 108d 3cbe 0365 5dbc
00000050: 000e 8d3c cf7e eb3d 1a60 f23e dc10 15be
00000060: 2a16 fabc 9122 363d 4981 08be ff2d 853d
00000070: d64c 40bd 5aae bebd f99d 6fbe 5c84 953e
00000080: 104a 79bd 8ee5 4bbe f8be 11be 5709 21be
00000090: af8e 14bd dc6c 19bd d975 053d 9ab0 8abd
000000a0: 600f d0bd 5fd2 23be 2387 2b3d a74f 1d3d
000000b0: 085b 613d 6019 4fbc 22f0 31bd a0ac ea3c
000000c0: 0a3b 38bd 8804 f5bc 42e2 7bbd 50bf 74bc
000000d0: f4f5 bd3c 1caa 683d dcb1 823a 939b 7fbd
000000e0: 7ed9 9d3d eea7 23bd 51e8 cc3c 05e5 e7bc
000000f0: 1a82 49bc 9216 b9bd 958f c8bd 4d04 89bc
00000100: fec6 abbd 7a2a a6bd 9792 86bc 0175 033d
00000110: f26c 2938 1a75 38bc d741 9cbd 94c4 a8bc
00000120: 78af 703c b48d ebbc b840 eb3c a233 61bd
00000130: c0c3 0b3c c015 08bc ae45 43bd 6e15 63bd
00000140: f6d6 58bd 53b5 24bc 2c2c 7bbd e6cf 89bd
00000150: 6ef2 ff39 1db1 693a 5251 d7bd ac83 c0bd
00000160: 7dbc 263d 9542 0ebe bce7 83bc d4d3 22bd
00000170: 521f 4f3d 681b fcbc 9eca 03bd 64b9 9cbc
00000180: aceb 533d 0aa6 06bd 006d a6bc 9460 ad3d
00000190: 12a2 6a3e 7c33 0abd ab37 88be 26d6 2b3e
000001a0: 1f52 18be cb80 ea3d 3ccc 783d adb8 60bd
000001b0: d6b9 d8bd ac95 15bc 1339 23bd dd05 6b3d
000001c0: 1a7b debd e5a5 f83d 52b2 903e 1eb4 3f3d
000001d0: dbc0 fe3d 43b9 3ebd 3587 33be a877 413e
000001e0: e292 11be 831e 66bd b045 013e 2070 f53c
000001f0: 2f84 eebc 2a21 813e 226c 003e 7d29 19bd
00000200: f521 f1ba d025 a5bc 97a1 dc3e 6369 5c3e
00000210: 320b 1a3d ea15 173e e69d 2abd af62 bb3b
00000220: 00f3 e1bd d682 423e 872c 7fbd ca62 dcbd
00000230: 94b9 3e3d e911 35bc 955f e7bd e99a c8bd
00000240: 82f8 693d 84a2 d0bc 2a1b 48bd 541a 69bd
00000250: f8cb 463c 429c 17bd 7a48 68bd acc1 a3bc
00000260: 9882 78bc c5ae 28be 8f28 353c b055 c0bd
00000270: 50a2 013e ad81 093d f379 5c3e bd4b 383e
00000280: 6318 3b3e e88b 363e 5045 a5bb 7203 37bd
00000290: 0092 70b9 4cca dbbc 48d8 583c b836 72bc
000002a0: a442 c93c 085b b9bc 6640 1dbd fa5d 8abd
000002b0: 84c9 9f3d aff1 e4bc b16a 0bbe 98c8 30bd
000002c0: 6c1d 15bd e0fb eebd 38d4 123d 0d6c 133d
000002d0: ccd7 8b3c 7848 acbd 3e81 99be 0a52 973d
000002e0: 8383 a8bc 59c6 c3bd 3f21 50bc d002 2cbd
000002f0: 3898 e2bc 7fa9 c6be ad5e 87bd 948b b83d
00000300: fb4c 4f3d 5c38 893e 79f1 1d3e 50d9 27bd
00000310: 0b96 8c3d e61a b83d 7635 bd3d c21d b7be
00000320: cae1 0e3c 5501 2bbd d509 073e 4cc6 1fbe
00000330: 1dbe 653e fa1c 073e ace7 3fbc 2acf 623d
00000340: 4c0e 1fbd 5321 39bc be35 5cbb 2d09 a6bd
00000350: ac1c 2dbe ff5c 00be 03d8 423d b39b e4bb
00000360: 0156 06be 5c16 05be a7ac ae3e 9805 373c
00000370: fd92 083d d44d b83d f81c 75bd ea85 af3d
00000380: 7ab8 693d 2143 dfbc 86d4 e6bc b57a b639
00000390: b081 68bd 4097 56bd d6c7 b9bd 017a d63a
000003a0: 6500 fabc 787c 523c 09e1 fdbd 1106 d8bc
000003b0: 5115 04be e056 fbbc e261 09be ec9b dfbd
000003c0: f2a6 45bd 92de c6bd 1fee 93bd f24e 07bf
000003d0: 65ae 0c3e 9c3c 693d 519f f83d c6f8 f6bb
000003e0: 9f01 ba3e 6981 cc3c 1109 29be 8bb5 7cbd
000003f0: 168c 713e 33ee 193e f736 15bd c51f 873d

fcs1.bias f4 [256]
0.005252209 -0.17058228 -0.4564126 0.6815141 -0.28063756 -0.3033392 0.04714895 -0.09957714
0.007184863 0.24211463 -0.1650757 0.049165096 0.09255556 -0.066807434 -0.0049252748 -0.22055364
-0.023277521 -0.0026417277 -0.028664112 -0.028560346 -0.12992492 0.2399305 -0.39130342 -0.13054383
0.27822262 0.16532384 -0.005404603 -0.11315774 -0.42873618 0.48955718 0.24829018 0.21570824
0.35715717 -0.08278989 0.3442346 0.010290181 -0.30291924 0.060366243 -0.21391949 0.13741076
-0.2717546 0.074782155 -0.06844639 0.33103228 0.21051562 -0.105718434 0.18803266 -0.21240668
0.15464082 0.12969078 0.26432943 -0.2132736 0.17849325 0.104550555 -0.30176592 -0.2911108
0.20608914 -0.0035739276 -0.32830584 -0.15680103 0.0547539 -0.23608728 -0.1509562 0.17975944
-0.21665888 -0.15525238 -0.05183918 -0.24269092 0.0012340281 0.28092062 0.06130162 -0.005189736
0.180805 -0.25467318 0.14353606 0.3782084 -0.2524665 0.27542874 0.41394445 -0.12421624
-0.20454554 0.44520426 0.04333971 0.05710142 0.12512347 0.30236948 0.032990318 -0.12812464
-0.11305237 -0.1566296 0.1958947 -0.012535813 0.024271492 0.32928815 -0.2146229 -0.22815764
0.33015332 -0.35220164 0.18852124 -0.24653058 -0.015854292 -0.14077276 0.21831758 -0.18845491
-0.3245065 -0.33838537 -0.36825192 0.3170204 0.31612432 -0.104908876 -0.022713566 -0.4030813
-0.28381133 0.15587984 -0.13163885 0.04148582 0.42287958 -0.17967662 -0.36813858 0.39808702
0.30879974 -0.0480769 -0.009107028 0.28020367 -0.22815791 -0.3795401 0.21170764 0.12597032
0.18737984 -0.12263477 0.2998029 -0.21025264 -0.22765239 0.03422355 0.30429453 0.0035387164
-0.23315112 -0.14211379 -0.08033781 -0.021567345 -0.17987852 0.13357432 -0.40844008 -0.428191
-0.44160226 -0.0016484443 0.28144246 -0.11207485 0.19336478 0.24578346 0.50357264 -0.014527438
-0.21892266 -0.013122946 -0.19572459 -0.062145144 -0.22692133 -0.2523704 -0.5787995 0.09664724
0.54916435 -0.20742026 0.038728803 0.1839768 0.022908665 0.20731778 -0.32068035 0.09510867
0.14696018 0.2980149 0.008429204 0.078429244 0.18351056 -0.30877933 -0.21265757 0.49733073
-0.2825185 -0.22871126 0.27685478 0.2935404 -0.051260233 0.08439034 -0.10377083 0.29668805
0.4691021 -0.17151926 -0.12909989 0.006551684 0.11924049 0.190759 0.29945865 -0.26080936
0.16058443 0.20338579 0.103920214 -0.0059839785 0.25558785 0.2524644 -0.044749252 -0.28827664
-0.11202224 0.1570596 0.19633496 0.37618625 -0.16787481 -0.21676764 -0.049398042 -0.05470565
0.45565924 -0.06225198 0.016173825 -0.032659326 0.2524615 -0.17696309 0.03177704 -0.32015094
-0.13514625 -0.2918908 -0.39465213 -0.22242658 -0.24033701 0.051723227 -0.0872719 -0.10886232
-0.30820438 0.24438754 0.32213384 -0.26996788 -0.085876144 -0.20071325 -0.005411328 -0.05470485
-0.24744254 -0.10415086 0.26080266 -0.11026256 -0.26770282 -0.4191553 -0.24149138 0.11191344
-0.29426306 0.23704831 -0.22909042 -0.093052 -0.22708067 -0.32956654 -0.21557689 0.078257956
-0.08584687 0.0048122713 -0.15262264 0.026031606 -0.3018345 -0.2913867 -0.26526207 -0.17577212
00000000: b91a ac3b 1fad 2ebe eaae e9be b577 2e3f
00000010: baaf 8fbe 474f 9bbe 421f 413d 19ef cbbd
00000020: 006f eb3b e6ec 773e 9b09 29be 5761 493d
00000030: c58d bd3d 56d2 88bd 3364 a1bb d0d8 61be
00000040: 80b0 bebc d620 2dbb 00d1 eabc 63f7 e9bc
00000050: 0a0b 05be 57b0 753e ec58 c8be 48ad 05be
00000060: 3273 8e3e a74a 293e 1919 b1bb 3fbf e7bd
00000070: 4f83 dbbe 3da7 fa3e c83f 7e3e 9fe2 5c3e
00000080: 4edd b63e bf8d a9bd 843f b03e 2698 283c
00000090: 3b18 9bbe 9842 773d b60d 5bbe 68b5 0c3e
000000a0: 6b23 8bbe 6327 993d 9f2d 8cbd 107d a93e
000000b0: 6891 573e e882 d8bd a28b 403e 2381 59be
000000c0: 2a5a 1e3e a9cd 043e 3056 873e 6564 5abe
000000d0: efc6 363e 9a1e d63d 1081 9abe 7a0c 95be
000000e0: 0809 533e 8e38 6abb b417 a8be 7390 20be
000000f0: a045 603d ddc0 71be 4394 1abe dc12 383e
00000100: d3db 5dbe 7bfa 1ebe 5255 54bd f883 78be
00000110: 1dbf a13a d4d4 8f3e 6817 7b3d a90e aabb
00000120: f224 393e 8664 82be 1efb 123e 88a4 c13e
00000130: 4a43 81be ff04 8d3e 87f0 d33e 1665 febd
00000140: 6374 51be d0f1 e33e fb84 313d 2ee3 693d
00000150: 5e20 003e 2cd0 9a3e db20 073d 1b33 03be
00000160: 0088 e7bd 8363 20be 9f98 483e 0363 4dbc
00000170: 02d5 c63c 7598 a83e 1bc6 5bbe 28a2 69be
00000180: db09 a93e c653 b4be b60b 413e 8372 7cbe
00000190: dce0 81bc bc26 10be a58e 5f3e 53fa 40be
000001a0: b725 a6be d940 adbe 848b bcbe 7f50 a23e
000001b0: 0cdb a13e 77da d6bd cd11 babc ac60 cebe
000001c0: b84f 91be f79e 1f3e 56cc 06be 09ed 293d
000001d0: ac83 d83e 26fd 37be a97c bcbe 10d2 cb3e
000001e0: 001b 9e3e 49ec 44bd a535 15bc db76 8f3e
000001f0: 3aa2 69be 1453 c2be e3c9 583e 5dfe 003e
00000200: 80e0 3f3e f027 fbbd c47f 993e 784c 57be
00000210: b51d 69be fe2d 0c3d 7ecc 9b3e cfe9 673b
00000220: 2bbf 6ebe 4786 11be 2688 a4bd 00ae b0bc
00000230: 1332 38be b5c7 083e 0f1f d1be da3b dbbe
00000240: b119 e2be 9d10 d8ba 3a19 903e 8087 e5bd
00000250: 6b01 463e a9ae 7b3e 23ea 003f 7e04 6ebc
00000260: 432d 60be a001 57bc 076c 48be e88b 7ebd
00000270: 115e 68be b136 81be 342c 14bf fdee c53d
00000280: 0996 0c3f fa65 54be 18a2 1e3d 6a64 3c3e
00000290: f4aa bb3c 1d4b 543e 3730 a4be 56c8 c23d
000002a0: bb7c 163e 6995 983e a51a 0a3c 839f a03d
000002b0: 31ea 3b3e 5318 9ebe e8c2 59be 22a2 fe3e
000002c0: 44a6 90be 4933 6abe e9bf 8d3e ed4a 963e
000002d0: 40f6 51bd d8d4 ac3d cd85 d4bd 7fe7 973e
000002e0: 272e f03e bfa2 2fbe c332 04be 82af d63b
000002f0: 5c34 f43d 5456 433e a552 993e ce88 85be
00000300: 3f70 243e 5d44 503e 1fd4 d43d 4015 c4bb
00000310: 69dc 823e 0443 813e fe4a 37bd ff98 93be
00000320: eb6b e5bd 3bd4 203e 080c 493e 7c9b c03e
00000330: 60e7 2bbe 56f8 5dbe 9a55 4abd 0813 60bd
00000340: 2b4c e93e effb 7ebd f87e 843c c9c5 05bd
00000350: a242 813e d035 35be a428 023d d3ea a3be
00000360: c763 0abe b672 95be d80f cabe cbc3 63be
00000370: e81a 76be bcdb 533d 9cbb b2bd 35f3 debd
00000380: f7cc 9dbe ba40 7a3e baee a43e 3b39 8abe
00000390: d5df afbd c687 4dbe 8251 b1bb 3112 60bd
000003a0: 9461 7dbe 0c4d d5bd ed87 853e 56d1 e1bd
000003b0: 5810 89be 869b d6be 8449 77be e032 e53d
000003c0: a6a9 96be cbbc 723e ae96 6abe 0c92 bebd
000003d0: d687 68be f2bc a8be 30c0 5cbe b545 a03d
000003e0: 7cd0 afbd 42b0 9d3b 1c49 1cbe 3c40 d53c
000003f0: 0d8a 9abe a330 95be 6ed0 87be 9bfd 33be

fc2.weight f4 [128, 259]
0.1485614 0.28696525 -0.04380508 -0.19069482 -0.018415555 -0.044645425 0.056923322 0.035200167
-0.047021322 0.04213633 -0.1290265 0.03756965 -0.101539955 -0.009287275 0.09590784 -0.07091358
0.123621926 0.068641104 0.04823376 0.10352776 -0.014541292 -0.11969759 0.27634892 -0.018202942
-0.077630825 0.013629826 0.0025426683 -0.45708692 0.33306345 0.06238552 0.2862279 0.22535937
-0.3923023 0.060610577 0.18228935 -0.057741325 -0.04251268 0.07844152 0.121061005 -0.108443335
-0.097251154 -0.14999126 0.085600905 -0.18007639 0.1412688 -0.45451382 0.113776855 -0.09287229
-0.19551818 -0.046593644 -0.24333934 0.003552839 0.12616833 0.09169613 0.11441947 0.035538595
0.14287983 0.11653373 -0.24564242 -0.053740405 0.0512115 -0.041467257 -0.07326331 0.14152615
-0.04294258 -0.0091106035 -0.07774688 -0.21578524 -0.00071011495 -0.032220323 -0.028582444 -0.14147703
-0.09627786 0.009642257 -0.018367624 0.19243415 -0.04701879 -0.073054284 -0.18756002 -0.037047446
0.09520376 0.06668119 -0.09784724 -0.16375642 -0.12256985 0.047942262 0.16556129 0.10065453
0.0025085239 0.121074185 -0.08856588 0.18178417 0.11807867 0.07507684 0.038282532 0.31460378
0.04601603 0.17197672 0.09708374 0.06266814 0.046587616 -0.04579129 0.28964165 0.016751725
-0.052917194 0.041789047 0.058826804 -0.20055528 -0.08770969 -0.00021215822 0.031569794 0.01575352
0.02352422 0.02936921 0.015603959 -0.073289484 0.23556939 0.025183221 -0.24846484 0.124533415
0.11636775 -0.016290264 0.13215438 -0.22778516 -0.24362439 -0.007493008 -0.05335804 0.06474443
-0.21384491 -0.11433144 -0.0112875225 -0.05985176 0.18546228 0.2252188 -0.12715542 -0.062097702
0.00845552 0.08821448 -0.026463894 -0.077153645 0.2069766 -0.28084615 -0.14653389 -0.12384062
-0.013566194 -0.0981381 -0.017210223 0.06307348 0.060439352 -0.0900242 0.03947103 -0.020857213
0.1739718 -0.05458913 0.024479168 -0.08435007 -0.040089075 0.012386163 -0.033608764 0.066247374
-0.002044236 -0.010401033 0.1262022 -0.13884227 0.12280318 0.093386084 0.04726008 -0.08396124
-0.10369646 0.017275795 0.34796444 -0.07851597 -0.06461299 -0.03864621 -0.03549048 -0.15181151
-0.0029757877 -0.013972921 -0.11636892 0.18736191 0.0910761 0.28143767 0.082569204 -0.054213893
0.106583625 -0.038761538 0.0038008902 -0.086134166 -0.051619295 0.054230515 -0.052522965 -0.6388668
0.18069622 -0.0727857 0.10056895 -0.057908896 -0.11623477 0.3013714 -0.096163034 0.021650797
0.1186856 -0.083102755 0.020714123 0.36132833 -0.018012943 -0.06338518 -0.10377952 0.055915624
0.061597977 0.018470919 -0.028377993 0.01407048 -0.18281345 0.11145837 0.07080393 -0.069980994
0.094900325 -0.008725774 0.100884505 -0.014234147 -0.16266388 0.21109617 -0.03819585 0.10508059
-0.09431398 -0.10298741 -0.33031034 0.09930353 -0.015585486 0.09798574 0.057876214 0.015502581
0.16440134 -0.015313764 -0.19159381 0.003827033 0.09646497 -0.14704308 0.27379155 -0.054459214
0.2336787 -0.16816936 -0.12970304 0.097047545 0.091887236 0.0013421616 0.03721851 -0.07529364
-0.03959414 -0.052974436 0.03946648 0.04377631 -0.008056008 -0.047689855 -0.009460237 -0.03309058
00000000: 7b20 183e 1ced 923e f56c 33bd 8145 43be
00000010: 38dc 96bc 1fde 36bd 6e28 693d 0d2e 103d
00000020: 6e99 40bd 2597 2c3d 861f 04be a2e2 193d
00000030: 2ef4 cfbd a829 18bc 546b c43d 243b 91bd
00000040: 7e2d fd3d b593 8c3d c390 453d 5d06 d43d
00000050: 993e 6ebc 0324 f5bd 9b7d 8d3e 561e 95bc
00000060: e9fc 9ebd a24f 5f3c e5a2 263b 4c07 eabe
00000070: 4b87 aa3e f687 7f3d 778c 923e 9bc4 663e
00000080: d9db c8be cc42 783d 0faa 3a3e 2b82 6cbd
00000090: c721 2ebd f3a5 a03d d5ee f73d 8a17 debd
000000a0: 9d2b c7bd 4f97 19be 874f af3d f265 38be
000000b0: c5a8 103e 09b6 e8be d703 e93d d433 bebd
000000c0: eb35 48be fad8 3ebd f32d 79be bfd6 683b
000000d0: 4532 013e 2ecb bb3d c154 ea3d eb90 113d
000000e0: 174f 123e 3ca9 ee3d b089 7bbe e61e 5cbd
000000f0: 26c3 513d 92d9 29bd 130b 96bd 3bec 103e
00000100: 8fe4 2fbd a444 15bc c239 9fbd cef6 5cbe
00000110: 0227 3aba 75f9 03bd bb25 eabc 5bdf 10be
00000120: 542d c5bd 8ffa 1d3c b377 96bc 750d 453e
00000130: c696 40bd 7c9d 95bd bc0f 40be 10bf 17bd
00000140: 30fa c23d 2690 883d 2264 c8bd c3af 27be
00000150: e705 fbbd 1b5f 443d e688 293e f623 ce3d
00000160: 0c66 243b bef5 f73d 0762 b5bd a125 3a3e
00000170: 3bd3 f13d e3c1 993d 25ce 1c3d bf13 a13e
00000180: 4e7b 3c3d aa1a 303e d7d3 c63d 2758 803d
00000190: a8d2 3e3d a68f 3bbd e94b 943e ea3a 893c
000001a0: b3bf 58bd fe2a 2b3d 60f4 703d 5d5e 4dbe
000001b0: 23a1 b3bd ca76 5eb9 544f 013d 870d 813c
000001c0: ddb5 c03c b397 f03c bfa7 7f3c cc18 96bd
000001d0: 1a39 713e 0b4d ce3c 916d 7ebe 600b ff3d
000001e0: 3752 ee3d 2973 85bc 7a53 073e 8340 69be
000001f0: ac78 79be e887 f5bb f68d 5abd ba98 843d
00000200: 29fa 5abe 9a26 eabd 4def 38bc 1e27 75bd
00000210: d3e9 3d3e c29f 663e 0835 02be 295a 7ebd
00000220: 0589 0a3c cba9 b43d cfca d8bc bb02 9ebd
00000230: adf1 533e 11cb 8fbe fb0c 16be 27a0 fdbd
00000240: be44 5ebc a1fc c8bd 74fc 8cbc ab2c 813d
00000250: 418f 773d 9c5e b8bd 60ac 213d bfdc aabc
00000260: aa25 323e da98 5fbd 8988 c83c bbbf acbd
00000270: 7134 24bd 55ef 4a3c 58a9 09bd b4ac 873d
00000280: 97f8 05bb 1869 2abc 263b 013e ab2c 0ebe
00000290: 3c80 fb3d 3441 bf3d c993 413d dff3 abbd
000002a0: cf5e d4bd f885 8d3c 6528 b23e fbcc a0bd
000002b0: d153 84bd 7d4b 1ebd 775e 11bd 7a74 1bbe
000002c0: 6f05 43bb aeee 64bc d452 eebd cddb 3f3e
000002d0: 1b86 ba3d 9918 903e 0b1a a93d 630f 5ebd
000002e0: 8448 da3d 6bc4 1ebd 5b18 793b 1c67 b0bd
000002f0: c16e 53bd d120 5e3d 5222 57bd c68c 23bf
00000300: 6e08 393e ab10 95bd 18f7 cd3d e131 6dbd
00000310: 7f0c eebd 5a4d 9a3e 20f1 c4bd 035d b13c
00000320: 7011 f33d c731 aabd aab0 a93c 0700 b93e
00000330: e18f 93bc 17d0 81bd 5b8a d4bd c807 653d
00000340: 294e 7c3d 5350 973c f778 e8bc df87 663c
00000350: 7333 3bbe 4944 e43d a701 913d 3252 8fbd
00000360: 1a5b c23d 8cf6 0ebc 899c ce3d 5736 69bc
00000370: 5c91 26be 9829 583e 4073 1cbd 7e34 d73d
00000380: b027 c1bd 10eb d2bd 701e a9be a65f cb3d
00000390: 445a 7fbc bfac c83d 9c0f 6d3d 8afe 7d3c
000003a0: d358 283e 95e6 7abc 2b31 44be f6ce 7a3b
000003b0: 6d8f c53d 7692 16be 682e 8c3e a010 5fbd
000003c0: 7849 6f3e 9734 2cbe e0d0 04be ddc0 c63d
000003d0: 602f bc3d 78eb af3a 7072 183d 8d33 9abd
000003e0: 772d 22bd b9fb 58bd 9ba7 213d ca4e 333d
000003f0: 59fd 03bc 7056 43bd 1cff 1abc fd89 07bd

fc2.bias f4 [128]
-0.10549141 0.11408374 -0.044689465 -0.504959 -0.17509463 -0.06649028 0.008655168 -0.15582061
-0.33261478 -0.20670858 -0.029806465 0.0058627287 -0.25563678 -0.38194332 -0.20946282 -0.34440994
0.06592601 -0.24369566 -0.31916642 0.20709477 -0.13723738 -0.17834651 -0.12951614 -0.23193944
-0.08300015 0.07250956 0.12187306 0.017371776 0.062303837 -0.23808546 0.080382444 -0.19991554
-0.2051633 -0.10764118 -0.20186356 -0.0912114 -0.15733625 -0.25849184 -0.2813705 -0.13126013
-0.2078031 -0.27656257 -0.14743218 0.015633026 -0.025073621 -0.2166311 -0.16685414 0.14369947
-0.2705321 -0.17110823 0.13968956 -0.1506274 0.047725327 -0.0026801007 -0.2486603 -0.17781846
-0.16400684 -0.13596252 -0.15888742 -0.13797791 -0.13731146 -0.16242087 -0.024632886 -0.2452462
0.09640068 -0.3351782 0.11922101 0.080342755 -0.18232116 -0.031661656 -0.23261097 0.017304432
-0.29155537 -0.027009834 0.037253454 -0.27963987 -0.25112614 0.074924804 0.057385433 -0.16767678
0.018226562 -0.2920196 -0.20788477 -0.2147679 -0.23912303 -0.30491263 0.108100206 0.13567391
-0.16220693 -0.16093853 0.16624656 -0.28507206 -0.12186347 0.09168814 -0.08751547 -0.15463993
-0.2392465 -0.111451074 -0.114200495 -0.38221288 -0.20801921 -0.0051980726 -0.13817456 -0.3580388
-0.25611743 -0.37505046 -0.11363494 -0.1306891 -0.050019387 -0.08092727 -0.10733946 -0.08965694
-0.12462153 0.08538354 0.04159928 0.004644275 0.06312704 -0.17751513 -0.14252786 -0.017508583
-0.15972908 -0.3605882 -0.49531606 -0.3402751 -0.324585 0.06393049 -0.105057545 0.15092517
00000000: e10b d8bd bca4 e93d 4d0c 37bd fe44 01bf
00000010: 024c 33be 0e2c 88bd 68ce 0d3c 708f 1fbe
00000020: 7c4c aabe 6aab 53be b02c f4bc 221c c03b
00000030: d3e2 82be 138e c3be 6c7d 56be 8056 b0be
00000040: 3704 873d 5b8b 79be c869 a3be a710 543e
00000050: f587 0cbe 78a0 36be e19f 04be 8881 6dbe
00000060: fcfb a9bd e47f 943d 9598 f93d 414f 8e3c
00000070: 4f32 7f3d adcc 73be 8d9f a43d a9b6 4cbe
00000080: 5416 52be fb72 dcbd 52b5 4ebe 0bcd babd
00000090: c11c 21be 0b59 84be cb0f 90be 0e69 06be
000000a0: 56ca 54be 9c99 8dbe 76f8 16be d510 803c
000000b0: 3267 cdbc 8bd4 5dbe d0db 2abe f425 133e
000000c0: 2f83 8abe ff36 2fbe c80a 0f3e 123e 1abe
000000d0: a27b 433d a1a4 2fbb cea0 7ebe 0b16 36be
000000e0: 69f1 27be c239 0bbe 62b3 22be 154a 0dbe
000000f0: 609b 0cbe a851 26be e8ca c9bc d221 7bbe
00000100: b86d c53d 7a9c abbe 252a f43d be8a a43d
00000110: 66b2 3abe a7af 01bd 9231 6ebe 06c2 8d3c
00000120: bf46 95be ba43 ddbc 1497 183d f52c 8fbe
00000130: 9b93 80be 2d72 993d fd0c 6b3d 76b3 2bbe
00000140: df4f 953c 9883 95be bfdf 54be 1eec 5bbe
00000150: abdc 74be 821d 9cbe a463 dd3d 1aee 0a3e
00000160: 9319 26be 12cd 24be 8a3c 2a3e f7f4 91be
00000170: 8e93 f9bd fec6 bb3d 503b b3bd ee59 1ebe
00000180: 09fd 74be 7640 e4bd f3e1 e9bd 68b1 c3be
00000190: fd02 55be 9854 aabb a27d 0dbe dd50 b7be
000001a0: d321 83be 9d06 c0be 6fb9 e8bd 5dd3 05be
000001b0: 21e1 4cbd 32bd a5bd cad4 dbbd 0f9e b7bd
000001c0: 9339 ffbd 91dd ae3d 0264 2a3d 012f 983b
000001d0: c048 813d 87c6 35be d3f2 11be 296e 8fbc
000001e0: 0590 23be 049f b8be 119a fdbe 8a38 aebe
000001f0: 0130 a6be fded 823d 6928 d7bd 218c 1a3e

fc3.weight f4 [1, 128]
-0.114242785 0.13871618 -0.15310715 -0.9764328 -0.20346719 -0.04153255 0.14087236 -0.09311803
-0.1291394 -0.10151377 0.14134298 0.15207075 -0.06763777 -0.21397308 -0.16120985 -0.09085018
0.20822123 -0.488169 -0.13130619 0.18368044 -0.018809436 -0.045074258 -0.06017455 -0.14828743
-0.05392357 0.16171154 0.41814086 -0.028382804 0.14892256 -0.10813877 0.18754669 -0.11946071
0.26200953 0.10074317 -0.1009619 0.22010806 -0.47192222 -0.1233727 -0.23794906 -0.06207466
-0.16240647 -0.10258673 -0.08476295 0.3035728 0.17804135 -0.20882636 -0.07416337 0.15549089
-0.058070473 -0.07158267 0.19203883 -0.16831581 -0.020443529 -0.15501826 -0.13764715 0.29886442
-0.3173425 -0.16898672 -0.23761128 -0.35435963 -0.10178559 -0.27109885 -0.12436697 -0.20151724
-0.116000615 -0.11651596 0.106226504 0.07396829 -0.2220615 -0.06689927 -0.20977099 0.17380907
-0.50070226 0.13584337 0.1942127 -0.09310664 -0.17315209 0.09112755 0.11259724 -0.13757254
0.23786183 -0.21933648 -0.14571708 -0.6441965 -0.66666824 -0.10118055 0.09858443 0.1993996
-0.027887775 -0.12945509 0.081495866 -0.13375953 0.14728871 0.1101397 -0.12056749 -0.23540749
-0.20661555 -0.100079365 -0.15037806 0.3102677 -0.09159171 0.079767786 -0.16852695 -0.41077113
-0.08007388 -0.350537 0.16547711 -0.11684758 -0.016852185 0.79058456 -0.21096879 0.18033233
0.16732442 0.24269864 0.19207455 0.11015992 0.122246325 -0.052992687 -0.08225387 -0.027701592
-0.105355375 -0.2317743 -0.16502053 -0.038460493 -0.17231616 -0.07808537 -0.23406588 0.11029307
00000000: 1ff8 e9bd 9d0b 0e3e 1fc8 1cbe 80f7 79bf
00000010: b459 50be 091e 2abd d840 103e aab4 bebd
00000020: 1e3d 04be 74e6 cfbd 37bc 103e 6fb8 1b3e
00000030: ac85 8abd c21b 5bbe 3214 25be a90f babd
00000040: f237 553e 4af1 f9be 2175 06be ba16 3c3e
00000050: 3f16 9abc c99f 38bd 9779 76bd a9d8 17be
00000060: f6de 5cbd b697 253e 8f16 d63e 0e83 e8bc
00000070: 287f 183e dc77 ddbd 3d0c 403e d1a7 f4bd
00000080: 1d26 863e 6f52 ce3d 1dc5 cebd 0264 613e
00000090: ca9f f1be d3aa fcbd eba8 73be 0042 7ebd
000000a0: e24d 26be fe18 d2bd 3398 adbd e56d 9b3e
000000b0: 7950 363e 94d6 55be f7e2 97bd 0139 1f3e
000000c0: 4edb 6dbd ef99 92bd d4a5 443e fb5a 2cbe
000000d0: 3079 a7bc 1bbd 1ebe 60f3 0cbe c204 993e
000000e0: b77a a2be db0a 2dbe 5f50 73be a06e b5be
000000f0: f774 d0bd 78cd 8abe 1cb4 febd 895a 4ebe
00000100: bb91 edbd eb9f eebd 488d d93d b07c 973d
00000110: 1764 63be 7c02 89bd 35ce 56be 01fb 313e
00000120: 062e 00bf 861a 0b3e b2df 463e b2ae bebd
00000130: c84e 31be 15a1 ba3d 6299 e63d d1df 0cbe
00000140: 0d92 733e be99 60be dc36 15be 10ea 24bf
00000150: c5aa 2abf c037 cfbd a2e6 c93d 692f 4c3e
00000160: e774 e4bc e08f 04be 4ee7 a63d 42f8 08be
00000170: dad2 163e ec90 e13d 17ec f6bd a90e 71be
00000180: 0793 53be 69f6 ccbd b5fc 19be 68db 9e3e
00000190: 6f94 bbbd 4b5d a33d 5492 2cbe 9850 d2be
000001a0: c6fd a3bd 9679 b3be d572 293e c94d efbd
000001b0: 980d 8abc c063 4a3f 3408 58be 0aa9 383e
000001c0: 1857 2b3e fe85 783e 31af 443e 869b e13d
000001d0: 485c fa3d dc0e 59bd b874 a8bd 73ee e2bc
000001e0: 8fc4 d7bd 3e56 6dbe 24fb 28be c088 1dbd
000001f0: a673 30be 39eb 9fbd f7ae 6fbe 55e1 e13d

bn1.weight f4 [256]
1.1183378 0.79887205 1.0372654 0.8658898 1.066762 1.0 0.8743526 0.9757735
1.0 1.0249012 1.0 0.83192545 0.19815335 0.51861084 0.7342937 0.9957995
1.0 0.40452644 1.0 0.95491856 0.90210986 0.58147883 0.87187445 1.0026985
0.12053107 1.0724189 0.9444131 1.0277826 0.8055759 0.9173869 1.4475552 0.44297826
1.3257906 1.0328977 0.46200177 0.16226217 0.9819935 1.0 0.9644835 1.0436631
1.0 1.0773833 0.9060195 0.94043195 0.5246829 0.8330879 0.9280834 1.0
0.7553261 1.0484717 0.84255224 1.0084908 0.670615 1.1141137 1.0 1.0
0.64528733 0.2706709 0.9221322 0.8966575 1.0 1.0035828 1.0643625 1.0827329
1.0 1.0 1.0545716 0.45307708 0.99729973 1.022732 1.0 0.81232285
1.151971 0.5630914 0.35830158 0.18535903 0.9848573 0.6753626 0.9360208 1.0
0.918091 0.31261295 0.9794588 1.017453 1.0752435 1.04325 0.13694923 1.0
1.0 1.0121453 1.0491345 0.4904841 0.6788683 0.96782017 1.0 0.7449688
0.2527295 0.76135594 0.38900068 1.0 1.0520036 0.91214234 0.93934584 1.0
1.0 1.0181417 0.6440823 0.9375469 0.28757542 0.21827514 0.9820094 0.9065045
1.0 1.049975 0.9819851 1.0693626 0.87593585 1.0 0.79963875 0.8396299
0.4059082 0.7589838 1.210928 1.1842278 0.9306778 0.4390529 0.352799 1.0179669
0.7703613 1.0 0.5775927 1.0 0.90525275 1.4289728 1.0672809 0.9268508
1.0 0.83950126 0.99026585 1.0 0.5820183 0.6947589 1.1005597 0.73410267
0.8685539 0.5096701 0.9689073 1.0 0.6523837 1.0735925 0.13091712 1.0263422
0.8515517 1.0 0.5734294 1.0 0.68007857 0.9711561 0.887367 0.19611368
1.0338681 1.0537411 0.37714863 0.5994077 0.10575468 1.0574334 1.0 1.0141449
1.0240073 1.050396 0.8270886 0.59845966 0.8720717 0.98198783 1.0 0.9196631
0.7892574 1.0276805 1.0903213 1.0124198 1.0 0.28237283 0.28968093 0.3557164
0.35410327 0.9629417 1.2169092 0.7380415 0.86393166 0.98198897 0.3333681 0.78944457
0.15514776 1.1325392 1.0179926 1.0 0.1473203 0.11859722 0.95672953 1.0
0.9806658 0.3842534 0.8842857 0.39588818 1.0 1.0 0.46897918 1.0
0.22648554 0.9598707 0.36778066 1.071163 0.7288961 1.1316061 0.8861048 0.93965906
1.3746243 1.0 0.82701606 1.0 1.0884395 0.98153496 1.0 0.7602384
1.0 0.3475338 1.1567498 1.0 0.9904609 1.115985 0.929174 0.96131206
0.63954926 1.0 0.7782393 1.0 1.0 0.74707043 0.58070683 0.9819877
0.5761159 0.6580627 0.4849772 1.0 1.0 1.0 1.0 0.9886511
1.0 0.83940864 0.98198646 0.66646785 0.74473476 1.0 1.2910242 0.5952871
00000000: b125 8f3f e182 4c3f 1dc5 843f f4aa 5d3f
00000010: a88b 883f 0000 803f 92d5 5f3f 4bcc 793f
00000020: 0000 803f f62f 833f 0000 803f 11f9 543f
00000030: b6e8 4a3e aec3 043f acfa 3b3f b7ec 7e3f
00000040: 0000 803f 171e cf3e 0000 803f 8b75 743f
00000050: acf0 663f ccdb 143f 2a33 5f3f 6d58 803f
00000060: fed8 f63d 0645 893f 0fc5 713f 618e 833f
00000070: 393a 4e3f ded9 6a3f 7d49 b93f 0cce e23e
00000080: 82b3 a93f fe35 843f 7f8b ec3e 0e28 263e
00000090: ed63 7b3f 0000 803f 64e8 763f c196 853f
000000a0: 0000 803f b2e7 893f e5f0 673f 26c0 703f
000000b0: 9e51 063f 4045 553f e096 6d3f 0000 803f
000000c0: 0d5d 413f 5234 863f 81b1 573f 3a16 813f
000000d0: 6dad 2b3f 479b 8e3f 0000 803f 0000 803f
000000e0: 8d31 253f 6095 8a3e db10 6c3f 598b 653f
000000f0: 0000 803f 6775 803f 083d 883f fe96 8a3f
00000100: 0000 803f 0000 803f 34fc 863f b8f9 e73e
00000110: 094f 7f3f e2e8 823f 0000 803f 64f4 4f3f
00000120: c973 933f c226 103f 4e73 b73e c2ce 3d3e
00000130: 9c1f 7c3f 90e4 2c3f 0f9f 6f3f 0000 803f
00000140: 0308 6b3f ce0e a03e d0bd 7a3f e63b 823f
00000150: 94a1 893f 3789 853f 6b3c 0c3e 0000 803f
00000160: 0000 803f fa8d 813f 0a4a 863f bb20 fb3e
00000170: 50ca 2d3f 10c3 773f 0000 803f 46b6 3e3f
00000180: c365 813e 39e8 423f 192b c73e 0000 803f
00000190: 0ea8 863f 2982 693f f878 703f 0000 803f
000001a0: 0000 803f 7852 823f 94e2 243f 1303 703f
000001b0: 163d 933e 8583 5f3e f864 7b3f ae10 683f
000001c0: 0000 803f 9565 863f 6063 7b3f e0e0 883f
000001d0: 553d 603f 0000 803f 20b5 4c3f fcf1 563f
000001e0: 33d3 cf3e c34c 423f b0ff 9a3f c794 973f
000001f0: e640 6e3f 8bcb e03e 12a2 b43e bd4c 823f
00000200: 6636 453f 0000 803f 1ddd 133f 0000 803f
00000210: a5be 673f 95e8 b63f a99c 883f 1846 6d3f
00000220: 0000 803f 8ee9 563f 1082 7d3f 0000 803f
00000230: 27ff 143f b8db 313f 24df 8c3f 27ee 3b3f
00000240: 8c59 5e3f bd79 023f 4f0a 783f 0000 803f
00000250: 9e02 273f 7b6b 893f 230f 063e 2e5f 833f
00000260: 4bff 593f 0000 803f 45cc 123f 0000 803f
00000270: a119 2e3f b09d 783f 7c2a 633f 06d2 483e
00000280: ca55 843f fde0 863f a019 c13e c872 193f
00000290: e995 d83d fa59 873f 0000 803f 80cf 813f
000002a0: ac12 833f 6073 863f 14bc 533f a734 193f
000002b0: 1740 5f3f 8e63 7b3f 0000 803f 0a6f 6b3f
000002c0: c60c 4a3f 098b 833f a68f 8b3f f996 813f
000002d0: 0000 803f 2c93 903e 0f51 943e 7620 b63e
000002e0: 064d b53e 5983 763f aec3 9b3f 4af0 3c3f
000002f0: a02a 5d3f a163 7b3f 39af aa3e 0a19 4a3f
00000300: 0edf 1e3e 0bf7 903f 954d 823f 0000 803f
00000310: 22db 163e 19e3 f23d 3aec 743f 0000 803f
00000320: ea0c 7b3f ddbc c43e 8c60 623f dbb1 ca3e
00000330: 0000 803f 0000 803f 0a1e f03e 0000 803f
00000340: d3eb 673e 16ba 753f bf4d bc3e df1b 893f
00000350: ef98 3a3f 78d8 903f c4d7 623f 7f8d 703f
00000360: b0f3 af3f 0000 803f 53b7 533f 0000 803f
00000370: fc51 8b3f e045 7b3f 0000 803f fc9e 423f
00000380: 0000 803f f3ef b13e 6110 943f 0000 803f
00000390: d88e 7d3f 99d8 8e3f 59de 6d3f 8c18 763f
000003a0: 80b9 233f 0000 803f b13a 473f 0000 803f
000003b0: 0000 803f 0240 3f3f 34a9 143f 8c63 7b3f
000003c0: 557c 133f cc76 283f ee4e f83e 0000 803f
000003d0: 0000 803f 0000 803f 0000 803f 3d18 7d3f
000003e0: 0000 803f 7ce3 563f 7763 7b3f a39d 2a3f
000003f0: f0a6 3e3f 0000 803f 4840 a53f bc64 183f

bn1.bias f4 [256]
0.16722038 0.009373383 0.13454454 0.24989356 -0.035239175 -0.004561642 -0.00020330108 0.014597319
0.0024960726 -0.12766936 0.087624975 0.13385743 0.027182745 -0.12559739 0.19965613 0.019452855
-0.047996376 0.18854606 0.0033758942 0.009817951 0.107488684 0.2432113 0.024490515 0.007817034
0.004958945 0.032854207 -0.091518015 0.35575068 0.011920352 0.033241455 0.30071762 0.06530166
0.13624075 0.0035898283 -0.20236696 0.06953693 0.1255613 -0.0017190451 -0.0069689457 0.007679834
0.02969446 0.007292975 -0.0046197297 -0.0291072 0.3141669 0.08261472 0.08490778 0.0075968634
0.1278149 0.01165855 0.21402918 -0.07003008 -0.06851261 0.0408829 -0.0016610463 -0.030645296
0.025516307 -0.00645951 0.2265321 0.0068075066 -0.021088695 0.0018777983 0.00033400842 -0.05983952
1.2489036e-05 -0.0036879354 0.004023714 0.07029687 -0.008554313 0.13583969 0.0029275108 0.044605326
0.08032425 0.1713753 0.24749784 -0.016224576 0.0064705093 0.17492415 0.00012455147 -0.0005579114
0.24889988 0.004467886 0.009046404 0.0027165823 0.1217154 -0.002727896 0.05202541 0.0052546915
-0.0008843527 -0.0035162207 -0.0019592743 0.21775 0.2430791 0.034679398 -0.0007316682 0.13589205
0.018922059 0.048504777 -0.1303617 -0.07314163 -0.012711048 0.016478525 0.19815525 -0.00095531764
-0.004939327 -0.0077614654 -0.012710402 0.22897096 0.20380443 0.07199939 0.0057115955 0.00035464007
-0.0024998467 0.0022534884 0.006453147 0.019228451 0.103775464 -0.10385731 0.23260498 -0.14073977
0.13137689 0.03513899 0.0064481944 0.16696064 0.10052401 -0.10850144 -0.05361164 0.008372866
0.09450055 0.09825369 0.24446446 0.0020690798 0.18391134 0.06192378 0.0585351 0.078866854
0.0041818856 0.0021913038 0.003244102 0.00071551383 0.112773634 0.28364992 0.1195767 0.07538963
-0.02240849 0.3395014 0.103445515 0.0038044632 0.2462515 0.0036657904 0.038297705 0.30592445
-0.06954956 -0.0034026937 0.090364665 0.0040470636 0.09968188 0.0032920178 0.048004042 0.037631083
0.13611864 0.080829 0.097040914 0.22089039 0.03505571 -0.003961632 0.0025813621 0.15881404
-0.0040807035 -0.0001385468 0.1556766 -0.18559508 0.009851936 -0.0012180271 -0.0011856768 -0.14495483
0.09345661 -0.00045216468 0.068394445 -0.091901 -0.0029415814 -7.845368e-05 -0.0016161659 0.23577586
-0.11770808 0.0033644373 0.035172693 0.30714014 0.106212564 0.0008919751 0.16317302 0.29823408
-0.06358509 0.029382069 -0.1136173 0.0020568676 0.049139313 -0.04343878 0.0676138 0.0025685611
-0.18699047 0.06146135 0.06938337 -0.144973 -0.0024170242 -0.00010584085 0.026680652 -0.06591273
-0.07827085 0.045686 0.15648423 0.00096363865 0.2383267 -0.028251164 -0.05351163 0.13581926
0.17024636 -0.0035986612 0.17007038 0.0033931804 0.1304666 -0.19193372 0.0043396773 0.26259777
0.12791283 -0.21406218 -0.022566566 -0.08390914 0.0050920243 0.120804146 -0.0041719205 0.2486753
-0.15964341 -0.0023157734 0.21153326 0.00023417799 0.006445005 -0.014208596 0.048650146 0.17105877
0.2724144 0.26402324 0.33087403 0.003349794 0.00055172434 0.017531645 0.0015208058 -0.024149094
0.003243647 -0.074136496 0.0017323296 -0.0013133037 -0.11362759 0.116806105 0.042265005 0.29318106
00000000: d23b 2b3e d192 193c 0bc6 093e 19e4 7f3e
00000010: f456 10bd d479 95bb 382d 55b9 9829 6f3c
00000020: 2695 233b c2bb 02be b974 b33d ec11 093e
00000030: 59ae de3c 9a9c 00be a872 4c3e 985b 9f3c
00000040: d997 44bd 3812 413e 1b3e 5d3b 79db 203c
00000050: 0723 dc3d 620c 793e 55a0 c83c 0413 003c
00000060: a57e a23b 2292 063d cc6d bbbd f424 b63e
00000070: 944d 433c 3128 083d a9f7 993e e0bc 853d
00000080: b282 0b3e 5343 6b3b 4939 4fbe 6169 8e3d
00000090: 2493 003e 9551 e1ba c15b e4bb 1ea7 fb3b
000000a0: cc41 f33c e9f9 ee3b 1a61 97bb 3972 eebc
000000b0: 7cda a03e e831 a93d 21e4 ad3d 1cef f83b
000000c0: e9e1 023e 8103 3f3c 772a 5b3e ee6b 8fbd
000000d0: 5750 8cbd d474 273d 77b7 d9ba d80b fbbc
000000e0: 9307 d13c 4caa d3bb 08f8 673e 8111 df3b
000000f0: 33c2 acbc 7520 f63a da1d af39 491a 75bd
00000100: 0088 5137 4ab1 71bb 5cd9 833b cef7 8f3d
00000110: 6427 0cbc 8f19 0b3e 7bdb 3f3b 13b4 363d
00000120: 0a81 a43d 027d 2f3e 1370 7d3e 67e9 84bc
00000130: 9106 d43b 511f 333e 089a 0239 cd40 12ba
00000140: 9cdf 7e3e 5867 923b 5e37 143c b008 323b
00000150: ec45 f93d 80c6 32bb 9918 553d 8c2f ac3b
00000160: e8d3 67ba 6570 66bb 2b67 00bb dbf9 5e3e
00000170: bae9 783e fc0b 0e3d 6ccd 3fba 4927 0b3e
00000180: 6f02 9b3c f2ac 463d 8a7d 05be 47cb 95bd
00000190: 0042 50bc f9fd 863c 36e9 4a3e 486e 7aba
000001a0: 14da a1bb e453 febb 4a3f 50bc 5d77 6a3e
000001b0: 1cb2 503e 6b74 933d 5628 bb3b fcee b939
000001c0: 78d4 23bb 43af 133b ec74 d33b fc84 9d3c
000001d0: 3b88 d43d 24b3 d4bd 0030 6e3e 161e 10be
000001e0: aa87 063e e7ed 0f3d 604b d33b bbf7 2a3e
000001f0: 88df cd3d 0136 debd e197 5bbd 582e 093c
00000200: 8189 c13d 3b39 c93d e454 7a3e 6699 073b
00000210: 4153 3c3e caa3 7d3d 80c2 6f3d f284 a13d
00000220: 3308 893b fa9b 0f3b 009b 543b 5291 3b3a
00000230: ddf5 e63d 903a 913e a1e4 f43d e165 9a3d
00000240: 0292 b7bc 21d3 ad3e 3edb d33d 4d54 793b
00000250: 5a29 7c3e c23d 703b 0ede 1c3d 21a2 9c3e
00000260: 0070 8ebd baff 5ebb 1c11 b93d 3b9d 843b
00000270: 0326 cc3d e5be 573b e39f 443d 0d23 1a3d
00000280: af62 0b3e ad89 a53d 63bd c63d 1731 623e
00000290: 9396 0f3d 94d0 81bb 122c 293b 26a0 223e
000002a0: 6cb7 85bb e046 11b9 b069 1f3e a30c 3ebe
000002b0: 046a 213c 35a6 9fba b668 9bba 0a6f 14be
000002c0: 2e66 bf3d 8410 edb9 6312 8c3d 9736 bcbd
000002d0: 8cc7 40bb 8087 a4b8 87d5 d3ba 3a6f 713e
000002e0: ef10 f1bd e47d 5c3b 3e11 103d 7941 9d3e
000002f0: f985 d93d 70d3 693a d416 273e 23b2 983e
00000300: e638 82bd aab2 f03c 30b0 e8bd 83cc 063b
00000310: 4e46 493d ddec 31bd 1b79 8a3d 4e55 283b
00000320: 6e7a 3fbe e6be 7b3d de18 8e3d cd73 14be
00000330: f066 1ebb e0f6 ddb8 6291 da3c 41fd 86bd
00000340: 784c a0bd 3e21 3b3d 673d 203e b29c 7c3a
00000350: ea0b 743e fc6e e7bc 032f 5bbd 3414 0b3e
00000360: 1055 2e3e 84d7 6bbb ee26 2e3e 1f60 5e3b
00000370: 0999 053e 468a 44be da33 8e3b 3773 863e
00000380: 95fb 023e 1e33 5bbe 85dd b8bc 8ed8 abbd
00000390: ffda a63b 2a68 f73d 9bb4 88bb bda4 7e3e
000003a0: 9079 23be 3bc4 17bb 2d9c 583e ad8d 7539
000003b0: 9f30 d33b 2ccb 68bc 6045 473d 082a 2f3e
000003c0: e679 8b3e 0e2e 873e 5268 a93e 3888 5b3b
000003d0: 98a1 103a 869e 8f3c c655 c73a 52d4 c5bc
000003e0: 5e93 543b e0d4 97bd 560f e33a 2923 acba
000003f0: 95b5 e8bd 0a38 ef3d 121e 2d3d d41b 963e

bn1.running_mean f4 [256]
0.015428506 0.03607053 0.089106575 0.02883169 6e-45 0.0 6e-45 6e-45
0.0 6e-45 0.0 0.33478197 0.7751803 0.2673064 1.5734326 6e-45
0.0 1.2427093 0.0 6e-45 6e-45 0.7003161 0.031982437 6e-45
0.86805665 6e-45 6e-45 0.12722695 0.20507917 0.08490151 0.12465379 1.5502263
6e-45 6e-45 0.39136502 1.2811044 6e-45 0.0 6e-45 6e-45
0.0 6e-45 6e-45 6e-45 1.1099142 0.08916723 0.02547526 0.0
0.010703442 6e-45 0.053721733 6e-45 0.059354473 6e-45 0.0 0.0
0.13038096 1.4564761 0.02658973 6e-45 0.0 6e-45 6e-45 6e-45
0.0 0.0 6e-45 0.2572186 6e-45 0.17372563 0.0 0.10996934
6e-45 0.7564534 1.4779661 1.0604901 6e-45 1.960223 0.016985044 0.0
0.35352585 1.7091563 6e-45 6e-45 6e-45 6e-45 1.203395 0.0
0.0 6e-45 6e-45 1.1833059 0.2144026 0.04316463 0.0 0.81192213
0.4121943 0.12973987 0.12971023 0.0 6e-45 6e-45 1.743949 0.0
0.0 6e-45 6e-45 6e-45 1.1541017 1.3546009 6e-45 6e-45
0.0 6e-45 6e-45 6e-45 1.9384365 0.0 0.07923697 0.079393715
1.6299706 0.018679079 0.08258046 6e-45 0.02605019 0.28313455 0.4934203 6e-45
0.26744938 0.0 2.1009917 0.0 0.05862229 0.11818379 6e-45 6e-45
0.0 0.03542263 6e-45 0.0 0.34864527 1.6562591 6e-45 6e-45
0.024340205 0.8714301 0.027123567 0.0 1.6636113 6e-45 1.3456461 0.057537157
6e-45 0.0 0.17071559 0.0 0.026861642 6e-45 6e-45 1.5567857
6e-45 6e-45 1.4987831 1.6146153 1.260126 6e-45 0.0 0.6272315
6e-45 6e-45 0.06683648 0.27495134 6e-45 6e-45 0.0 0.30333397
6e-45 6e-45 6e-45 6e-45 0.0 0.3535595 1.6622703 1.2129779
1.7041111 6e-45 6e-45 0.24000031 6e-45 6e-45 1.6157347 0.05373966
1.3541048 6e-45 6e-45 0.0 1.6856483 1.3726265 6e-45 0.0
6e-45 0.55316436 0.0767471 0.9012188 0.0 0.0 1.1651096 0.0
1.4414313 0.18728593 1.1949549 6e-45 1.069971 6e-45 0.14486386 6e-45
6e-45 0.0 0.14985958 0.0 6e-45 6e-45 0.0 1.5742688
0.0 0.78068995 0.1953475 0.0 6e-45 6e-45 6e-45 0.019646734
0.027724585 0.0 1.6198684 0.0 0.0 0.15161362 0.23708014 6e-45
1.494875 1.5849313 0.4595737 0.0 0.0 0.0 0.0 6e-45
0.0 0.022346811 6e-45 0.02774251 0.014083662 0.0 0.19123179 1.7040035
00000000: d8c7 7c3c b1be 133d 827d b63d 7030 ec3c
00000010: 0400 0000 0000 0000 0400 0000 0400 0000
00000020: 0000 0000 0400 0000 0000 0000 8b68 ab3e
00000030: 3772 463f 62dc 883e 3d66 c93f 0400 0000
00000040: 0000 0000 1911 9f3f 0000 0000 0400 0000
00000050: 0400 0000 ea47 333f 0400 033d 0400 0000
00000060: f638 5e3f 0400 0000 0400 0000 c847 023e
00000070: 4600 523e d8e0 ad3d 7c4a ff3d d16d c63f
00000080: 0400 0000 0400 0000 ff60 c83e 3bfb a33f
00000090: 0400 0000 0000 0000 0400 0000 0400 0000
000000a0: 0000 0000 0400 0000 0400 0000 0400 0000
000000b0: ab11 8e3f 4f9d b63d 7eb1 d03c 0000 0000
000000c0: 7d5d 2f3c 0400 0000 520b 5c3d 0400 0000
000000d0: ad1d 733d 0400 0000 0000 0000 0000 0000
000000e0: 9682 053e cf6d ba3f b5d2 d93c 0400 0000
000000f0: 0000 0000 0400 0000 0400 0000 0400 0000
00000100: 0000 0000 0000 0000 0400 0000 28b2 833e
00000110: 0400 0000 22e5 313e 0000 0000 9b37 e13d
00000120: 0400 0000 eea6 413f fe2d bd3f 24be 873f
00000130: 0400 0000 96e8 fa3f 3824 8b3c 0000 0000
00000140: 5701 b53e a2c5 da3f 0400 0000 0400 0000
00000150: 0400 0000 0400 0000 d908 9a3f 0000 0000
00000160: 0000 0000 0400 0000 0400 0000 9176 973f
00000170: 5b8c 5b3e 65cd 303d 0000 0000 21da 4f3f
00000180: 220b d33e 87da 043e c2d2 043e 0000 0000
00000190: 0400 0000 0400 0000 b939 df3f 0000 0000
000001a0: 0000 0000 0400 0000 0400 0000 0400 0000
000001b0: 9bb9 933f 9063 ad3f 0400 0000 0400 0000
000001c0: 0000 0000 0400 0000 0400 0000 0400 0000
000001d0: b01e f83f 0000 0000 fe46 a23d 2c99 a23d
000001e0: e0a2 d03f de04 993c f21f a93d 0400 0000
000001f0: 3567 d53c 03f7 903e 96a1 fc3e 0400 0000
00000200: 20ef 883e 0000 0000 a676 0640 0000 0000
00000210: ed1d 703d 580a f23d 0400 0000 0400 0000
00000220: 0000 0000 5217 113d 0400 0000 0000 0000
00000230: a281 b23e 4c00 d43f 0400 0000 0400 0000
00000240: 1c65 c73c 0b16 5f3f 3e32 de3c 0000 0000
00000250: 37f1 d43f 0400 0000 223e ac3f 15ac 6b3d
00000260: 0400 0000 0000 0000 11d0 2e3e 0000 0000
00000270: f20c dc3c 0400 0000 0400 0000 c144 c73f
00000280: 0400 0000 0400 0000 20d8 bf3f b7ab ce3f
00000290: cf4b a13f 0400 0000 0000 0000 3e92 203f
000002a0: 0400 0000 0400 0000 90e1 883d 6cc6 8c3e
000002b0: 0400 0000 0400 0000 0000 0000 974e 9b3e
000002c0: 0400 0000 0400 0000 0400 0000 0400 0000
000002d0: 0000 0000 c005 b53e 46c5 d43f dc42 9b3f
000002e0: 5020 da3f 0400 0000 0400 0000 a4c2 753e
000002f0: 0400 0000 0400 0000 65d0 ce3f 1e1e 5c3d
00000300: 4e53 ad3f 0400 0000 0400 0000 0000 0000
00000310: 53c3 d73f 3ab2 af3f 0400 0000 0000 0000
00000320: 0400 0000 2e9c 0d3f 952d 9d3d 46b6 663f
00000330: 0000 0000 0000 0000 5022 953f 0000 0000
00000340: d280 b83f e2c7 3f3e 48f4 983f 0400 0000
00000350: cff4 883f 0400 0000 3157 143e 0400 0000
00000360: 0400 0000 0000 0000 ca74 193e 0000 0000
00000370: 0400 0000 0400 0000 0000 0000 a481 c93f
00000380: 0000 0000 4cdb 473f 2d09 483e 0000 0000
00000390: 0400 0000 0400 0000 0400 0000 30f2 a03c
000003a0: ab1e e33c 0000 0000 d957 cf3f 0000 0000
000003b0: 0000 0000 9a40 1b3e 23c5 723e 0400 0000
000003c0: 1058 bf3f 07df ca3f 3e4d eb3e 0000 0000
000003d0: 0000 0000 0000 0000 0000 0000 0400 0000
000003e0: 0000 0000 a910 b73c 0400 0000 4344 e33c
000003f0: 29bf 663c 0000 0000 44d2 433e c91c da3f

bn1.running_var f4 [256]
0.0039249845 0.009414368 0.027934806 0.00755297 6e-45 6e-45 6e-45 6e-45
6e-45 6e-45 6e-45 0.08456988 0.078273006 0.06412514 0.18229404 6e-45
6e-45 0.11268548 6e-45 6e-45 6e-45 0.14108774 0.009490551 6e-45
0.09763733 6e-45 6e-45 0.046665058 0.058897704 0.020212939 0.048141707 0.11990634
6e-45 6e-45 0.109797664 0.11896762 6e-45 6e-45 6e-45 6e-45
6e-45 6e-45 6e-45 6e-45 0.15188366 0.035752974 0.0073302113 6e-45
0.0033695821 6e-45 0.017763322 6e-45 0.016224151 6e-45 6e-45 6e-45
0.047433086 0.12644327 0.007006247 6e-45 6e-45 6e-45 6e-45 6e-45
6e-45 6e-45 6e-45 0.06554246 6e-45 0.06922193 6e-45 0.050150976
6e-45 0.13481946 0.12629016 0.15747413 6e-45 0.32563403 0.002595744 6e-45
0.13008715 0.15569729 6e-45 6e-45 6e-45 6e-45 0.13656409 6e-45
6e-45 6e-45 6e-45 0.15617132 0.08131066 0.015310242 6e-45 0.08946541
0.09184604 0.049382854 0.051473357 6e-45 6e-45 6e-45 0.3357749 6e-45
6e-45 6e-45 6e-45 6e-45 0.07149675 0.113863856 6e-45 6e-45
6e-45 6e-45 6e-45 6e-45 0.5026904 6e-45 0.025893979 0.02122735
0.113908246 0.004632131 0.02751277 6e-45 0.008117464 0.08063377 0.10932353 6e-45
0.09544188 6e-45 0.22247069 6e-45 0.019676922 0.042449005 6e-45 6e-45
6e-45 0.010892877 6e-45 6e-45 0.11728192 0.29569888 6e-45 6e-45
0.0067783664 0.135022 0.006259783 6e-45 0.15061978 6e-45 0.09430702 0.016900154
6e-45 6e-45 0.054372262 6e-45 0.008473833 6e-45 6e-45 0.11049547
6e-45 6e-45 0.16256484 0.17552012 0.08246553 6e-45 6e-45 0.16245222
6e-45 6e-45 0.018961022 0.108256884 6e-45 6e-45 6e-45 0.0990671
6e-45 6e-45 6e-45 6e-45 6e-45 0.10986782 0.13986318 0.13814522
0.14771894 6e-45 6e-45 0.10401011 6e-45 6e-45 0.115902774 0.018995492
0.09910267 6e-45 6e-45 6e-45 0.10417538 0.13264489 6e-45 6e-45
6e-45 0.14049669 0.019842846 0.15363374 6e-45 6e-45 0.09740314 6e-45
0.100153185 0.06753737 0.112868026 6e-45 0.20469923 6e-45 0.054847963 6e-45
6e-45 6e-45 0.05733256 6e-45 6e-45 6e-45 6e-45 0.16927376
6e-45 0.13534296 0.07729258 6e-45 6e-45 6e-45 6e-45 0.0051778355
0.0073426543 6e-45 0.28024754 6e-45 6e-45 0.060548984 0.10409505 6e-45
0.20890677 0.16709186 0.13121107 6e-45 6e-45 6e-45 6e-45 6e-45
6e-45 0.0061771045 6e-45 0.0070773046 0.003235692 6e-45 0.07400248 0.17636235
00000000: 289d 803b b93e 1a3c 89d7 e43c e87e f73b
00000010: 0400 0000 0400 0000 0400 0000 0400 0000
00000020: 0400 0000 0400 0000 0400 0000 f932 ad3d
00000030: 994d a03d 0b54 833d 4aab 3a3e 0400 0000
00000040: 0400 0000 a5c7 e63d 0400 0000 0400 0000
00000050: 0400 0000 4e79 103e 427e 1b3c 0400 0000
00000060: 15f6 c73d 0400 0000 0400 0000 dc23 3f3d
00000070: b83e 713d 9b95 a53c 3d30 453d 7591 f53d
00000080: 0400 0000 0400 0000 99dd e03d 4ca5 f33d
00000090: 0400 0000 0400 0000 0400 0000 0400 0000
000000a0: 0400 0000 0400 0000 0400 0000 0400 0000
000000b0: 6487 1b3e b671 123d 4532 f03b 0400 0000
000000c0: 35d4 5c3b 0400 0000 6384 913c 0400 0000
000000d0: 83e8 843c 0400 0000 0400 0000 0400 0000
000000e0: 3249 423d 587a 013e a994 e53b 0400 0000
000000f0: 0400 0000 0400 0000 0400 0000 0400 0000
00000100: 0400 0000 0400 0000 0400 0000 203b 863d
00000110: 0400 0000 3ac4 8d3d 0400 0000 1c6b 4d3d
00000120: 0400 0000 1d0e 0a3e 3552 013e e640 213e
00000130: 0400 0000 81b9 a63e 5c1d 2a3b 0400 0000
00000140: 9135 053e 1c6f 1f3e 0400 0000 0400 0000
00000150: 0400 0000 0400 0000 75d7 0b3e 0400 0000
00000160: 0400 0000 0400 0000 0400 0000 60eb 1f3e
00000170: 3486 a63d cfd7 7a3c 0400 0000 a439 b73d
00000180: c719 bc3d ad45 4a3d bad5 523d 0400 0000
00000190: 0400 0000 0400 0000 b0ea ab3e 0400 0000
000001a0: 0400 0000 0400 0000 0400 0000 0400 0000
000001b0: e36c 923d 7431 e93d 0400 0000 0400 0000
000001c0: 0400 0000 0400 0000 0400 0000 0400 0000
000001d0: 51b0 003f 0400 0000 9c1f d43c fbe4 ad3c
000001e0: ba48 e93d 22c9 973b 7662 e13c 0400 0000
000001f0: 1dff 043c 5123 a53d 04e5 df3d 0400 0000
00000200: 0877 c33d 0400 0000 5bcf 633e 0400 0000
00000210: 7f31 a13c 02df 2d3d 0400 0000 0400 0000
00000220: 0400 0000 0a78 323c 0400 0000 0400 0000
00000230: 8131 f03d d865 973e 0400 0000 0400 0000
00000240: 0f1d de3b 3543 0a3e de1e cd3b 0400 0000
00000250: 123c 1a3e 0400 0000 0a24 c13d 3172 8a3c
00000260: 0400 0000 0400 0000 73b5 5e3d 0400 0000
00000270: d5d5 0a3c 0400 0000 0400 0000 734b e23d
00000280: 0400 0000 0400 0000 6677 263e 8cbb 333e
00000290: b0e3 a83d 0400 0000 0400 0000 e059 263e
000002a0: 0400 0000 0400 0000 2554 9b3c c9b5 dd3d
000002b0: 0400 0000 0400 0000 0400 0000 b1e3 ca3d
000002c0: 0400 0000 0400 0000 0400 0000 0400 0000
000002d0: 0400 0000 6102 e13d 4b38 0f3e f175 0d3e
000002e0: a243 173e 0400 0000 0400 0000 4103 d53d
000002f0: 0400 0000 0400 0000 6f5e ed3d 6f9c 9b3c
00000300: 57f6 ca3d 0400 0000 0400 0000 0400 0000
00000310: e759 d53d 10d4 073e 0400 0000 0400 0000
00000320: 0400 0000 5dde 0f3e 778d a23c 2a52 1d3e
00000330: 0400 0000 0400 0000 4c7b c73d 0400 0000
00000340: 1d1d cd3d 0851 8a3d 5a27 e73d 0400 0000
00000350: ad9c 513e 0400 0000 42a8 603d 0400 0000
00000360: 0400 0000 0400 0000 8cd5 6a3d 0400 0000
00000370: 0400 0000 0400 0000 0400 0000 1a56 2d3e
00000380: 0400 0000 5897 0a3e 924b 9e3d 0400 0000
00000390: 0400 0000 0400 0000 0400 0000 d5aa a93b
000003a0: a69a f03b 0400 0000 9b7c 8f3e 0400 0000
000003b0: 0400 0000 3602 783d c92f d53d 0400 0000
000003c0: a8eb 553e 211a 2b3e 325c 063e 0400 0000
000003d0: 0400 0000 0400 0000 0400 0000 0400 0000
000003e0: 0400 0000 4f69 ca3b 0400 0000 bce8 e73b
000003f0: e70d 543b 0400 0000 9d8e 973d 5598 343e

bn2.weight f4 [128]
1.0 1.0 1.0 1.0 1.0 1.0 1.0 1.0
1.0 1.0 1.0 1.0 1.0 1.0 1.0 1.0
1.0 1.0 1.0 1.0 1.0 1.0 1.0 1.0
1.0 1.0 1.0 1.0 1.0 1.0 1.0 1.0
1.0 1.0 1.0 1.0 1.0 1.0 1.0 1.0
1.0 1.0 1.0 1.0 1.0 1.0 1.0 1.0
1.0 1.0 1.0 1.0 1.0 1.0 1.0 1.0
1.0 1.0 1.0 1.0 1.0 1.0 1.0 1.0
1.0 1.0 1.0 1.0 1.0 1.0 1.0 1.0
1.0 1.0 1.0 1.0 1.0 1.0 1.0 1.0
1.0 1.0 1.0 1.0 1.0 1.0 1.0 1.0
1.0 1.0 1.0 1.0 1.0 1.0 1.0 1.0
1.0 1.0 1.0 1.0 1.0 1.0 1.0 1.0
1.0 1.0 1.0 1.0 1.0 1.0 1.0 1.0
1.0 1.0 1.0 1.0 1.0 1.0 1.0 1.0
1.0 1.0 1.0 1.0 1.0 1.0 1.0 1.0
00000000: 0000 803f 0000 803f 0000 803f 0000 803f
00000010: 0000 803f 0000 803f 0000 803f 0000 803f
00000020: 0000 803f 0000 803f 0000 803f 0000 803f
00000030: 0000 803f 0000 803f 0000 803f 0000 803f
00000040: 0000 803f 0000 803f 0000 803f 0000 803f
00000050: 0000 803f 0000 803f 0000 803f 0000 803f
00000060: 0000 803f 0000 803f 0000 803f 0000 803f
00000070: 0000 803f 0000 803f 0000 803f 0000 803f
00000080: 0000 803f 0000 803f 0000 803f 0000 803f
00000090: 0000 803f 0000 803f 0000 803f 0000 803f
000000a0: 0000 803f 0000 803f 0000 803f 0000 803f
000000b0: 0000 803f 0000 803f 0000 803f 0000 803f
000000c0: 0000 803f 0000 803f 0000 803f 0000 803f
000000d0: 0000 803f 0000 803f 0000 803f 0000 803f
000000e0: 0000 803f 0000 803f 0000 803f 0000 803f
000000f0: 0000 803f 0000 803f 0000 803f 0000 803f
00000100: 0000 803f 0000 803f 0000 803f 0000 803f
00000110: 0000 803f 0000 803f 0000 803f 0000 803f
00000120: 0000 803f 0000 803f 0000 803f 0000 803f
00000130: 0000 803f 0000 803f 0000 803f 0000 803f
00000140: 0000 803f 0000 803f 0000 803f 0000 803f
00000150: 0000 803f 0000 803f 0000 803f 0000 803f
00000160: 0000 803f 0000 803f 0000 803f 0000 803f
00000170: 0000 803f 0000 803f 0000 803f 0000 803f
00000180: 0000 803f 0000 803f 0000 803f 0000 803f
00000190: 0000 803f 0000 803f 0000 803f 0000 803f
000001a0: 0000 803f 0000 803f 0000 803f 0000 803f
000001b0: 0000 803f 0000 803f 0000 803f 0000 803f
000001c0: 0000 803f 0000 803f 0000 803f 0000 803f
000001d0: 0000 803f 0000 803f 0000 803f 0000 803f
000001e0: 0000 803f 0000 803f 0000 803f 0000 803f
000001f0: 0000 803f 0000 803f 0000 803f 0000 803f
