Code/Model/Ward2_critic.pth (torch_old, 152061 bytes, 13 tensors)

fcs1.weight f4 [256, 9]
0	0x3cbf95d1	0.023386868
1	0x3c971576	0.01844285
2	0xbd21523b	-0.03938506
3	0xbd92aacc	-0.07161483
4	0xbce47358	-0.027887031
5	0x3d0c6fe9	0.034286413
6	0x3c2bc8a5	0.010484849
7	0xbc81b816	-0.01583485
8	0xbda75fe2	-0.08172585
9	0xbc16fcc0	-0.009215534
10	0x3e4ad2de	0.19807002
11	0x3e63b618	0.22237432
12	0x3e78b24c	0.24286765
13	0xbd3bb813	-0.045829844
14	0x3b71a701	0.0036873224
15	0xbd6bef3c	-0.0576012
16	0x3da8a00c	0.082336515
17	0x3e14785b	0.14499037
18	0x3dbfc5d1	0.09363902
19	0xbea81b84	-0.32833493
20	0x3e34698d	0.1761839
21	0x3c615450	0.013753012
22	0x3e09ee7a	0.13469878
23	0x3d667194	0.05626066
24	0x3bed5ba5	0.007243591
25	0x3cfd07c6	0.030887496
26	0xbdc8875c	-0.09791443
27	0x3e73eb56	0.23820242
28	0x3d62b474	0.055347875
29	0x3df34327	0.11878043
30	0xbe429c79	-0.19005002
31	0x3e1bc86b	0.15213172
32	0x3e53b87f	0.20675848
33	0xbd58b2bb	-0.052904826
34	0xbc993b41	-0.018705012
35	0x3c46134c	0.012089562
36	0x3a187668	0.0005815984
37	0x3eaed883	0.3414956
38	0x3e28ca2b	0.16483371
39	0x3bc1fb58	0.005919855
40	0xbd9ae833	-0.0756382
41	0x3bd881b1	0.0066072573
42	0x3dd8bd71	0.10583008
43	0x3e2bd43c	0.1678018
44	0x3e23aaf3	0.1598318
45	0xbc4f1960	-0.012640327
46	0xbd31f022	-0.0434419
47	0x3ceaaca0	0.028646767
48	0xbd383b0a	-0.04497818
49	0xbcf50488	-0.029909387
50	0xbd7be242	-0.061495073
51	0xbc74bf50	-0.014938191
52	0x3cbdf5f4	0.023188569
53	0x3d68aa1c	0.056802854
54	0x3e1d40b1	0.15356709
55	0x3c07d4d1	0.0082904855
56	0x3dc0eb32	0.0941986
57	0xbe10efb0	-0.14153934
58	0x3ec06820	0.3757944
59	0xbde226fe	-0.110425934
60	0x3e8a4121	0.27002814
61	0x3ce98b3d	0.028508777
62	0x3c6a8b0a	0.014315376
63	0xbc4e5004	-0.012592319
64	0xbda000b1	-0.07812632
65	0xbd9a476b	-0.07533153
66	0xbc3d95f3	-0.011571395
67	0x3d194efa	0.037428834
68	0x3b4b92df	0.0031062884
69	0xbbbe29c6	-0.0058033196
70	0xbd92937d	-0.071570374
71	0x3ca4d226	0.020119738
72	0x3c70af78	0.0146902725
73	0xbceb8db4	-0.028754093
74	0x3ceb40b8	0.028717384
75	0xbd6133a2	-0.05498088
76	0x3c0bc3c0	0.008530557
77	0xbc0815c0	-0.008305967
78	0xbd4345ae	-0.047673874
79	0xbd63156e	-0.05544036
80	0xbd58d6f6	-0.052939378
81	0x3da2c3ce	0.07947503
82	0x3d0ccccc	0.034374997
83	0x3e004184	0.12524992
84	0x3ec22065	0.3791534
85	0x3e01c725	0.12673624
86	0x3df04f1b	0.11733838
87	0xbe5957d5	-0.21224912
88	0xbd8da854	-0.06916872
89	0xbd69fcab	-0.05712573
90	0xbc83e7bc	-0.01610171
91	0xbd22d3d4	-0.039752796
92	0x3d4f1f52	0.05056698
93	0xbcfc1b68	-0.030774787
94	0xbd03ca9e	-0.032175653
95	0xbc9cb964	-0.01913137
96	0x3d53ebac	0.051738426
97	0xbd06a60a	-0.03287319
98	0xbca66d00	-0.020315647
99	0xbe251a04	-0.16123205
100	0x3ec157e2	0.37762362
101	0xbd7e6556	-0.06210836
102	0x3d7ee7ae	0.062232666
103	0x3d040984	0.032235637
104	0xbe281f58	-0.16418207
105	0x3cf1e241	0.029526832
106	0x3e4b4522	0.19850591
107	0xbe9a5dda	-0.30149728
108	0xbd999ccc	-0.0750061
109	0xbda5144e	-0.080605134
110	0xbd5995c2	-0.053121336
111	0x3d049211	0.032365862
112	0xbd9541cd	-0.07287941
113	0xbbf080ae	-0.0073395586
114	0x3bf61595	0.007509897
115	0xbda352c0	-0.07974768
116	0xbca22429	-0.019792633
117	0x3e4677d6	0.19381651
118	0x3d2ead26	0.042645596
119	0x3e4cd7f3	0.20004253
120	0xbe1ffee0	-0.15624571
121	0xbe5b346a	-0.21406713
122	0xbcee7a82	-0.02911115
123	0x3be5f64f	0.0070178877
124	0xbe2b6357	-0.16737114
125	0x3c9df468	0.019281581
126	0xbd011f28	-0.031523854
127	0x3d84e43b	0.06488844
128	0x3f3c5a79	0.7357555
129	0x3e073604	0.13204199
130	0xbd5543eb	-0.052066725
131	0x3dd442df	0.10364317
132	0x3d458c00	0.048229218
133	0x3c2816d1	0.010259346
134	0xbd919306	-0.071081206
135	0x3cfbd963	0.030743307
136	0xbda9a46f	-0.08283316
137	0x3eeded5b	0.4647015
138	0xbe8e980d	-0.2785038
139	0x3e89a6bc	0.2688502
140	0xbcf70767	-0.030154897
141	0xbd86655a	-0.065623
142	0xbe5f381d	-0.2179875
143	0xbe3e34df	-0.18574856
144	0x3d69f882	0.05712176
145	0xbcd0a284	-0.025468118
146	0xbd481b2a	-0.04885403
147	0xbd691a54	-0.056909874
148	0x3c46cbf8	0.012133591
149	0xbd179c42	-0.037014253
150	0xbd68487a	-0.056709744
151	0xbca3c1ac	-0.01998981
152	0xbc788298	-0.015167855
153	0xbf16a839	-0.5885044
154	0xbd9eceed	-0.07754312
155	0x3e70ce52	0.23516205
156	0xbd287ad4	-0.041132763
157	0x3e003d59	0.12523402
158	0x3dbad460	0.091225386
159	0x3e79580d	0.24349995
160	0x3e08f857	0.13375984
161	0xbdae1faa	-0.08502133
162	0xbba54550	-0.005043663
163	0xbd370372	-0.04468102
164	0xb9709200	-0.00022942573
165	0xbcdbca4c	-0.026829861
166	0x3c58d848	0.013235159
167	0xbc7236b8	-0.014783554
168	0x3cc942a4	0.02456791
169	0xbcb95b08	-0.022626415
170	0xbd1d4066	-0.038391493
171	0x3e907fc2	0.2822247
172	0xbe09524b	-0.13410299
173	0x3e99b82c	0.30023324
174	0xbe97640f	-0.29568526
175	0x3b21be8a	0.002468022
176	0xbc990345	-0.018678317
177	0xbe86b4b1	-0.26309732
178	0x3db58320	0.08862901
179	0x3e7d02de	0.24708125
180	0xbd9ede99	-0.07757301
181	0xbda02311	-0.078191884
182	0xbde41d22	-0.11138369
183	0x3c164c94	0.009173531
184	0xbcdc8297	-0.026917739
185	0xbd8f1485	-0.06986336
186	0xbaf26cc5	-0.0018495551
187	0xbc396578	-0.011315696
188	0xbd39fa78	-0.04540488
189	0xbeabbeda	-0.33544046
190	0xbe26a328	-0.16273177
191	0xbe9a4122	-0.30127817
192	0xbc083786	-0.008314019
193	0x3e1865b0	0.1488254
194	0x3c1bbf30	0.009506032
195	0xbc29f457	-0.010373197
196	0xbe33be10	-0.17552972
197	0x3eb8a3e3	0.36062536
198	0x3e1682bf	0.14698313
199	0xbe58d4c9	-0.21174921
200	0xbcf1e7b1	-0.029529424
201	0xbe528e35	-0.2056206
202	0xbd6a2ae0	-0.057169795
203	0x3cd07280	0.025445223
204	0x3ebf42d4	0.37355673
205	0xbd24f7eb	-0.040275495
206	0x3e79cc32	0.243943
207	0xbcf36d75	-0.02971528
208	0xbd983d80	-0.07433605
209	0xbe04d9c4	-0.12973696
210	0x3c81406f	0.015777795
211	0xbcf0c924	-0.029392786
212	0xbddeda6d	-0.10881505
213	0xbcd49319	-0.025949048
214	0x3d08dc79	0.033413384
215	0xbbfbf4b3	-0.0076890825
216	0x3dac2105	0.084047355
217	0xbcbde61e	-0.023181017
218	0x3efd3b22	0.49459177
219	0xbd6bf13a	-0.0576031
220	0x3d555822	0.052086003
221	0xbc41c63a	-0.011827046
222	0x3d7f2451	0.062290493
223	0xbcfb5226	-0.03067882
224	0x3e11e294	0.14246589
225	0xbd5c1060	-0.053726554
226	0xbe3211b7	-0.1738957
227	0xbe326ac0	-0.17423534
228	0xbdac5385	-0.084143676
229	0x3d0423fe	0.032260887
230	0xbdb8e5f3	-0.09028234
231	0x3d011fee	0.03152459
232	0xbd0d1392	-0.03444249
233	0x3d4c7bf1	0.049922887
234	0x3dbaa80a	0.09114082
235	0x3eac39d6	0.33637875
236	0xbef7f776	-0.48430985
237	0x3e7baa36	0.24576649
238	0xbe09e9ad	-0.13468046
239	0xbd16d46c	-0.036823675
240	0xbd6b5bbd	-0.057460535
241	0xbe06d703	-0.13167958
242	0xbc1dd5f9	-0.009633535
243	0xbd147198	-0.036241144
244	0x3c71f789	0.01476849
245	0xbe1e5cc9	-0.15465082
246	0xbd113b78	-0.035457104
247	0xbe15be52	-0.14623383
248	0x3d742916	0.059609495
249	0x3b337201	0.0027381184
250	0xbd903379	-0.07041068
251	0xbe2edb4c	-0.17075843
252	0x3e6d7a2a	0.23191133
253	0x3d53ac03	0.051677715
254	0xbd98ff8f	-0.07470619
255	0x3d8aac37	0.067711286

fcs1.bias f4 [256]
0	0xbca8ce21	-0.020606102
1	0xbd69ba32	-0.057062335
2	0xbf06dc55	-0.5267995
3	0x3eb32b13	0.349938
4	0xbe6c2c7e	-0.23063847
5	0xbe9b4f47	-0.3033392
6	0x3e848096	0.25879353
7	0xbdc28197	-0.094973736
8	0x3beb6f00	0.007184863
9	0x3ea6c16d	0.32569447
10	0xbe29099b	-0.1650757
11	0xbd0c16aa	-0.0342013
12	0xbd3d512a	-0.046219982
13	0x3cec392d	0.028835857
14	0x3ce6be57	0.028166933
15	0xbde25aab	-0.1105245
16	0xbcbeb080	-0.023277521
17	0xbea14373	-0.31496772
18	0xbcead100	-0.028664112
19	0xbe9fe06b	-0.31225905
20	0x3e9a2747	0.3010809
21	0x3ef39670	0.47575712
22	0xbf124a34	-0.57144475
23	0xbe2009f2	-0.15628794
24	0x3ea1ce19	0.31602553
25	0x3e950031	0.2910171
26	0xbe1e617c	-0.15466875
27	0x3d3674e0	0.044545054
28	0xbe627da6	-0.22118244
29	0x3e2052ed	0.15656634
30	0x3d5b5063	0.05354346
31	0x3eb3d142	0.3512059
32	0x3f1d1f0c	0.613755
33	0xbc9aaf80	-0.018882513
34	0x3eac5cc0	0.33664513
35	0xbee56ef3	-0.4481121
36	0xbe9b183c	-0.30291927
37	0x3d774298	0.060366243
38	0xbed100e1	-0.40820983
39	0x3e3b95ed	0.18318911
40	0xbe8b236b	-0.2717546
41	0xbde85596	-0.11344449
42	0x3db8ee75	0.09029857
43	0x3d25f629	0.04051796
44	0xbef42ebc	-0.47691905
45	0xbd5fae2c	-0.054609463
46	0x3e46bc87	0.19407855
47	0xbe598123	-0.21240668
48	0xbef691fd	-0.48158255
49	0x3e029513	0.1275218
50	0x3ed57c17	0.41696236
51	0xbe426220	-0.18982744
52	0x3eb3d088	0.35120034
53	0x3de7a474	0.11310664
54	0xbe9a8110	-0.30176592
55	0xbe950c7a	-0.2911108
56	0x3ed2e403	0.41189584
57	0x3da39edb	0.07989284
58	0xbe285b3a	-0.1644105
59	0x3d09ce53	0.03364403
60	0x3d6045a0	0.0547539
61	0xbe248b17	-0.16068684
62	0x3e78e38b	0.24305551
63	0x3e05e1f0	0.1307447
64	0xbe5ddbd3	-0.21665888
65	0xbe1efa7b	-0.15525238
66	0xbe0951bb	-0.13410084
67	0xbda90a39	-0.08253903
68	0x3dd6beaa	0.10485585
69	0xbea6f54c	-0.32609022
70	0x3d7b1768	0.06130162
71	0xbd2bbe6f	-0.04192966
72	0x3e03253d	0.12807174
73	0xbe27aa72	-0.16373613
74	0x3e94af62	0.29040056
75	0x3f280f8d	0.6564873
76	0xbe43b6cb	-0.19112699
77	0x3ef3233e	0.47487825
78	0x3e0226eb	0.12710159
79	0xbdfe6516	-0.12421624
80	0xbd438582	-0.047734745
81	0x3e273aa5	0.16330965
82	0x3e1f7076	0.15570244
83	0x3dcac0e0	0.09900069
84	0xbc90db94	-0.017682828
85	0x3eaafb99	0.3339508
86	0x3c34b2bc	0.011028942
87	0xbe03331b	-0.12812464
88	0xbde78800	-0.11305237
89	0xbdd21430	-0.10257757
90	0x3e43369c	0.190638
91	0xbe371df5	-0.17882521
92	0x3e24373d	0.16036697
93	0x3e946f5f	0.2899122
94	0xbe5bc61b	-0.2146229
95	0xbe7a9a3b	-0.24472897
96	0x3e84bf8c	0.2592739
97	0xbef590b5	-0.47961965
98	0x3ef9f236	0.48817605
99	0xbe7c7283	-0.24653058
100	0x3c63867f	0.013887047
101	0xbdcb4ed6	-0.09927146
102	0x3ed3249c	0.41238868
103	0xbe40fa53	-0.18845491
104	0xbea625b7	-0.3245065
105	0xbebb8f49	-0.36632755
106	0xbe2d97d2	-0.16952446
107	0x3ee06bdf	0.438323
108	0x3ea368c5	0.3191587
109	0xbd252d6b	-0.040326517
110	0xbcba181e	-0.022716578
111	0xbece61e4	-0.4030906
112	0xbe914fb8	-0.28381133
113	0x3e3bde42	0.18346503
114	0x3df962a8	0.1217702
115	0x3e9b1dee	0.30296272
116	0x3e3fc144	0.18726069
117	0xbe37fd26	-0.17967662
118	0xbe6bcda9	-0.23027672
119	0x3d97f5e6	0.07419948
120	0x3e948c80	0.29013443
121	0xbe5d5b43	-0.21616845
122	0x3e0cd08d	0.13751431
123	0x3e425640	0.18978214
124	0xbe2b21d9	-0.1671213
125	0xbebda824	-0.37042344
126	0x3e261d20	0.16222048
127	0x3e14fcfa	0.14549628
128	0x3d993ddd	0.074825026
129	0xbdfb27f0	-0.12263477
130	0x3e4d7ef8	0.20067966
131	0xbe574c78	-0.21025264
132	0x3cbae87f	0.02281594
133	0xbcb65e16	-0.02226166
134	0x3e805c9c	0.25070655
135	0x3cb53f32	0.02212486
136	0xbe6ebf2b	-0.23315112
137	0xbe30061a	-0.17189828
138	0xbda4fca6	-0.08056001
139	0xbcb0ae00	-0.021567345
140	0x3cf33aed	0.029691184
141	0xbc64d92c	-0.013967793
142	0xbeb05cd3	-0.3444582
143	0xbe2761ad	-0.16345854
144	0xbea4dfbe	-0.32201952
145	0x3dc06f4b	0.093962274
146	0x3d994bd5	0.07485167
147	0xbde58780	-0.11207485
148	0x3e3f3814	0.18673736
149	0x3e024ebf	0.12725352
150	0x3ee6dddc	0.4509114
151	0xbe301961	-0.17197181
152	0xbe8b65af	-0.27226016
153	0xbc5701a0	-0.013122946
154	0x3e1c8308	0.1528436
155	0xbd7e8be8	-0.062145144
156	0xbe38f64b	-0.18062703
157	0xbe4053fa	-0.18782035
158	0xbe167c1b	-0.1469578
159	0x3c87d538	0.016581163
160	0x3f13c6f8	0.5772548
161	0xbebbccf3	-0.366798
162	0xbd688b86	-0.056773685
163	0x3e8532a4	0.26015198
164	0xbc5a8741	-0.013337911
165	0x3ea6dfcd	0.3259262
166	0xbea43037	-0.32068035
167	0x3eaa4458	0.33255267
168	0x3e6a2da0	0.22868967
169	0x3e9c87b9	0.30572298
170	0x3cd7b471	0.026331158
171	0x3e6e28bd	0.23257728
172	0x3e3f060f	0.18654655
173	0xbe9e1852	-0.3087793
174	0xbe59c2e8	-0.21265757
175	0x3e3dfd38	0.18553627
176	0xbe6949b2	-0.22782019
177	0xbe443d7c	-0.1916408
178	0x3ec4bc1e	0.38424772
179	0x3eaa1689	0.33220318
180	0xbd51f640	-0.051260233
181	0xbd86d6a2	-0.06583907
182	0xbe9e47a5	-0.30914035
183	0x3ed84ed0	0.4224763
184	0x3ec4cbdf	0.3843679
185	0xbe2f85c2	-0.17140868
186	0xbe23264a	-0.15932575
187	0x3e4cb3be	0.19990441
188	0xbdcfbaa5	-0.101430215
189	0x3e327736	0.17428288
190	0x3e970562	0.29496294
191	0xbe0aa8f8	-0.13541019
192	0x3e96ff5e	0.29491705
193	0x3ec6bd0e	0.38816112
194	0x3dd4d237	0.10391658
195	0xbbc41540	-0.0059839785
196	0x3db8948a	0.090127066
197	0x3ecdf89e	0.40228742
198	0xbcb9a029	-0.022659378
199	0xbe9398ff	-0.28827664
200	0xbdc9ce00	-0.098537445
201	0x3e9c63ba	0.30544835
202	0x3d0f8ccf	0.035046395
203	0x3ecd1b32	0.4005981
204	0xbe2be760	-0.16787481
205	0xbe5df856	-0.21676764
206	0xbdfff3e8	-0.12497693
207	0xbd601308	-0.05470565
208	0x3dc556f5	0.09635726
209	0xbca61dba	-0.020277847
210	0xbe868f3b	-0.2628115
211	0xbb8ef6e0	-0.004362926
212	0xbe80e85a	-0.2517727
213	0xbda40c39	-0.08010144
214	0x3e926cec	0.28598726
215	0xbd6b823b	-0.057497244
216	0xbc4e57cd	-0.0125941755
217	0xbe9572b6	-0.2918908
218	0xbef93796	-0.4867522
219	0xbe63c3cb	-0.22242658
220	0xbe6fdaaa	-0.23423257
221	0x3db77e31	0.08959616
222	0xbdb2bb9c	-0.0872719
223	0xbeb9b5dc	-0.3627156
224	0xbe9dccf7	-0.30820438
225	0x3ed51ddd	0.41624346
226	0x3e87709f	0.2645311
227	0xbe8a393b	-0.26996788
228	0xbe82bb96	-0.25533742
229	0x3c8c9ffd	0.017166132
230	0xbbae8bc0	-0.005326718
231	0x3cf14ea6	0.029456448
232	0xbd7a89cf	-0.06116658
233	0xbdd54d0c	-0.10415086
234	0x3e914324	0.28371537
235	0xbde1d156	-0.11026256
236	0xbe891058	-0.26770282
237	0xbef0f5eb	-0.4706262
238	0xbdf14a83	-0.1178179
239	0x3e6f055d	0.2334189
240	0xbf25c35b	-0.64751214
241	0x3ee35c50	0.44406366
242	0xbe7c37fe	-0.24630734
243	0xbdbe920c	-0.093052
244	0xbe6887d6	-0.22708067
245	0xbea8bcf2	-0.32956654
246	0xbe5cc030	-0.21557689
247	0x3e8b0f93	0.2716032
248	0xbdafd07c	-0.08584687
249	0xbcf71fb6	-0.030166488
250	0xbe1c491a	-0.15262261
251	0x3bce7d8d	0.006301588
252	0xbe73ce5d	-0.2380919
253	0xbe9530a3	-0.2913867
254	0xbef8b10a	-0.4857257
255	0xbdb6c87d	-0.08924959

fc2.weight f4 [128, 259]
0	0x3cc04f2b	0.02347525
1	0x3c89c8f5	0.016819457
2	0x3ea163fc	0.31521595
3	0xbd30209a	-0.04299984
4	0x3e8f4f82	0.27990347
5	0xbe4806f7	-0.19533907
6	0xbb9ab1db	-0.004720909
7	0x3e28336d	0.16425867
8	0x3e3fccd0	0.18730474
9	0xbe1f3223	-0.1554647
10	0xbe44b5bd	-0.19209953
11	0x3d0a0027	0.03369155
12	0x3d2ecf54	0.042678192
13	0x3c37f56e	0.011227949
14	0xbd319d8a	-0.04336313
15	0xbc7476ed	-0.014920932
16	0xbd5c3751	-0.05376369
17	0x3d6c3545	0.05766799
18	0x3dd28c46	0.10280661
19	0x3dfea640	0.124340534
20	0x3c1c4c05	0.009539609
21	0x3e41f807	0.18942271
22	0x3d8f4d54	0.06997171
23	0x3d5e0aa5	0.05420937
24	0xbd936c39	-0.07198376
25	0xbe2a6a4b	-0.1664211
26	0x3e958f59	0.29210928
27	0x3d805986	0.06267075
28	0x3e316cdb	0.17326681
29	0xbcdc2c4c	-0.026876591
30	0x3d967d38	0.07348102
31	0xbbd9be33	-0.006644988
32	0xbd0c2f63	-0.03422488
33	0x3e2479e2	0.1606212
34	0xbd448e08	-0.047987014
35	0xbe2ec00d	-0.17065449
36	0x3e0df2a5	0.13862093
37	0xbd87ad36	-0.06624834
38	0xbc5cfa78	-0.013487451
39	0xbea8fd2e	-0.3300566
40	0x3d568dec	0.05238144
41	0x3d8d356e	0.068949565
42	0x3dc52713	0.096265934
43	0x3d7f8ea9	0.06239191
44	0xbd90e9e1	-0.07075859
45	0xbe0e4a25	-0.13895471
46	0x3e1539b5	0.14572795
47	0x3d18d35c	0.037310943
48	0x3d91e035	0.07122842
49	0xbe150297	-0.14551769
50	0x3e54a0c7	0.20764457
51	0x3c8ab023	0.016929692
52	0xbe897ad2	-0.26851517
53	0x3e3fbc4d	0.18724175
54	0x3d37d21d	0.044878114
55	0x3db2fd11	0.08739675
56	0x3e5a77f0	0.21334815
57	0x3e4dfe08	0.20116436
58	0x3e03ce58	0.12871683
59	0xbe16b160	-0.147161
60	0xbd376229	-0.044771347
61	0xbd877e4b	-0.06615885
62	0xbe418ad1	-0.1890061
63	0xbbe74fd2	-0.007059076
64	0x3a059510	0.00050957594
65	0x3d85fa08	0.0654183
66	0xbdf74e90	-0.120755315
67	0xbd210126	-0.039307736
68	0x3e3e06a4	0.1855722
69	0xbd8bdc5f	-0.06829142
70	0xbe0e2ac4	-0.13883501
71	0xbe093253	-0.13398103
72	0x3dece3a0	0.115668535
73	0xbd7b5124	-0.06135668
74	0x3ddf78f5	0.109117426
75	0x3e504a3c	0.20340818
76	0xbda17992	-0.07884516
77	0xbe78b380	-0.24287224
78	0x3e03300b	0.12811296
79	0x3d1f1640	0.03883958
80	0x3d0a595f	0.033776637
81	0xbdb37008	-0.08761603
82	0xbdbe60cb	-0.092958055
83	0xbe74689a	-0.23868027
84	0x3d6882df	0.056765433
85	0x3e5abc13	0.21360807
86	0x3daad415	0.08341233
87	0x3e23b455	0.1598676
88	0x3d98966c	0.07450566
89	0x3e143bde	0.14475963
90	0xbd880e76	-0.06643383
91	0xbd07b80e	-0.033134513
92	0x3e09b1cc	0.1344673
93	0x3e3ec6c6	0.18630514
94	0xbcd3b119	-0.025841283
95	0x3c83d20a	0.016091365
96	0x3dc30d19	0.095239826
97	0xbe05b75c	-0.13058227
98	0x3dc2e018	0.09515399
99	0xbda29efa	-0.079404786
100	0xbacc1b8b	-0.0015572173
101	0xbc8209b4	-0.015873767
102	0xbddabc7d	-0.106804825
103	0xbd9f8e24	-0.07790783
104	0xbd3a95d6	-0.04555305
105	0x3cb94e7f	0.022620438
106	0xbe27cb1c	-0.16386074
107	0xbe2cf7c2	-0.16891387
108	0xbc765821	-0.01503566
109	0x3c1b7e78	0.009490602
110	0x3e2566f0	0.16152549
111	0xbdb242cb	-0.08704146
112	0xbe03d38c	-0.12873667
113	0x3d8cc9ed	0.06874452
114	0x3d38eb62	0.045146354
115	0x3de88d39	0.11355061
116	0x3dab94e8	0.08378011
117	0x3dd279f5	0.10277168
118	0xbdc3524e	-0.09537183
119	0x3dd593de	0.10428594
120	0xbdc3e66b	-0.09565433
121	0xbdf08cb0	-0.11745584
122	0x3e7b8789	0.24563421
123	0xbd82d9b6	-0.06389181
124	0xbd7775e1	-0.060415152
125	0xbd86e99d	-0.06587527
126	0x3d8c5160	0.068514585
127	0x3b216e13	0.002463226
128	0xbe3eb0e5	-0.18622167
129	0x3d9ecc35	0.07753793
130	0x3d9194ca	0.071084574
131	0xbe41ab44	-0.18912989
132	0x3e563587	0.20918857
133	0x3d9cc6d9	0.07655115
134	0x3b6d92f2	0.0036250916
135	0xbe2177ca	-0.15768352
136	0xbaad42ae	-0.0013218725
137	0x3e17004c	0.14746207
138	0xbd685fe3	-0.05673207
139	0xbdf8dc76	-0.121514246
140	0x3ae20245	0.0017243108
141	0xbe139d2f	-0.1441543
142	0x3e12a3cb	0.14320295
143	0x3e01f5f6	0.12691483
144	0xbd477604	-0.048696533
145	0xbd108778	-0.035285443
146	0x3e334e9f	0.1751046
147	0x3e3930aa	0.1808497
148	0x3ce0c461	0.02743739
149	0xbd62d6ce	-0.055380635
150	0xbe639a01	-0.22226717
151	0x3e394b76	0.18095192
152	0x3df62c79	0.12020201
153	0x3dc1d171	0.09463776
154	0xbea0e14b	-0.31421885
155	0x3be125e6	0.006870973
156	0xbaeb9447	-0.0017973267
157	0xbe043fff	-0.12915038
158	0xbde06b54	-0.10957971
159	0x3d3abeb5	0.04559203
160	0xbeb191a3	-0.34681424
161	0xbe4f7ddd	-0.20262857
162	0xbc2965c2	-0.010339202
163	0x3d2543ce	0.040347867
164	0xbe01bac7	-0.12668906
165	0xbd718208	-0.058961898
166	0x3d05f43b	0.03270362
167	0xbdae8a75	-0.08522502
168	0xbdc90222	-0.0981486
169	0x3d351002	0.04420472
170	0xbdaab16b	-0.08334621
171	0x3c8b4261	0.016999425
172	0xbcca4153	-0.024689352
173	0xbce4604d	-0.027877951
174	0x3ce09f7e	0.027419802
175	0xbe018e37	-0.12651907
176	0xbc983afa	-0.01858281
177	0xbd8f4d9f	-0.06997227
178	0xbdc6a3d7	-0.09699219
179	0xbdb344dc	-0.08753368
180	0x3c8a6a58	0.016896412
181	0x3e41768f	0.18892883
182	0x3e0ba346	0.13636503
183	0xbdb76ff4	-0.089569
184	0xbdfb6c20	-0.122764826
185	0x3d231da5	0.039823193
186	0x3da3d253	0.079991005
187	0xbe008949	-0.1255237
188	0xbbde112c	-0.0067769494
189	0xbdbf812c	-0.093508095
190	0x3da7e13a	0.081972554
191	0xbd799e30	-0.060941875
192	0xbe35bf65	-0.17748792
193	0xbec589f7	-0.3858182
194	0x3de95efa	0.113950685
195	0x3d268925	0.040658135
196	0xbe80cbcb	-0.25155482
197	0x3ded8ab5	0.11598722
198	0x3d9f48f4	0.077775866
199	0x3dbe2808	0.09284979
200	0x3bb5daf5	0.0055497834
201	0xbdc83196	-0.09775083
202	0xbdcdd4a7	-0.10050326
203	0x3dcda78b	0.10041722
204	0x3cc19f14	0.023635425
205	0xbb5db936	-0.0033832318
206	0x3d7f411a	0.062317945
207	0xbe1acd3f	-0.15117358
208	0x3d225838	0.039634913
209	0xbdaa7a4e	-0.08324109
210	0xbe4ab9c3	-0.19797425
211	0xbd99bb0d	-0.0750638
212	0x3da7fdaf	0.08202683
213	0x3baa350f	0.0051943134
214	0x3e189b7b	0.14903061
215	0x3d80e129	0.06292946
216	0x3b3abc0c	0.0028493432
217	0xbb3af16d	-0.0028525249
218	0x3d93fc03	0.07225802
219	0x3e1771de	0.1478953
220	0x3da9aa39	0.082844205
221	0x3cc9626a	0.02458306
222	0x3da8cc3f	0.08242082
223	0xbd2ae956	-0.041726433
224	0x3d9d9246	0.07693915
225	0xbd68a127	-0.05679431
226	0xbdb9215f	-0.09039568
227	0x3e511055	0.20416386
228	0x3cefd3cc	0.029275797
229	0x3e25376a	0.1613442
230	0xbbf27b6e	-0.007399968
231	0x3e373095	0.17889626
232	0x3e4d5270	0.20050979
233	0x3bbb530d	0.0057166875
234	0xbb639cf0	-0.0034730993
235	0x3e0169f4	0.12638074
236	0xbc17277d	-0.009225723
237	0x3c3916c1	0.011296929
238	0x3ed3ef44	0.41393483
239	0x3db14988	0.08656603
240	0x3da8b59b	0.082377635
241	0x3e148a89	0.14505972
242	0xbd8d460a	-0.068981245
243	0x3d881b36	0.06645815
244	0x3e082135	0.13293917
245	0x3e11c869	0.14236607
246	0xbd49685b	-0.049171787
247	0xbdec02aa	-0.11523946
248	0xbe0800db	-0.13281576
249	0x3d89994b	0.067186914
250	0x3b4a9a7d	0.0030914836
251	0x3d883dfa	0.06652446
252	0xbdfa852d	-0.122324325
253	0x3e312c6c	0.17302102
254	0x3dfb235e	0.12262605
255	0xbde08724	-0.10963276

fc2.bias f4 [128]
0	0xbe031c56	-0.12803778
1	0xbcdaa3b3	-0.026689386
2	0xbda8889d	-0.08229182
3	0xbd48f690	-0.049063265
4	0xbe15c984	-0.14627653
5	0xbe801784	-0.2501794
6	0xbe3483de	-0.17628428
7	0xbe341f53	-0.17590074
8	0x3e05ec33	0.13078384
9	0xbe8113f3	-0.25210533
10	0xbe887c24	-0.26657212
11	0xbe30e6a0	-0.17275476
12	0xbe1b8ddc	-0.15190834
13	0xbe9ce92d	-0.3064665
14	0xbe02f828	-0.12789977
15	0xbed59459	-0.41714743
16	0xbeaaf9d9	-0.33393744
17	0xbe3cfa4f	-0.1845486
18	0x3e1221de	0.14270732
19	0xbe0c78f6	-0.13718018
20	0xbe02128d	-0.12702389
21	0xbdb56937	-0.08857959
22	0xbe9073dc	-0.28213394
23	0xbe4f3dfc	-0.20238489
24	0x3e12aa06	0.14322671
25	0xbe37a3ba	-0.1793355
26	0x3e59e92d	0.21280356
27	0x3dc1c930	0.094622016
28	0xbeb1122f	-0.34584185
29	0xbe73734b	-0.2377445
30	0xbe3e22e3	-0.18567996
31	0xbe839128	-0.25696683
32	0x3e253e77	0.1613711
33	0xbe8c70e0	-0.27429867
34	0xbec161a5	-0.3776981
35	0x3d6c3b16	0.057673536
36	0xbe85bb9b	-0.26119694
37	0xbeab9e7f	-0.3351936
38	0xbe98f278	-0.2987249
39	0xbe1bb507	-0.15205775
40	0xbe273d35	-0.16331942
41	0xbecf44d0	-0.40482187
42	0xbe3d5187	-0.18488131
43	0x3da916f8	0.08256334
44	0xbdd39aaa	-0.10332234
45	0x3e730c68	0.23735201
46	0xbecea91f	-0.40363404
47	0x3e4a06b1	0.19729115
48	0x3d7dd264	0.061968222
49	0xbdfb2e67	-0.1226471
50	0xbdf04259	-0.11731405
51	0xbeb571be	-0.3543834
52	0xbe510558	-0.20412195
53	0xbe41a6db	-0.18911307
54	0xbeabcdff	-0.335556
55	0xbe89750e	-0.26847118
56	0xbe8803e0	-0.26565456
57	0xbe391c0c	-0.18077105
58	0xbe7f21d8	-0.24915254
59	0xbe51e279	-0.20496549
60	0xbe13746f	-0.14399885
61	0xbdc5a31f	-0.096502535
62	0xbe6d6cd3	-0.23186044
63	0xbe853e3a	-0.26024038
64	0xbe51d4d3	-0.20491342
65	0xbe32852d	-0.17433615
66	0xbddd7798	-0.10813826
67	0x3e5a4607	0.21315776
68	0xbd94dba7	-0.07268458
69	0xbe9f87aa	-0.3115819
70	0xbe67f4e7	-0.22652017
71	0xbe3af703	-0.1825829
72	0xbe763f05	-0.24047478
73	0xbe8748f0	-0.26422834
74	0xbd89901b	-0.06716939
75	0xbe6d6cc8	-0.23186028
76	0x3c72e59f	0.014825254
77	0xbe15378e	-0.14571974
78	0x3d323606	0.043508552
79	0xbe1ebe4d	-0.15502281
80	0x3e228d31	0.15874173
81	0xbe98704b	-0.29773173
82	0xbe48d492	-0.19612339
83	0xbe29539e	-0.16535804
84	0xbdf316fd	-0.11869619
85	0xbea48b10	-0.32137346
86	0xbdc44835	-0.09584085
87	0x3e0022fd	0.12513347
88	0xbe651072	-0.22369555
89	0xbe3d81e7	-0.18506585
90	0xbe87b38a	-0.26504165
91	0xbea165f7	-0.31523106
92	0xbe389bf2	-0.18028238
93	0xbe19b2f5	-0.15009673
94	0xbe637cda	-0.22215596
95	0xbcf6f60c	-0.030146621
96	0xbe0f7351	-0.14008833
97	0xbea13236	-0.3148362
98	0x3d005f78	0.031341046
99	0xbe0634cc	-0.13106078
100	0xbcadbb98	-0.021207616
101	0x3dd4f336	0.10397951
102	0xbe7919f5	-0.24326308
103	0xbd89d552	-0.06730141
104	0xbe3f4f82	-0.18682674
105	0xbe5a1753	-0.2129796
106	0xbe9e716b	-0.30945906
107	0xbe8e28f4	-0.2776562
108	0xbeb92a4b	-0.3616508
109	0x3d088c2f	0.033336814
110	0xbd0172b5	-0.031603534
111	0xbda40b10	-0.080099225
112	0xbe565478	-0.2093066
113	0xbe439ede	-0.19103572
114	0xbf114948	-0.56752443
115	0x3de5f556	0.11228435
116	0xbd6ac80c	-0.057319686
117	0xbe8bf703	-0.27336892
118	0xbe66962a	-0.2251822
119	0xbd84fec1	-0.06493903
120	0x3e3bf690	0.18355775
121	0xbdef9693	-0.11698642
122	0xbe57ab65	-0.21061476
123	0xbe7aa3df	-0.24476574
124	0x3e35c8fc	0.1775245
125	0xbda1ff18	-0.079099834
126	0xbe27f60d	-0.16402455
127	0x3dd9526f	0.10611426

fc3.weight f4 [1, 128]
0	0xbdb2440e	-0.08704387
1	0xbd5f1b0f	-0.054469164
2	0xbd93ef9d	-0.07223437
3	0xbd1d2316	-0.03836354
4	0xbdd27766	-0.1027668
5	0xbe15e64a	-0.1463863
6	0xbe1f4e99	-0.15557326
7	0xbddc4124	-0.10754612
8	0x3e789604	0.24275976
9	0xbe90bf15	-0.28270784
10	0xbd85b7da	-0.065292075
11	0xbe077202	-0.13227084
12	0xbe28ae54	-0.16472751
13	0xbe780c49	-0.24223436
14	0xbdd08ee4	-0.10183504
15	0xbeba3ff6	-0.36376923
16	0xbe294b99	-0.16532744
17	0xbea9d585	-0.33170715
18	0x3e34e0f8	0.17663944
19	0xbe3478c1	-0.17624189
20	0xbda94048	-0.08264214
21	0xbd9fcc17	-0.07802599
22	0xbe3eefd9	-0.18646182
23	0xbdb8655a	-0.09003706
24	0x3e2da50a	0.16957489
25	0xbe61209c	-0.21985096
26	0x3e5949a7	0.21219502
27	0x3dd82585	0.10554031
28	0xbde30df1	-0.110866435
29	0xbe65a487	-0.22426043
30	0xbd3cf0a3	-0.046127927
31	0xbe65d648	-0.22445023
32	0x3e16a347	0.14710723
33	0xbedce32d	-0.4314207
34	0xbe4bc449	-0.19899096
35	0x3e087b89	0.13328375
36	0xbea082bf	-0.3134975
37	0xbe2e9cca	-0.17051998
38	0xbe84003a	-0.25781423
39	0xbe1e2c82	-0.15446666
40	0xbe2c73f9	-0.16841115
41	0xbef5d068	-0.48010564
42	0xbdc413b2	-0.09574069
43	0x3db1e428	0.086860955
44	0xbd060122	-0.032715924
45	0x3e5b7209	0.2143022
46	0xbec9a0ca	-0.39380485
47	0x3e0a8344	0.13526636
48	0x3e05be06	0.1306077
49	0xbdfb7d86	-0.12279801
50	0xbd73f361	-0.059558276
51	0xbf2d48e5	-0.67689353
52	0xbe7bf1e2	-0.2460399
53	0xbea590bf	-0.32336995
54	0xbf0bc86b	-0.5460269
55	0xbe184d33	-0.14873199
56	0xbf2916d3	-0.6605045
57	0xbe9cbabb	-0.30611214
58	0xbec8929a	-0.39174348
59	0xbe2abfee	-0.16674778
60	0xbe842035	-0.25805822
61	0xbd317e20	-0.043333173
62	0xbec1435e	-0.3774671
63	0xbd93c94f	-0.07216131
64	0xbedd5380	-0.43227768
65	0xbe527d41	-0.20555593
66	0xbe341e89	-0.17589773
67	0x3e068a42	0.13138679
68	0xbe3806eb	-0.17971389
69	0xbe5fd262	-0.21857598
70	0xbe976468	-0.2956879
71	0xbe1857b0	-0.148772
72	0xbe0c04a4	-0.13673645
73	0xbded8f15	-0.11599556
74	0xbd04e9b3	-0.032449435
75	0xbef5025a	-0.47853357
76	0x3e49de39	0.19713677
77	0xbd251f55	-0.040313084
78	0x3e64d31f	0.22346161
79	0xbde1aff1	-0.11019886
80	0x3e0e7a84	0.13913924
81	0xbe20c90a	-0.1570169
82	0xbdeebc04	-0.11656955
83	0xbde17c96	-0.11010091
84	0xbdc06709	-0.093946524
85	0xbed53ded	-0.41648808
86	0xbdfd3901	-0.12364388
87	0x3e1d5e66	0.15368041
88	0xbe8baac2	-0.27278715
89	0xbdb540f0	-0.088502765
90	0xbe8a9915	-0.27069917
91	0xbe4dba8c	-0.20090693
92	0xbe3cf6b5	-0.18453486
93	0xbd72fb89	-0.059321914
94	0xbdc420ce	-0.095765695
95	0xbe1acc1e	-0.15116927
96	0xbe16038d	-0.14649792
97	0xbf0070be	-0.5017203
98	0x3e47a915	0.19498093
99	0x3e5a760f	0.21334098
100	0xbd75c55c	-0.06000267
101	0x3e1c328c	0.15253657
102	0xbdeb0558	-0.114756286
103	0xbe4169ff	-0.1888809
104	0xbeb49ff5	-0.35278288
105	0xbea8403e	-0.32861513
106	0xbe4b7595	-0.19869073
107	0xbe799e6e	-0.24376842
108	0xbe728323	-0.23682837
109	0x3dc25165	0.09488181
110	0xbdbd2592	-0.092356816
111	0xbdb775e0	-0.0895803
112	0xbd826cb4	-0.0636839
113	0xbd28db01	-0.041224483
114	0xbe956239	-0.291765
115	0x3e450e48	0.19243729
116	0xbcc215d0	-0.023692042
117	0xbedd0ce4	-0.43173897
118	0xbda8758a	-0.08225544
119	0xbd880d74	-0.06643191
120	0x3e165c8c	0.14683741
121	0xbd98c884	-0.0746012
122	0xbe80530e	-0.25063366
123	0xbe4a6057	-0.19763313
124	0x3e27dd7f	0.16393088
125	0xbe08bf5f	-0.13354252
126	0xbe17475b	-0.14773314
127	0x3dfe3ac8	0.124135554

bn1.weight f4 [256]
0	0x3f7c2b94	0.98503995
1	0x3f423185	0.7585681
2	0x3f6d01a7	0.92580646
3	0x3f10c93e	0.5655707
4	0x3f388e79	0.72092396
5	0x3f800000	1.0
6	0x3ee2b51b	0.44278798
7	0x3f7b64d3	0.9820072
8	0x3f800000	1.0
9	0x3f140055	0.57813007
10	0x3f800000	1.0
11	0x3ef902cf	0.48634955
12	0x3f79682a	0.97424567
13	0x3fa3ac86	1.2787025
14	0x3f522616	0.82089365
15	0x3f5e9514	0.86946225
16	0x3f800000	1.0
17	0x3f61aa66	0.8815063
18	0x3f800000	1.0
19	0x3f80bbb2	1.005728
20	0x3f85ecae	1.0462854
21	0x3f8e28a5	1.1106154
22	0x3f9a0cd0	1.203516
23	0x3f86d3a0	1.0533333
24	0x3ee2d660	0.4430418
25	0x3f9d7569	1.2301456
26	0x3f91aa28	1.1380053
27	0x3f803eb2	1.0019133
28	0x3f631ae0	0.88712883
29	0x3f8bc23f	1.0918654
30	0x3f847e89	1.0351115
31	0x3ef78b87	0.48348638
32	0x3fb56e7f	1.4174346
33	0x3f960bdf	1.1722373
34	0x3f276809	0.6539312
35	0x3f009878	0.5023265
36	0x3f7b63e6	0.9819931
37	0x3f800000	1.0
38	0x3f8ac49c	1.084125
39	0x3f8d6fb0	1.1049709
40	0x3f800000	1.0
41	0x3f90d0d0	1.1313725
42	0x3d536b39	0.051615927
43	0x3f8785e4	1.0587735
44	0x3f0bc645	0.5459941
45	0x3f84962d	1.035833
46	0x3f837751	1.0270787
47	0x3f800000	1.0
48	0x3ef5f641	0.4803944
49	0x3f4c9339	0.79912144
50	0x3f541266	0.82840574
51	0x3f7b6a66	0.98209226
52	0x3f887701	1.0661317
53	0x3f7b6351	0.9819842
54	0x3f800000	1.0
55	0x3f800000	1.0
56	0x3f8be6c0	1.0929794
57	0x3f8db082	1.1069491
58	0x3f824e0f	1.0180072
59	0x3f8e9c05	1.1141363
60	0x3f800000	1.0
61	0x3e7f4acf	0.24930881
62	0x3f82285f	1.016857
63	0x3f824b41	1.0179216
64	0x3f800000	1.0
65	0x3f800000	1.0
66	0x3f868c51	1.0511571
67	0x3f7bf925	0.9842704
68	0x3f61c98e	0.88198173
69	0x3f9672e4	1.1753812
70	0x3f800000	1.0
71	0x3f7acbc3	0.97967166
72	0x3f564713	0.837022
73	0x3f8dc686	1.107621
74	0x3edd9aad	0.4328207
75	0x3e7d45a7	0.24733602
76	0x3ef51f0b	0.47875246
77	0x3ed397fe	0.41326898
78	0x3f382c61	0.71942717
79	0x3f800000	1.0
80	0x3f0abdd7	0.5419592
81	0x3f0cc696	0.5499052
82	0x3f86530a	1.0494092
83	0x3f5b5476	0.8567575
84	0x3f89b59a	1.0758545
85	0x3e0dfde8	0.13866389
86	0x3f83e56c	1.0304389
87	0x3f800000	1.0
88	0x3f800000	1.0
89	0x3f2c7da5	0.6737922
90	0x3f834197	1.0254391
91	0x3f085fd1	0.53271204
92	0x3f1dee2b	0.6169154
93	0x3f7b7cca	0.9823729
94	0x3f800000	1.0
95	0x3f80ccf3	1.0062546
96	0x3f30edcd	0.69112855
97	0x3f2e1a7d	0.6800917
98	0x3ef2f1da	0.47450143
99	0x3f800000	1.0
100	0x3f7ab05a	0.9792534
101	0x3ea6e806	0.32598895
102	0x3f86e25f	1.0537833
103	0x3f800000	1.0
104	0x3f800000	1.0
105	0x3f8a1319	1.0787078
106	0x3f911889	1.1335613
107	0x3f0361c4	0.51321054
108	0x3ede5c8d	0.43429986
109	0x3f0532c6	0.520306
110	0x3f7b645b	0.98200005
111	0x3f680be2	0.9064313
112	0x3f800000	1.0
113	0x3f87c2af	1.0606288
114	0x3f922ef3	1.1420578
115	0x3f016210	0.50540257
116	0x3eafd675	0.34343305
117	0x3f800000	1.0
118	0x3f6cb311	0.92460734
119	0x3f8902e2	1.0704005
120	0x3f9a6b62	1.2064021
121	0x3f5db97f	0.8661117
122	0x3f7d85c8	0.9903226
123	0x3f85729e	1.0425603
124	0x3f851866	1.0398071
125	0x3f82278d	1.016832
126	0x3f83f535	1.0309206
127	0x3f883b02	1.0643008
128	0x3f20039e	0.6250552
129	0x3f800000	1.0
130	0x3f7b463e	0.98154056
131	0x3f800000	1.0
132	0x3f8434c5	1.0328604
133	0x3f963052	1.1733496
134	0x3f8c486e	1.0959604
135	0x3f2e9f6b	0.68212
136	0x3f800000	1.0
137	0x3f7941db	0.9736611
138	0x3f7da977	0.9908671
139	0x3f800000	1.0
140	0x3f5cda76	0.86270845
141	0x3f1f296b	0.62172574
142	0x3f857eba	1.0429299
143	0x3f84c4d9	1.0372573
144	0x3f56f035	0.83960277
145	0x3f821dd1	1.0165349
146	0x3f4f7c17	0.8104872
147	0x3f800000	1.0
148	0x3f8f23db	1.1182817
149	0x3f7d53a0	0.98955727
150	0x3f85bdad	1.044851
151	0x3f61dd01	0.8822785
152	0x3f260996	0.64858377
153	0x3f800000	1.0
154	0x3f87f4bb	1.0621561
155	0x3f800000	1.0
156	0x3f74f308	0.95683336
157	0x3f211d46	0.6293529
158	0x3f1d66aa	0.6148478
159	0x3f7bfc16	0.9843153
160	0x3fbb5bc0	1.4637375
161	0x3fa51562	1.289715
162	0x3eb61c73	0.3556858
163	0x3e98e5ae	0.29862732
164	0x3f09f452	0.5388843
165	0x3ec00b43	0.37508592
166	0x3f800000	1.0
167	0x3ec05a79	0.37569025
168	0x3ebca1a0	0.3684206
169	0x3f87150f	1.0553302
170	0x3f8433f2	1.0328352
171	0x3ed1e1b8	0.40992522
172	0x3f9919da	1.1961014
173	0x3f7b63c2	0.98199093
174	0x3f800000	1.0
175	0x3f13f6ae	0.5779828
176	0x3f7b73ca	0.98223555
177	0x3f8625f0	1.0480328
178	0x3f1c2b67	0.61003727
179	0x3f0e23a8	0.5552316
180	0x3f800000	1.0
181	0x3f6e6ff3	0.9313957
182	0x3f73b1ce	0.95193183
183	0x3f0a15b0	0.5393934
184	0x3f39f49d	0.72638875
185	0x3f768fa5	0.96312934
186	0x3f8907ec	1.0705543
187	0x3f81f4c7	1.0152825
188	0x3f3bc03d	0.7334021
189	0x3f8f3d3a	1.119056
190	0x3f330a05	0.69937164
191	0x3f863cc5	1.0487295
192	0x3fa4906e	1.2856576
193	0x3f94bdf9	1.1620475
194	0x3f7b640c	0.98199534
195	0x3f800000	1.0
196	0x3f26813e	0.6504096
197	0x3eaa3973	0.33246955
198	0x3f1c5236	0.61062944
199	0x3f800000	1.0
200	0x3f7ba0ce	0.98292243
201	0x3f04da30	0.5189543
202	0x3f8acc0a	1.0843518
203	0x3ee67c43	0.4501668
204	0x3f800000	1.0
205	0x3f800000	1.0
206	0x3f8effdf	1.1171836
207	0x3f800000	1.0
208	0x3f7866ff	0.9703216
209	0x3ece4e3d	0.40294066
210	0x3f57add2	0.84249604
211	0x3f87176e	1.0554025
212	0x3f8844f4	1.0646043
213	0x3ef3ebbc	0.4764079
214	0x3f819f0f	1.0126666
215	0x3ee6de98	0.450917
216	0x3f805d66	1.0028503
217	0x3f800000	1.0
218	0x3f893ea7	1.0722245
219	0x3f800000	1.0
220	0x3f6e78d9	0.9315315
221	0x3fb7b99f	1.4353522
222	0x3f800000	1.0
223	0x3ef00036	0.4687516
224	0x3f800000	1.0
225	0x3ed669da	0.41877633
226	0x3f89c65b	1.0763658
227	0x3f800000	1.0
228	0x3f81d59e	1.0143316
229	0x3f97ef29	1.1869861
230	0x3f6dd996	0.92910135
231	0x3f2873cd	0.658017
232	0x3ef9f1d6	0.4881732
233	0x3f800000	1.0
234	0x3f7fed55	0.99971515
235	0x3f800000	1.0
236	0x3f800000	1.0
237	0x3f742698	0.9537139
238	0x3f8041d0	1.0020084
239	0x3fcacd11	1.5843831
240	0x3f7ab1a9	0.9792734
241	0x3ecafc22	0.39645487
242	0x3f712ffe	0.94213855
243	0x3f800000	1.0
244	0x3f800000	1.0
245	0x3f800000	1.0
246	0x3f800000	1.0
247	0x3fa7cd05	1.3109442
248	0x3f800000	1.0
249	0x3f0ead4e	0.5573319
250	0x3f7b637d	0.9819868
251	0x3f86e88a	1.0539715
252	0x3f7a5204	0.97781396
253	0x3f800000	1.0
254	0x3f933203	1.1499637
255	0x3f839169	1.0278751

bn1.bias f4 [256]
0	0x3c141cf6	0.009040108
1	0xbd420bc0	-0.047374487
2	0xbdbd09da	-0.09230395
3	0x3e32ce3d	0.17461486
4	0x3d2546f0	0.040350854
5	0x3e3f8caa	0.18706003
6	0x3d736f11	0.059432093
7	0xbe481413	-0.19538908
8	0xbe5e1643	-0.2168818
9	0x3c50855f	0.012727111
10	0x3e64756d	0.2231042
11	0xbe0113b5	-0.12605174
12	0xbe31a764	-0.1734901
13	0x3e5bee42	0.21477607
14	0x3dde3609	0.1085015
15	0x3e052f6b	0.1300637
16	0x3e4e015e	0.20117709
17	0xbd0e3581	-0.034718994
18	0xbe05c05e	-0.13061664
19	0x3ed02331	0.4065185
20	0x3b1cf5d2	0.0023950231
21	0xbdf27f71	-0.11840714
22	0x3e2a3f20	0.16625643
23	0xbd5fa46f	-0.054600175
24	0x3e806924	0.25080216
25	0x3d8d4464	0.0689781
26	0xbe41a2da	-0.18909779
27	0xbc801f86	-0.015640032
28	0x3e28bdb8	0.16478622
29	0x3d6ec7d7	0.05829605
30	0x3ad5eed0	0.0016321782
31	0x3e36f7ad	0.17867918
32	0x3df705ba	0.12061639
33	0x3dd84b64	0.105612546
34	0x3ca6b695	0.020350734
35	0x3e013994	0.1261962
36	0xbe181850	-0.14853024
37	0x3e44f87c	0.19235414
38	0x3dabee1e	0.083950266
39	0x3e1d2735	0.15346988
40	0x3b187cf8	0.0023267847
41	0x3db25d49	0.08709199
42	0x3b4cce40	0.0031250864
43	0x3e33fffe	0.17578122
44	0x3e24ed28	0.16106093
45	0x3b800c02	0.0039076814
46	0x3d90bb9c	0.07067034
47	0xbe06dd91	-0.13170458
48	0xbdd74ba1	-0.10512472
49	0xbca1fa31	-0.01977262
50	0xbd956aff	-0.072957985
51	0xbe28fa04	-0.16501623
52	0x3d808b6a	0.06276591
53	0x3c2feb90	0.010737315
54	0xbb9552b4	-0.004556978
55	0xbdd0ff67	-0.10204964
56	0xbe185bc5	-0.14878757
57	0x3d0bf677	0.034170594
58	0xbe1a8a95	-0.15091927
59	0x3df1e827	0.11811858
60	0x3e140265	0.14454038
61	0x3e08ca66	0.13358459
62	0x3dddf91a	0.10838528
63	0x3afd413d	0.0019321811
64	0xbbe86ec1	-0.007093281
65	0xbdd6b315	-0.10483376
66	0x3e1717e6	0.1475521
67	0x3ad40f13	0.0016178809
68	0xbc195233	-0.009357977
69	0x3e6692a3	0.22516875
70	0x3df2c8ec	0.11854729
71	0x3da5c1e6	0.08093624
72	0x3e22b3a2	0.15888837
73	0x3c4f02b0	0.012634918
74	0x3db73c54	0.089470536
75	0x3d924c14	0.07143417
76	0x3d451cd7	0.048123207
77	0x3e75b406	0.23994455
78	0x3ef8194c	0.484568
79	0xbb50621e	-0.0031796764
80	0x3e426450	0.18983579
81	0x3dfac52f	0.12244641
82	0x3d84032c	0.064459175
83	0x3e26b8a9	0.1628138
84	0xbd400cee	-0.04688733
85	0x3b7c2498	0.003847396
86	0xbda46310	-0.08026707
87	0xbe37ebb4	-0.17961007
88	0xbe562b52	-0.20914963
89	0x3d28764b	0.041128438
90	0xbad0cd27	-0.0015930281
91	0x3cf492a3	0.029855078
92	0xbe17d753	-0.14828233
93	0xbe113956	-0.14182028
94	0x3dea3b84	0.11437133
95	0xbab4304c	-0.0013747304
96	0x3e11002b	0.1416022
97	0x3e1936d0	0.14962316
98	0xbcd6fa2d	-0.02624234
99	0x38a2bd58	7.76003e-05
100	0x3ae9b63c	0.0017830799
101	0xbd55f0bf	-0.052231546
102	0x3de665fc	0.11249921
103	0x3c061b43	0.008185211
104	0x3d8ccfd4	0.068755776
105	0xbcb45126	-0.02201135
106	0x3e8517cf	0.25994727
107	0x3d4fe8ec	0.05075924
108	0x3e2a2f9d	0.16619726
109	0x3e6ef5d3	0.23335962
110	0xbe3d06dc	-0.18459648
111	0x3e2a82c0	0.1665144
112	0x3e1c84e0	0.15285063
113	0xbdd12ca0	-0.1021359
114	0x3e3d31f7	0.18476091
115	0xbe19a5a5	-0.15004595
116	0xbdebb408	-0.115089476
117	0x3a554094	0.0008134928
118	0x3e0b7c84	0.13621718
119	0xbd8064dc	-0.062692374
120	0x3e2b1c84	0.16710097
121	0x3c2b7aea	0.010466317
122	0x3e4f35a3	0.20235305
123	0xbc95de6b	-0.018294534
124	0xbda62afa	-0.08113666
125	0x3d01faab	0.031733196
126	0xbb202f4a	-0.002444225
127	0x3a166e49	0.00057384797
128	0x3e512b46	0.20426664
129	0xbe27908e	-0.16363737
130	0xbc1b97c3	-0.009496632
131	0x3e1588a2	0.14602903
132	0xbe47ebec	-0.19523591
133	0x3e8adce8	0.27121663
134	0xbc688844	-0.0141926445
135	0x3c8a54b3	0.01688609
136	0xbb82de16	-0.00399376
137	0x3c8ffc8a	0.017576475
138	0x3c13acea	0.009013394
139	0x3de5353a	0.11191793
140	0x3e8cea40	0.2752247
141	0x3e90cf5d	0.28283206
142	0xbde797d7	-0.11308258
143	0x3e5b30c0	0.21405315
144	0x3d2ceb35	0.0422165
145	0xbbdf0ac5	-0.0068067038
146	0x3d826de9	0.0636862
147	0xbe3640c8	-0.1779815
148	0x3de229fc	0.11043164
149	0xbbf94473	-0.0076070367
150	0xbb497bc4	-0.0030743936
151	0xbc04d1b4	-0.008106638
152	0x3e9045f3	0.28178367
153	0xbe2f38fd	-0.17111583
154	0x3e4a39b0	0.19748569
155	0x3c7040af	0.014663859
156	0x3d924ff0	0.07144153
157	0xbd326b29	-0.043559227
158	0x3d3f5aeb	0.046717566
159	0x3b50f187	0.0031882243
160	0x3e151de2	0.1456218
161	0x3e530b8c	0.20609874
162	0x3d17246a	0.03689996
163	0x3e24dae8	0.16099131
164	0x3df46d8c	0.11934957
165	0x3cbb7733	0.022883987
166	0xbafedfc5	-0.0019445351
167	0x3cd1856c	0.025576316
168	0x3e126f2d	0.14300223
169	0xbbd45870	-0.006480269
170	0xbb961dfa	-0.00458121
171	0x3e31403e	0.17309663
172	0x3e153944	0.14572626
173	0x3be09db2	0.0068547362
174	0xbb8290e2	-0.0039845565
175	0x3e397233	0.1810997
176	0x39d9118d	0.00041402542
177	0x3a0404de	0.00050361257
178	0x3dc80275	0.09766094
179	0x3e2a3e4f	0.16625331
180	0xbc05c1a7	-0.008163846
181	0xbe2e91cb	-0.17047803
182	0x3b8e5e1c	0.004344715
183	0x3d0b683a	0.034034945
184	0x3e8ae8e5	0.2713081
185	0xbd2325ad	-0.039830852
186	0xbdff4454	-0.124642044
187	0x3e051e54	0.1299985
188	0x3d9251c9	0.071445055
189	0x3dcc1894	0.099656254
190	0x3e0974b9	0.13423432
191	0xbd3f2b5b	-0.046672206
192	0x3deda577	0.116038255
193	0x3e11de2f	0.14244913
194	0xbe0ece02	-0.13945773
195	0xbe1187ac	-0.14211911
196	0x3e3c3578	0.18379772
197	0xbe199b43	-0.15000634
198	0xbe462909	-0.19351591
199	0xbe2634a8	-0.16231024
200	0x3c0acf42	0.008472266
201	0x3d866a24	0.065632135
202	0xbd59f36e	-0.05321067
203	0x3de6162b	0.11234697
204	0x3c6f8e94	0.014621396
205	0x3ae77edf	0.0017661712
206	0x3e24c5ab	0.1609103
207	0x3e5aa5ef	0.21352361
208	0xbbd4f913	-0.0064994185
209	0x3dacf4fa	0.08445163
210	0x3e10f1a6	0.14154682
211	0x3d835286	0.064122245
212	0x3e105882	0.14096263
213	0x3e390805	0.18069465
214	0xbe55dc29	-0.20884766
215	0x3dde697e	0.10859965
216	0x3d93deab	0.07220205
217	0x3c368326	0.011139667
218	0x3e1d720c	0.15375537
219	0xbe5ffbc0	-0.21873379
220	0x3e45c8e5	0.19314916
221	0x3e009e74	0.12560445
222	0x3c4e0a14	0.012575645
223	0x3e24fae6	0.16111335
224	0xbe044f94	-0.12920982
225	0x3e69649c	0.22792286
226	0x3dbe1183	0.09280684
227	0xbe5539dd	-0.20822854
228	0xbd684db6	-0.056714736
229	0x3dbd7b47	0.09252029
230	0xbbcc0223	-0.0062258407
231	0xbd974f1b	-0.07388135
232	0x3e205f1b	0.1566128
233	0x3bb6f941	0.0055839126
234	0x3e8a3c6b	0.2699922
235	0xbde5c60a	-0.112194136
236	0x3e13905d	0.14410539
237	0x3da1875e	0.07887147
238	0x3e03aa05	0.12857826
239	0x3ea417dd	0.32049456
240	0x3e916821	0.28399757
241	0xbd721c30	-0.059108913
242	0x3b9c0880	0.0047617555
243	0xb8a668e8	-7.935037e-05
244	0xbe294abe	-0.16532418
245	0xbe604f26	-0.21905193
246	0x3bc5fa41	0.0060417955
247	0x3e2b63e4	0.16737324
248	0x3e112c6d	0.14177103
249	0xbca1499b	-0.019688418
250	0x3ded5273	0.115879916
251	0xbc504e44	-0.0127139725
252	0x3e192792	0.14956501
253	0xbe551769	-0.20809712
254	0xbe0552e3	-0.130199
255	0x3dca9025	0.09890775

bn1.running_mean f4 [256]
0	0x00000004	6e-45
1	0x3faf7b01	1.3709413
2	0x3c9a395e	0.018826183
3	0x3fa74e5b	1.3070787
4	0x3fae0e8f	1.3598193
5	0x00000000	0.0
6	0x3fc40247	1.5313195
7	0x00000004	6e-45
8	0x00000000	0.0
9	0x3fa52912	1.2903159
10	0x00000000	0.0
11	0x3e20c900	0.15701675
12	0x00000004	6e-45
13	0x3d88bf16	0.06677072
14	0x3fe78af1	1.8089277
15	0x3ddcfaf5	0.10790054
16	0x00000000	0.0
17	0x3dbd306e	0.09237753
18	0x00000000	0.0
19	0x3e6cfe05	0.23143776
20	0x00000004	6e-45
21	0x3d818377	0.06323903
22	0x3e1167b9	0.14199723
23	0x00000004	6e-45
24	0x3fd71869	1.6804324
25	0x00000004	6e-45
26	0x3d348b50	0.04407817
27	0x00000004	6e-45
28	0x3ba4c3e4	0.005028235
29	0x00000004	6e-45
30	0x00000004	6e-45
31	0x3f836892	1.0266287
32	0x3d06008f	0.032715376
33	0x3c2af05d	0.010433284
34	0x3f9495bc	1.1608195
35	0x3e30854a	0.17238346
36	0x00000004	6e-45
37	0x00000000	0.0
38	0x3ce7a490	0.028276712
39	0x3d2a0436	0.041507922
40	0x00000000	0.0
41	0x3e3ec750	0.18630719
42	0x3f228f7d	0.63500196
43	0x00000004	6e-45
44	0x3e8bc5f7	0.27299473
45	0x00000004	6e-45
46	0x3d369f37	0.044585433
47	0x00000000	0.0
48	0x3d52b344	0.051440492
49	0x3e57c819	0.21072425
50	0x3dd71008	0.105011046
51	0x00000004	6e-45
52	0x3d56bd07	0.052426364
53	0x00000004	6e-45
54	0x00000000	0.0
55	0x00000000	0.0
56	0x3dc322e2	0.09528138
57	0x3cf3fc2f	0.029783336
58	0x00000004	6e-45
59	0x3d37e5e6	0.044896983
60	0x00000000	0.0
61	0x3fae52d1	1.3619024
62	0x3eb7408e	0.3579144
63	0x00000004	6e-45
64	0x00000000	0.0
65	0x00000000	0.0
66	0x3d83ac3d	0.06429336
67	0x00000004	6e-45
68	0x3ddbea22	0.10738017
69	0x3d500018	0.05078134
70	0x00000000	0.0
71	0x00000004	6e-45
72	0x3e32f1fc	0.17475122
73	0x00000004	6e-45
74	0x3f4ba892	0.7955409
75	0x3f86c9b2	1.0530303
76	0x3f91f23b	1.1402048
77	0x3faea801	1.3645021
78	0x3fae6143	1.3623432
79	0x00000000	0.0
80	0x3fe98b62	1.8245661
81	0x3f8a6fbf	1.0815352
82	0x00000004	6e-45
83	0x3e7f006f	0.24902509
84	0x3d2b1c03	0.04177476
85	0x3f86e739	1.0539314
86	0x00000004	6e-45
87	0x00000000	0.0
88	0x00000000	0.0
89	0x3ff93005	1.9467779
90	0x00000004	6e-45
91	0x3f9bde3a	1.2177193
92	0x3e543426	0.20723018
93	0x3d4dccc5	0.05024411
94	0x00000000	0.0
95	0x00000004	6e-45
96	0x3fca0aa6	1.57845
97	0x3eaace06	0.33360308
98	0x3ec76462	0.38943774
99	0x00000000	0.0
100	0x00000004	6e-45
101	0x3f5b8285	0.8574603
102	0x3e291aed	0.16514178
103	0x00000000	0.0
104	0x00000000	0.0
105	0x00000004	6e-45
106	0x3cc0b280	0.023522615
107	0x3fd4125e	1.6568105
108	0x3fb815e7	1.4381684
109	0x3fb7fb02	1.4373477
110	0x00000004	6e-45
111	0x00000004	6e-45
112	0x00000000	0.0
113	0x00000004	6e-45
114	0x3e39e004	0.18151861
115	0x3ed9084c	0.42389143
116	0x3f4a3644	0.7898905
117	0x00000000	0.0
118	0x3d3576cf	0.044302758
119	0x00000004	6e-45
120	0x3e0734d5	0.13203748
121	0x3ea7e619	0.32792738
122	0x3da243de	0.07923101
123	0x00000004	6e-45
124	0x00000004	6e-45
125	0x00000004	6e-45
126	0x00000004	6e-45
127	0x00000004	6e-45
128	0x3ea0590e	0.31317943
129	0x00000000	0.0
130	0x00000004	6e-45
131	0x00000000	0.0
132	0x00000004	6e-45
133	0x3df38836	0.118912145
134	0x00000004	6e-45
135	0x3ec50a2b	0.3848432
136	0x00000000	0.0
137	0x00000004	6e-45
138	0x00000004	6e-45
139	0x00000000	0.0
140	0x3e154b2b	0.14579456
141	0x3f0c9ce8	0.5492692
142	0x00000004	6e-45
143	0x3cf32a9c	0.029683404
144	0x3cbc3186	0.022972833
145	0x00000004	6e-45
146	0x3ecb280c	0.3967899
147	0x00000000	0.0
148	0x3d30c8fb	0.04316042
149	0x00000004	6e-45
150	0x3da8d07a	0.08242889
151	0x3bc9cd26	0.006158489
152	0x3eaf7865	0.3427154
153	0x00000000	0.0
154	0x3d166a45	0.03672244
155	0x00000000	0.0
156	0x00000004	6e-45
157	0x3fa8179c	1.3132205
158	0x3fe09ef8	1.7548513
159	0x00000004	6e-45
160	0x3ccb2bdd	0.02480119
161	0x3df0e971	0.117632754
162	0x3fab7cf6	1.339751
163	0x3f7c7a1a	0.9862381
164	0x3fa5b064	1.2944455
165	0x3f297b8c	0.6620414
166	0x00000000	0.0
167	0x3f956979	1.1672813
168	0x3f911d69	1.13371
169	0x00000004	6e-45
170	0x00000004	6e-45
171	0x3fc30595	1.5236079
172	0x3e4ca1d0	0.19983602
173	0x00000004	6e-45
174	0x00000000	0.0
175	0x3fb6f7e7	1.4294404
176	0x00000004	6e-45
177	0x00000004	6e-45
178	0x3f0f683a	0.5601841
179	0x3e0d606e	0.13806316
180	0x00000000	0.0
181	0x00000004	6e-45
182	0x00000004	6e-45
183	0x3fc605a8	1.5470476
184	0x3ef88a7b	0.48543152
185	0x00000004	6e-45
186	0x00000004	6e-45
187	0x00000004	6e-45
188	0x3db49f6a	0.08819468
189	0x00000004	6e-45
190	0x3ff6595c	1.924602
191	0x00000004	6e-45
192	0x00000004	6e-45
193	0x3dd993ff	0.10623931
194	0x00000004	6e-45
195	0x00000000	0.0
196	0x3e5f3ba3	0.21800093
197	0x3ee76d3c	0.45200527
198	0x3e81e13d	0.25367156
199	0x00000000	0.0
200	0x00000004	6e-45
201	0x3fcf0848	1.6174402
202	0x3c4999f8	0.012304775
203	0x3f950f6a	1.1645329
204	0x00000000	0.0
205	0x00000000	0.0
206	0x3d53a11b	0.051667314
207	0x00000000	0.0
208	0x00000004	6e-45
209	0x3fc701a2	1.5547373
210	0x3e0e5ee3	0.13903384
211	0x00000004	6e-45
212	0x3d2be962	0.041970618
213	0x3f9c8927	1.2229356
214	0x00000004	6e-45
215	0x3fab80b8	1.3398657
216	0x3d81b9d5	0.06334273
217	0x00000000	0.0
218	0x3d2a93ae	0.041644745
219	0x00000000	0.0
220	0x0cab5b6c	2.6401744e-31
221	0x3d61fbfc	0.05517195
222	0x00000000	0.0
223	0x3f4cf45d	0.8006037
224	0x00000000	0.0
225	0x3f9c330a	1.2203076
226	0x00000004	6e-45
227	0x00000000	0.0
228	0x3d796116	0.060883604
229	0x3db40fe8	0.087920964
230	0x00000004	6e-45
231	0x3fca3071	1.5796033
232	0x3f40afc7	0.75268215
233	0x00000000	0.0
234	0x3db17049	0.08663995
235	0x00000000	0.0
236	0x00000000	0.0
237	0x3d85e420	0.06537652
238	0x3c99a1b9	0.018753873
239	0x3e2d3f91	0.1691878
240	0x3d4ace90	0.0495134
241	0x3f886f8d	1.0659043
242	0x00000004	6e-45
243	0x00000000	0.0
244	0x00000000	0.0
245	0x00000000	0.0
246	0x00000000	0.0
247	0x3d87d074	0.06631556
248	0x00000000	0.0
249	0x3fc7dd3c	1.561439
250	0x00000004	6e-45
251	0x00000004	6e-45
252	0x00000004	6e-45
253	0x00000000	0.0
254	0x3e248b11	0.16068675
255	0x3e5c64ab	0.21522777
