Code/Model/Ward3_actor.pth (torch_old, 144378 bytes, 13 tensors)

fc1.weight f4 [256, 3]
00000000: b0ca 483c 988d e53c e63f 55bd ef5a 8cbd
00000010: 1f68 bebd 9bce 05be e775 0abe 42db a53d
00000020: c4ef 9a3d c215 22bd f802 10bc e014 a73c
00000030: 57ac 753b e3d5 483e 7b5a f3bc 86d4 a0bd
00000040: 6dc4 433e 91cb b2bd 779b 0f3e af3a 4dbd
00000050: ef2f a0bd d8cf 6c3d f895 02bc 72c5 163d
00000060: 000f c8ba 0ac1 7e3d 74a6 abbc 6ad4 37bd
00000070: 65e3 aa3d d0a4 ad3d f400 9c3d a15c 3fbe
00000080: 3597 693c 7a0c ddbd 790a 55bc 1eb6 97bd
00000090: bd83 d3bd 6d52 c73d e8b2 353d a0fe d53b
000000a0: c803 f6bc cae6 47bd 155f 1d3e 41e5 2bbd
000000b0: 8fdd 5ebd 343f 40bd 546e 50bd 38f0 71bd
000000c0: 24d2 90bd 05f1 46be e9f0 46bd 3671 83bd
000000d0: 97ce 0a3e 4a2b 453d 9813 42bd 42e3 a53d
000000e0: 09a1 913d 9bbd 633d 04c5 17be b0f0 30bc
000000f0: 573d 733d cb2b afbd f903 64bd f6f7 29bb
00000100: f968 5d3e 1eaa a33c d132 37be bf29 613d
00000110: 1ccf 5d3d 7ef8 763d 80eb 0abd e8cf b6bc
00000120: 9c8c 923a a98f 763d 0330 1c3e 8344 debd
00000130: 5569 743d bf27 0c3e 0700 133e 2d42 4fbd
00000140: af1c 83bd dc03 b5bd 3a51 cb3d 8dbe 443d
00000150: ba05 093e 4361 6bbd 1510 32bd 4e10 c5bd
00000160: fcfc e83d f327 ef3c 58d1 433d 72cd 513d
00000170: 86b0 38bd 90fd e7bb b208 793d a015 1c3c
00000180: 760e a03d 783b 083e 209a d03b 985c fdbd
00000190: 7dc5 b43d dc37 74bd 355f 5cbd de6f c0bd
000001a0: 1337 0abe 48f3 16bd d026 4c3c 5207 4abd
000001b0: fcd2 03be 08fb cf3d e7fa 4e3d 907d 0cbc
000001c0: 40ab 963c 9077 f5bb 08df 543c 88d7 3bbc
000001d0: 38cd 673c c00b dbba 287d 48bd 40fe 223c
000001e0: f4b4 883c 5cac a53c 50a2 5ebd 34b4 a23d
000001f0: 9246 f6bd 7af2 d7bc c6e3 4b3e e159 49bd
00000200: c613 8bbd 5017 843c 5aa6 093d 74cf 24bd
00000210: 8cea 33bd 964d 2f3d e8d6 30bd 7111 6dbd
00000220: 389e a83d 897a ad3d 195a 88bd a717 b13d
00000230: eacf bd3d efa6 fe3d 0c03 b1bd 2a88 debd
00000240: 50b9 f93b 0abb 23bd 36db 3dbd 890f 3d3c
00000250: 392d eabd 9e84 98bd bcaf 53bd 3485 293e
00000260: 42ff e73c 9605 c7bc 27d8 27bd 6bad 32bc
00000270: c209 3abd f40f 8f3c 383b 623d 88c3 183d
00000280: e493 51bd 1207 8ebd bee6 75bd be4e 1b3d
00000290: 208b 36bb c57a 8ebd 100b 943d 7839 923d
000002a0: 2947 12bd 879b 31be 9145 573c f8ce a63c
000002b0: 98a5 fbbc e071 0a3c ceb1 9dbd efa2 66bd
000002c0: ba0f 033e c082 b8bc 6461 5abd d87b 0b3d
000002d0: cacd b23d 16c5 18be cf55 cabd 76c9 943e
000002e0: c4fc ffbc ad51 97bc d9c8 493d 563b b4bd
000002f0: c654 99bd 0041 e0bc 244e 77bd 6c63 e23c
00000300: cb6e 09be be40 fe3c 55c3 76bd 952e cdbc
00000310: 6ca0 1bbd b1bf 16be 9b94 fbbd 63f0 8a3d
00000320: e1ea 4a3d b8e1 eabc 2255 17bd aad6 3abd
00000330: a05d 28bb bc27 56bd 0a7d 5a3d 6225 df3d
00000340: d9a1 dfbd e08c b8bc 9f3d 08be 5c4d 9ebd
00000350: f31f 973d 50aa a43d 2724 d5bd 058b 1b3d
00000360: e4ff cebc 36ae 523d a63e 52bd 180e e53c
00000370: 6c3b 9e3c 7041 4bbd f0f3 e63d 4964 69bd
00000380: d567 86bd 4fa8 24bd 613a b2bc 15d2 e5bd
00000390: b567 1dbe 4962 443d 353f 683d bca7 843c
000003a0: 9807 fabc 2a8f 7dbd a4e6 c6bc dca0 42bd
000003b0: 605d 65bc 83ea e73d c804 92bd 69a8 92bd
000003c0: b0a0 bebd 7c39 bd3d ac7e c43c 5f66 833c
000003d0: 6807 b13d e4bb d23d 9560 d2ba 08aa 12be
000003e0: a159 f8bb e895 0cbd 0400 a2bc 18b0 14bd
000003f0: 3c04 59bd f61a 323d 644b 783d 4717 c0bd
0.012255356 0.028021619 -0.05206289 -0.06853282 -0.09297203 -0.13067095 -0.13521539 0.08098461
0.07565263 -0.03957153 -0.00878977 0.020395696 0.0037486756 0.19612841 -0.02970623 -0.07853036
0.19117899 -0.087302335 0.14024149 -0.050104793 -0.078216426 0.057815403 -0.007970326 0.036809392
-0.0015263259 0.062195815 -0.020953394 -0.04488031 0.08344153 0.08478701 0.07617369 -0.18687679
0.014257242 -0.10793395 -0.013002985 -0.07407783 -0.103278615 0.09732518 0.04436007 0.006530598
-0.0300311 -0.048804082 0.15368302 -0.04196668 -0.054410513 -0.046935275 -0.050886467 -0.05906698
-0.07071331 -0.19427879 -0.048569594 -0.06418078 0.1355537 0.048136987 -0.047381967 0.080999866
0.07110793 0.055600744 -0.14821249 -0.010799572 0.05938467 -0.08553275 -0.05566785 -0.002593515
0.21622075 0.01997858 -0.17890479 0.054971453 0.054152593 0.060295574 -0.033915997 -0.022315934
0.0011180821 0.0601956 0.1525269 -0.10852911 0.059670765 0.13687037 0.14355479 -0.05060022
-0.06401955 -0.08838627 0.09927602 0.048033286 0.13381091 -0.057465803 -0.04347237 -0.096222505
0.11376378 0.029193854 0.047807068 0.05122132 -0.04509022 -0.0070797876 0.060799308 0.00952664
0.07815258 0.13303936 0.0063660294 -0.123711765 0.088267304 -0.059623584 -0.053801734 -0.09396337
-0.13497572 -0.036853105 0.0124604255 -0.049323387 -0.12873453 0.10155302 0.050532248 -0.008574858
0.018392205 -0.0074910596 0.012992628 -0.011464961 0.014148049 -0.0016711876 -0.048947483 0.009948313
0.016687848 0.020223789 -0.054354012 0.07944527 -0.12025179 -0.026360739 0.19911107 -0.04915798
-0.06790881 0.016124398 0.03360591 -0.040236905 -0.043924853 0.0427986 -0.0431737 -0.05787796
0.08233303 0.08470637 -0.0665781 0.086470895 0.09268172 0.12434184 -0.08643159 -0.10865815
0.007620968 -0.039973296 -0.046351634 0.011539348 -0.11434407 -0.0744717 -0.051681265 0.16554719
0.028319959 -0.024294656 -0.040977623 -0.010905604 -0.045419462 0.017463662 0.055232257 0.037295848
-0.05116643 -0.06934942 -0.060034506 0.03791689 -0.002785392 -0.0695701 0.072286725 0.071398675
-0.035712395 -0.17344485 0.0131391445 0.020362362 -0.03071861 0.0084500015 -0.07699929 -0.05630773
0.12798968 -0.022523284 -0.053315535 0.034053653 0.087306574 -0.14918932 -0.09879648 0.29059952
-0.031248458 -0.018471563 0.04926381 -0.0880038 -0.074868724 -0.027374744 -0.060377255 0.027635299
-0.1342117 0.03103673 -0.060244877 -0.025046626 -0.037994787 -0.14721562 -0.122842036 0.067841314
0.049540404 -0.028672084 -0.036946423 -0.045614876 -0.002569057 -0.052283987 0.053341903 0.10895802
-0.10919542 -0.022528112 -0.13304757 -0.07729599 0.07379141 0.08040297 -0.10407286 0.037974376
-0.025268503 0.05143567 -0.051329277 0.027960822 0.019315444 -0.049622953 0.11276996 -0.056980405
-0.06562773 -0.040199574 -0.021756353 -0.112217106 -0.15371592 0.047945295 0.056700904 0.016193263
-0.0305212 -0.06190411 -0.0242799 -0.04751669 -0.013999313 0.113240264 -0.07129818 -0.07161028
-0.093079925 0.0923948 0.023986183 0.016040025 0.08643991 0.102897435 -0.0016050512 -0.14322674
-0.007579044 -0.03432265 -0.019775398 -0.03630075 -0.052982554 0.043482743 0.060618773 -0.0937944

fc1.bias f4 [256]
00000000: 0e33 9ebe 2b29 313e 04de 963e ac57 d2be
00000010: 75be b63e f4a7 b6bd b0ed b93e 3d50 10bf
00000020: 1fb6 02bf 164c 7c3e caee 033f ee4d 0a3d
00000030: 3020 073f 9a48 0abf c0fb cf3e 89a4 b73d
00000040: 205c 473e f646 873e 7e62 4b3e b817 0b3f
00000050: bddf 0d3f 33ca 933e 9fc1 0b3f f1b1 a4be
00000060: 1739 d23e df58 143f c2f4 a73e f282 013f
00000070: eefc b93e a851 d03e dca1 b2be b212 0fbf
00000080: 8dc7 b73e 3311 ebbd 7ac7 ab3e cadc 0dbe
00000090: e1be bb3e a432 06bf e85a 59be 00a2 3bbb
000000a0: 8573 dcbe 9a13 bc3e 97e0 b63c 8425 c6be
000000b0: 9827 03bf 0055 e53d c801 c13e 5bc2 173f
000000c0: f050 d5be af01 4fbd 8617 123e 955c 433d
000000d0: d26a d8be 5a4b 0cbd 988c d4bd b83c f63d
000000e0: 873d e83d d433 b9bd e22e 293b ce43 04bf
000000f0: c778 003e 7856 793e ba73 803d 60d2 2fbd
00000100: e0f1 c2bd ee1e 853e 5f3c b13e ba47 cdbe
00000110: 3a80 efbe 3bbe d23e 8fa8 81bd b509 913e
00000120: 18bb 61be 50aa d7bd 73b3 1c3e 8afc a33c
00000130: 1991 d83e aee3 4dbe 4c4d dfbd 8ba0 a73e
00000140: ccad 7b3e 4269 d0bd 38db cb3e cafa 4ebe
00000150: 109d 0dbf b5dc a33e 00c4 d93e cd6d 90be
00000160: a894 cbbe a73f 0f3f 500f 1dbd a660 123f
00000170: e7d0 00bf 47d4 d43e adb5 043f 5399 c33e
00000180: 50cd 0bbf 665c 093e 4300 843d 6bf8 733d
00000190: c00c 4f3c 559f a1be c1f9 ca3e ac5b 5ebe
000001a0: de2c 0c3f d0d7 b13d 207c 473d e062 dcbe
000001b0: 2a50 17be 3851 86bd b665 ba3e adbc 8d3d
000001c0: d262 973c 8ec1 803e 7b74 8abe 237c 8e3e
000001d0: e020 713d a623 86be cc09 5c3c 6f7c 523c
000001e0: 14ce 8dbe 199f d73e b389 ba3e 5f57 febe
000001f0: b66e e23d 3ca2 a73d 51da 01bf 66a9 023f
00000200: 169b 093f e2c7 cebe 7fe7 b3bc 57eb 063e
00000210: 31cb 253e 73f4 aabe 670b 653d 28c5 723e
00000220: 71e3 a63e da7d e0be 23ae a9be 7186 d93d
00000230: ab85 293e 0806 d8bd 4bfe 1a3e 0ae1 d9be
00000240: 5629 bd3e bc89 d83e 6ef7 e5be 3c45 26be
00000250: 0704 ab3e 0bff afbe eee7 27bd 08bf 383d
00000260: 9855 11bf 1184 1cbe 19ac b4be c274 23be
00000270: 6bfa f13e 2b7d d33e 7fbd 3f3c 468e f0be
00000280: 3c40 563e a574 bfbe 85ef c43e 4a23 fbbe
00000290: 92ab e43d 3053 573d 09d4 b03d a5f9 dbbe
000002a0: 3cc9 933e e263 4abe b04f 06bf 24ba 033e
000002b0: 1625 c7be 39ba 98be 54cf d63e 7f7b 9e3b
000002c0: 28c5 8e3d a82e 383e ccac 54bd 82cb 0bbf
000002d0: 7f9f eb3e c824 b8be f7e5 0f3f c9ab b9bd
000002e0: 9d84 5c3c da80 a03e 34e9 50be 5ef1 34be
000002f0: bacd bfbc e13e 933d 7a01 00bf dfe8 b2be
00000300: d14d ba3d 2572 c8bd db4b f53d 28a8 f23e
00000310: 4afd 8fbe 55ba ce3e 727f beb7 6870 dc3e
00000320: 137d c7be f73d 883d c288 373d 932d eebe
00000330: 70c7 023f 60cd cebe 4214 0e3f 0fd1 b8bd
00000340: 81a1 a53e d009 c7be 7987 83be 3042 e43d
00000350: 25e1 c63e 1e99 a43e b343 d0be 20d6 013d
00000360: f38f 80bd 065c 523e 34af 06bf 451d c0be
00000370: dce2 94be 253e bbbe cfbd 783d f6fa 9bbe
00000380: 41bb e2bc 5429 ec3e 7e36 5dbe 9ae8 ddbe
00000390: 828b 39be 4bad 0a3f 4f80 a53e 4829 b5bd
000003a0: ad11 113f 2892 a73d b1ca 133f ac01 dfbe
000003b0: 8e8e 473d 8622 eebe b0f3 46bd 03e1 c9be
000003c0: 054c 83bd 456e 683e 47ed 5f3e c590 edbe
000003d0: 9e5a 9dbd 8d5a c33e 3763 f33e c16a 95bd
000003e0: 7ef4 38be 817c 9fbe 8ca7 423e 3aa6 a23e
000003f0: 9a3d 3f3d cb27 0bbf 460c 68be 8f84 11bf
-0.30898327 0.1730086 0.2946626 -0.41082513 0.35692182 -0.08918753 0.36314154 -0.56372434
-0.51059145 0.246384 0.5153624 0.033765726 0.5278349 -0.5401703 0.40621758 0.089669295
0.19468737 0.26421326 0.1986179 0.54333067 0.5541952 0.28865203 0.5459232 -0.3216701
0.4105918 0.57948107 0.32803923 0.5059043 0.36325783 0.406873 -0.34889114 -0.558879
0.35894433 -0.1147789 0.33550626 -0.13853756 0.36669067 -0.5242102 -0.21226084 -0.0028630495
-0.43056884 0.36733705 0.02232389 -0.38700497 -0.5123229 0.11197853 0.3769667 0.5928094
-0.41663313 -0.050538715 0.14266786 0.047695715 -0.42268997 -0.03425155 -0.10378379 0.120233
0.113398604 -0.090430886 0.0025815298 -0.5166596 0.12546073 0.24349391 0.06272073 -0.04292524
-0.0951879 0.2600016 0.34616372 -0.40093786 -0.46777517 0.4116076 -0.06330978 0.28327718
-0.22044027 -0.105305314 0.1530283 0.020017881 0.422982 -0.20106384 -0.10903415 0.32739672
0.24578017 -0.10176326 0.39815688 -0.20212856 -0.55317783 0.32004324 0.4253235 -0.2820877
-0.39761853 0.559565 -0.03834468 0.57178724 -0.5031876 0.41568205 0.51839715 0.38202915
-0.54610157 0.13414153 0.064453624 0.05956308 0.012637317 -0.31566873 0.39643672 -0.21714658
0.5475596 0.08683741 0.04870236 -0.43044186 -0.14776674 -0.0655846 0.36405724 0.06920753
0.018479738 0.2514767 -0.27041993 0.27829084 0.058869243 -0.26199073 0.01343007 0.01284705
-0.27696288 0.4211357 0.3643318 -0.49676034 0.11056273 0.081852406 -0.5072375 0.5103973
0.5375227 -0.40386873 -0.021960972 0.13175713 0.16190793 -0.33389625 0.055919077 0.23708022
0.325954 -0.43846017 -0.33140668 0.10621346 0.16554897 -0.10548025 0.15136068 -0.42554504
0.369456 0.42292583 -0.44915336 -0.16237348 0.3340151 -0.3437427 -0.04099267 0.045104057
-0.5677123 -0.15284754 -0.3528755 -0.15962508 0.47261366 0.41306433 0.011702894 -0.46983546
0.20922941 -0.3739368 0.3846399 -0.4905036 0.11165537 0.05256957 0.086341925 -0.429639
0.28864467 -0.19764665 -0.52465343 0.12863976 -0.38895482 -0.29829577 0.41955054 0.004836499
0.06971198 0.17986548 -0.051922604 -0.54607403 0.46020123 -0.35965562 0.56210274 -0.090659685
0.013459352 0.31348306 -0.2040146 -0.176702 -0.023413528 0.071897276 -0.50002253 -0.34943292
0.090968736 -0.09787396 0.11977359 0.47393918 -0.28122932 0.40376535 -2.2709111e-05 0.4305451
-0.38962612 0.06652444 0.044808157 -0.46519145 0.5108557 -0.40391064 0.5549966 -0.0902425
0.3234978 -0.38874674 -0.25689295 0.11145437 0.38843647 0.3214807 -0.4067665 0.031698346
-0.06277456 0.20542917 -0.5261109 -0.3752233 -0.2907933 -0.3657085 0.06072789 -0.30464906
-0.02767718 0.4612528 -0.21602818 -0.43341523 -0.18119624 0.54170674 0.32324454 -0.088457644
0.56667596 0.08182174 0.5773116 -0.43555963 0.048719935 -0.46510714 -0.048572242 -0.39429483
-0.06410984 0.22698314 0.21867858 -0.46399513 -0.076832995 0.38155022 0.47536632 -0.07295752
-0.18062016 -0.31149676 0.19009227 0.31767446 0.046689607 -0.54357594 -0.22660932 -0.56842893

fc2.weight f4 [128, 256]
00000000: 28c4 513d c795 25bc a2d3 a5ba daf8 81bd
00000010: 4db4 4dbd e26c 1fbd 80b8 94bd 3442 fa3d
00000020: 95a6 643d cc60 b43c 64db 123e 7b84 a53c
00000030: 3f52 aa3d 5fa8 ce3c 204a 85bb a18a 253e
00000040: 87d3 1b3d 3399 b5bc 75d9 f5b9 ca6f 1a3e
00000050: 1912 103d 38b0 0cbd 6c98 d2bd d06f 06be
00000060: 2784 13be a451 c03d c21d 123c 4be0 873c
00000070: 8d25 e4bd bba1 97bc 92a7 9ebd 96bc adbd
00000080: 3c6d 13bc cc26 31bd b591 4dbd 8576 b53c
00000090: 9aff 67bc c088 a33d b8fa e83d 910b 9c3d
000000a0: 4fbe 57bd 5140 7bbd 4f2f 13bd cb7a a9bd
000000b0: ef12 3a3d cd82 a6bd 14cf e23c 1c90 d8bd
000000c0: b9dc 60bd 0fbf 123d 9142 eebd 48b6 b7bd
000000d0: 4550 20bd 61dc 8bbd b288 223d 1bf5 533b
000000e0: 10ea 943d 308e febd b3e3 083d f8da 203d
000000f0: a84c c1bd 32f8 8a3d 70d2 083d 10e7 223d
00000100: 2767 c1bd f1fc 9e3d 6a75 ecbc 74c7 183d
00000110: 30ed 49bd b3ed 653d 459e 163d 3cdf 873c
00000120: 23c6 39bb 7e6f a9bc 2d68 953d f356 1bbd
00000130: 567a 183d 9fef 0bbd f360 493d 3096 5f3d
00000140: 5a92 6a3d 0470 0fbc fa9f 28bd 3772 e23d
00000150: 4d08 d23c 9de3 ba3b 4ef8 853c 535e 993d
00000160: d8aa 75bd aa07 30bc 4f5d 683c 1836 89bd
00000170: 2438 39bd 693d b7bc 9565 ebbd acb5 923d
00000180: 08b9 efbc 94e3 5f3d b125 b539 fb92 c3bd
00000190: a4d3 8bbd 70fe 9b3d daae 0f3d 58c6 f13c
000001a0: 599d 58bd 547f cdbc fc7d 09bd e302 01bd
000001b0: e669 7cbd e0cd ae3d 983a e23d f6d8 403d
000001c0: e6c1 f93b 44e7 e13d 3885 163d 19e6 87bb
000001d0: 67c7 a5bc a2f4 d9bc 64aa f5bc 5479 0fbe
000001e0: 3ec8 5a3d 30d1 833d 2101 89bb e9e0 8bbd
000001f0: 33d8 bb3d 9343 8b3d 3515 9ebd 9c89 ac3c
00000200: df2b b33d 1961 85bd d0e2 8f3d bda9 96bd
00000210: dc1e 293e 5e69 813c 54fc 353d 534c 1d3d
00000220: 7c43 3d3d 373a 5a3d 9c0a b4bc d55a a9bd
00000230: 1831 cf3c ada3 0c3d 6b5a 313d 6ec1 913b
00000240: 4478 8c3d 69c0 043e 2bcb 8a3b b6b9 84ba
00000250: d897 14be 1656 38bd ed73 3e3d 21e6 d23b
00000260: 9546 be3d 295b 613d 70cc 653d 70f6 903d
00000270: f020 053d 3cb3 da3b e793 36be 4f7d 99bd
00000280: 8ebf 753d 53ab 1ebc 20d6 e23c a283 283c
00000290: eee0 1d3e 343d 35bd 9de4 2f3e cc81 1c3c
000002a0: fe8c b7bd 93e6 adbc ab4b fc39 4fbd e73c
000002b0: 975d 973b 0a49 623c 2cfb ee3c f4d1 133d
000002c0: 47bb 98bd 54f2 613d ad12 01bc 30b3 4fbd
000002d0: 1ca1 4ebd 0adb a53d 40c1 fa3a ad62 233c
000002e0: 8863 943d cb48 773d 8a31 a43d 901c a63d
000002f0: c6b2 b5bd a880 23bd 9008 10bd 8f8f 553d
00000300: 02a6 f03d 4d5e 4cbe d2ac 17bd 293a b9bd
00000310: 8999 8d3d f151 bbbc c471 03be 5b61 2cbd
00000320: 1d26 123d 4d04 b23c 6784 bbbd ad3a d43c
00000330: 4846 5ebc d6d6 fc3c 9cb8 55bc 8280 a9bc
00000340: c508 a43d c1d6 333d cf28 cabd eae0 9ebd
00000350: e49a c7bd 464a 34bc 45e5 f0bc ac84 9cbd
00000360: 7125 cfbd 56b5 623d e00d 283d c7b2 34be
00000370: a089 d83d cef9 c4bc eb9d 2b3e 494d 68bd
00000380: 7201 e0bc c70e 103d 893c 03bd 2c6d 33bd
00000390: 51f5 3bbe b4bd 843c 5cac b0bc b29a 3d3d
000003a0: 5296 04be 8660 a93c aca3 0eba 7ccf 4b3d
000003b0: 15ba 31bd 0b41 96bd 7a7d 533d 0715 b13d
000003c0: fe7c f5bd ad8e cebc c5b1 cbbd 75f8 033c
000003d0: ba8a 18be 5fa5 01bd a9d2 c13c cdb4 c4bd
000003e0: c11d 583d 5b9d 293d cff7 983c c078 8d3d
000003f0: 2238 0f3c 7bc3 a53c f6f9 213d 51af f33c
0.05121246 -0.0101065105 -0.0012651572 -0.06346293 -0.050220776 -0.038922198 -0.07261753 0.122196585
0.055822928 0.022018813 0.14341503 0.020204773 0.083164684 0.02522677 -0.0040676743 0.16166164
0.038043525 -0.022167778 -0.0004689206 0.15081707 0.03517351 -0.034347743 -0.102829784 -0.1312859
-0.14405881 0.09390572 0.008918228 0.016586443 -0.11139975 -0.018509736 -0.07746805 -0.084832355
-0.0089982115 -0.04324989 -0.050187785 0.022151241 -0.014160061 0.07985067 0.11375946 0.076193936
-0.052671727 -0.061340634 -0.03593379 -0.08275374 0.045428213 -0.08130417 0.027686633 -0.10574362
-0.054897998 0.03582674 -0.1163379 -0.08970314 -0.03913905 -0.06829143 0.039681144 0.003234214
0.072712064 -0.12429464 0.033420276 0.039271325 -0.09438449 0.06785621 0.033403814 0.03977114
-0.09443503 0.077630885 -0.028864581 0.03729959 -0.049298465 0.05613489 0.03677203 0.016585939
-0.0028346858 -0.020683046 0.072952606 -0.037924718 0.037226044 -0.034164067 0.049164724 0.05458659
0.057268478 -0.008754734 -0.04116819 0.11056941 0.025638724 0.005703403 0.016353752 0.07488694
-0.059977382 -0.010744015 0.014182403 -0.06699771 -0.045219555 -0.02236815 -0.114939846 0.071635574
-0.029263034 0.054660395 0.00034551093 -0.09549519 -0.068274766 0.076168895 0.03507886 0.029513523
-0.052884433 -0.025085129 -0.033567414 -0.031496894 -0.06162443 0.08535361 0.11046332 0.04708191
0.0076219914 0.110304385 0.03674814 -0.004147303 -0.020236684 -0.026605908 -0.029988475 -0.14011127
0.053413622 0.06436384 -0.004181043 -0.068300076 0.09172096 0.06799998 -0.07718889 0.021061711
0.08748602 -0.065126605 0.07025683 -0.07356594 0.16515678 0.015797313 0.044430092 0.038402867
0.046206936 0.053278174 -0.021977715 -0.08269278 0.025291964 0.03433578 0.04329912 0.0044481074
0.06858876 0.12964024 0.0042356453 -0.0010126147 -0.14511049 -0.045003973 0.046497274 0.006436125
0.09290806 0.055018578 0.05610317 0.07078254 0.032502115 0.0066741984 -0.17829858 -0.07494604
0.059997134 -0.009684402 0.027689993 0.01028529 0.15417835 -0.04424782 0.17177053 0.00955243
-0.08962439 -0.02122811 0.00048121563 0.028288512 0.004619311 0.013811359 0.029172502 0.0360889
-0.07457595 0.055162743 -0.007877988 -0.050707996 -0.050446615 0.08098419 0.0019131079 0.009972257
0.072455466 0.060372155 0.08017261 0.081109166 -0.08871989 -0.039917618 -0.035164416 0.05213886
0.117504135 -0.19957848 -0.03703005 -0.09044296 0.0691405 -0.022866221 -0.12836367 -0.042085033
0.03568088 0.021730566 -0.09156113 0.025906885 -0.013566561 0.03086416 -0.013044503 -0.02069116
0.08009485 0.043905977 -0.09871065 -0.07757743 -0.0974634 -0.011004036 -0.0294062 -0.07642493
-0.10114563 0.055348717 0.041028857 -0.17646323 0.10573125 -0.024044897 0.1675946 -0.05671433
-0.02734444 0.035170343 -0.032040153 -0.043805286 -0.183553 0.016203739 -0.021566562 0.046290107
-0.12947968 0.020675909 -0.0005441259 0.04975842 -0.043390352 -0.07336625 0.051633336 0.08646589
-0.11986731 -0.025214517 -0.09946016 0.008054842 -0.1489667 -0.03165185 0.02366002 -0.096047975
0.05276275 0.04140983 0.018672852 0.06907797 0.00874141 0.020234814 0.039545022 0.029746683

fc2.bias f4 [128]
00000000: f365 c3bd e6b8 e3bc b0a1 e7bd 277b 10be
00000010: 426b c7bd 8173 51be 459a b3bd 50f8 b5bc
00000020: 108c 74be 68ab 27bd 3233 c53b 614f 3fbe
00000030: 798d c2bd 02a0 c4bd 18f6 443c 9148 2a3e
00000040: a37a b3bd 64b0 473d 6af8 88be 750f 513d
00000050: 40cb 8ebd a6b4 35be 17de d9bd c4e4 a3bd
00000060: 263f 18be 2131 45be 0374 55be e3b5 83bd
00000070: 102b 8dbd 2b4e 27be 219b 263d 8295 7cbd
00000080: d852 42be 0786 4dbd 2909 5bba c4d5 03bd
00000090: 8e19 42be d86b a43d 1a2e 9fbd f520 193d
000000a0: 7bed 8b3d ebab 143d c78f 30be cdaf f9bd
000000b0: 1c67 c6bd b467 a2bb 7604 0fbe 7bd8 d03d
000000c0: 2c2e 44be 96b2 41be a33f fbbd c89f 39be
000000d0: 2526 3abe 7c68 97be 6849 80bd 331b 86bd
000000e0: 5e0a 1dbe bee6 813d 4b08 a1bd 2a40 3ebe
000000f0: 980a e7bd 537b 03be e0dc 0fbe ffe6 a13c
00000100: 6b47 efbd 6015 393d 29e5 2ebe 7760 48be
00000110: 8c42 bc3c 23d9 76be ac22 9fbd 4b59 e9bd
00000120: 1649 a13c a1c1 503d 7c84 4fbe 3920 3e3e
00000130: b5aa 86bd 088f 0abe 4a6a 6fbd ba2d b7bd
00000140: 9f1c 2c3d ea5f 063d 53f6 f33d 3c8e 49be
00000150: a1c7 333e 5d05 09bb 9de2 47be ce54 8fbd
00000160: d022 65be d34b 433d dfc8 913d e2a6 fabd
00000170: bd97 56be 8621 3ebd 43db 233d 0a36 183c
00000180: 52ee e8bd 3028 56bd bd60 94be 73ec 173d
00000190: c435 3abe e2fd 983d 7bd5 38bc acad c1bd
000001a0: 7d7f 343c 8ef1 433d 90c4 0abe 4b35 fdbb
000001b0: c6ee 5abd a6ce 01be 9f11 f6bd 2380 ff3b
000001c0: 54f4 6cbd 35eb 763d 468f 8cbc 375e edbc
000001d0: 8dad 52be 0cef 1abd 8a7f 793d 29b8 d73c
000001e0: 10ad 8e3d 5225 3d3e 09f8 e93d 4d37 c73c
000001f0: 58c2 4cbe 2f98 24be c3c4 48be c1e0 383d
-0.0954093 -0.027798127 -0.11310136 -0.14109479 -0.09737255 -0.20454217 -0.08769659 -0.022213131
-0.23881555 -0.04093495 0.006018066 -0.18682624 -0.0949964 -0.096008316 0.012021564 0.16629244
-0.087636255 0.048752204 -0.26752025 0.05104013 -0.069723606 -0.17744693 -0.106380634 -0.08002618
-0.14867839 -0.19257022 -0.20845036 -0.064311765 -0.06892979 -0.16338412 0.040675286 -0.06166602
-0.18976915 -0.050176647 -0.0008355552 -0.032186285 -0.18955061 0.08028382 -0.07772465 0.037384946
0.06832405 0.036296766 -0.17242347 -0.121917345 -0.09687635 -0.00495621 -0.13966545 0.101975404
-0.19158238 -0.18915781 -0.12267997 -0.18127358 -0.18178613 -0.29571903 -0.06264001 -0.065481566
-0.15335986 0.06342839 -0.0786291 -0.18579164 -0.112813175 -0.12840013 -0.14049101 0.019763468
-0.11683544 0.0451864 -0.17079605 -0.19568048 0.02298095 -0.24106269 -0.07770285 -0.113939844
0.01968817 0.05096591 -0.20265383 0.1856698 -0.065755285 -0.13531125 -0.058450975 -0.089442685
0.042019483 0.032806315 0.11912217 -0.19683164 0.17556621 -0.0020907738 -0.1952004 -0.06998597
-0.22376561 0.047679733 0.07118391 -0.122388616 -0.20956321 -0.04641869 0.040004026 0.009290228
-0.11373581 -0.05228442 -0.28980055 0.03709073 -0.18184572 0.07470299 -0.011281366 -0.094569534
0.011016724 0.047837786 -0.13551545 -0.0077273003 -0.05345037 -0.12676486 -0.1201508 0.0077972575
-0.057850197 0.060282905 -0.017158162 -0.02897559 -0.20574017 -0.03782563 0.060912646 0.026332932
0.06966603 0.18471268 0.11424262 0.024318362 -0.19996011 -0.16073678 -0.19606309 0.045136217

fc3.weight f4 [1, 128]
00000000: ad2b e13b b83b 17bd ffe7 a6bd b658 95bd
00000010: 1f93 c63b db48 bdbc fb02 d83a 496b ae3d
00000020: c7f2 ccbd 79df 63ba d100 683b 4b8b 6fbb
00000030: f965 acbd 8a36 a8bc 4ef9 3a3b a041 20be
00000040: 6706 cabb a9c1 463c 0f0f 99bb c772 07bc
00000050: 58a7 27bd f965 85bd 8a26 0d3e 5ebd 033e
00000060: 3684 9bbd 2a7f 04be 7b34 6fbd 8905 edbc
00000070: 14a3 72bc be6f 4c3d f485 8a3c 1d05 1d3c
00000080: 4d36 a7bd 46e3 7b3d 8cdd 0ebd bcfd b23c
00000090: a053 3fbd 7d02 2dbc cade d23d 06df 36bc
000000a0: ecbd 54bc 871a 17bc e90c 02bc f7bf ed3a
000000b0: 9b0c a1bc dc8b a83c 8e32 60bd 49fb a5bd
000000c0: 3b8a f2bd fc3f 8dbc 131b 303d 5e6c 89bc
000000d0: 3652 ebbc f115 a43c 282a 5abd 0c6a 763d
000000e0: b98e 4bbd 8294 bebb 7da7 4dbb 8ea3 7fbc
000000f0: 3542 6e3d ee7b e6bd 8df0 abbb 88dc dc3b
00000100: abf3 9b3c 2dfa 843c 610c 3cbc 37e7 a5bd
00000110: 9086 0abb 2763 99bc 3187 b0bd 4a85 c6bd
00000120: 0013 4bbd 9b3b c9bb 2c19 08bd 929d 13bd
00000130: ff69 c23b bf25 3dbd ff60 2a3c f56b 82bd
00000140: b255 babc 56cd 33bd c8be 9ebd ffa1 5ebd
00000150: f203 ddbb 59bc 303d 39c4 8cbd 36ac 71bd
00000160: 61ab 48bd a1ee 2abc 96d7 96bb 3b1a c9bc
00000170: 0c62 fabd eda7 d1ba d2e9 c6bd 77b4 803c
00000180: 8d20 4d3d b9b7 4b3d f3c0 18bd 1000 cebd
00000190: efc2 1bbd b3f7 8e3b 07a0 edbb cff6 05b9
000001a0: 297d e23a 04eb c2ba 5f21 23bd d7c7 89bc
000001b0: b579 bd3d db59 febd c561 e53d 9d42 35bb
000001c0: 40b0 51bb ddd1 95bd 26ba 91bc ffb4 0dbd
000001d0: 7c8a 4bbd a61f b63b cf78 dfbd 46cc 18bc
000001e0: 4508 1bbe 1804 a4bd ea15 87bd 84dc b3ba
000001f0: 1531 093c dabb 8b3d 2df7 61bd 8658 2dbb
0.0068716616 -0.036922187 -0.081497185 -0.07292311 0.0060600187 -0.02310603 0.001648038 0.08516557
-0.100072436 -0.0008692663 0.0035400877 -0.003655153 -0.08417887 -0.020533819 0.0028529945 -0.15650034
-0.006165314 0.012131133 -0.0046709846 -0.008267111 -0.040931076 -0.0651359 0.13784233 0.12865207
-0.075935766 -0.12939134 -0.05839966 -0.028933303 -0.014809389 0.049911253 0.016909577 0.009583739
-0.08164654 0.06149604 -0.034879252 0.021849506 -0.04671061 -0.010559675 0.102964 -0.011161571
-0.012984734 -0.009222633 -0.007937648 0.0018138875 -0.019659331 0.020574503 -0.054735713 -0.081045695
-0.118427716 -0.017242424 0.04299457 -0.016775306 -0.028725725 0.020029994 -0.05326286 0.060159728
-0.049696658 -0.0058160434 -0.0031380348 -0.015602959 0.05816861 -0.112541065 -0.0052471817 0.0067401566
0.019037088 0.016232574 -0.011477561 -0.08100741 -0.0021137334 -0.018724037 -0.08619536 -0.096933916
-0.049578667 -0.0061411387 -0.03322713 -0.036038943 0.005933046 -0.046178576 0.010399102 -0.063682474
-0.02274594 -0.043896995 -0.077512324 -0.05435371 -0.006744855 0.043148372 -0.06873364 -0.059002124
-0.048991565 -0.01043287 -0.0046033366 -0.02454864 -0.12225732 -0.001599548 -0.097125664 0.015711052
0.05007987 0.04973576 -0.037293386 -0.10058606 -0.0380277 0.004363024 -0.0072517428 -0.00012775812
0.0017279732 -0.0014871066 -0.039826747 -0.016818924 0.092517294 -0.12419482 0.11200289 -0.0027658113
-0.0031995922 -0.07315419 -0.017788958 -0.03459644 -0.049692616 0.005557972 -0.10911714 -0.009326046
-0.15139873 -0.08008593 -0.06595977 -0.0013722335 0.0083735185 0.06822939 -0.055167366 -0.002645047

bn1.weight f4 [256]
00000000: 0000 803f 400e 7d3f d3e4 323f 0000 803f
00000010: ef0f 513f c219 6e3f 1073 4f3f 0000 803f
00000020: 0000 803f f517 2a3f cf13 823f 66ca 823f
00000030: 695e 3e3f 0000 803f 6ed4 323f 93f4 943f
00000040: ebd4 7a3f 7c98 2c3f 6c4a 373f 14dc 583f
00000050: b8b9 383f 275b 823f 654a 583f 0000 803f
00000060: 93f2 633f 3b4b 3e3f bfdb 2b3f 63a6 443f
00000070: 77a3 493f 5ab3 133f 0000 803f 0000 803f
00000080: b299 493f bdd7 8f3f e68b 8d3f 0000 803f
00000090: 5384 463f 0000 803f 0000 803f 0000 803f
000000a0: 0000 803f 8605 453f ab03 433f 0000 803f
000000b0: 0000 803f 6a05 663f 8c96 483f 0e7f 3d3f
000000c0: 0000 803f fb16 823f cc69 803f 02a3 7e3f
000000d0: 0000 803f 50be 7c3f 0000 803f c37c 363f
000000e0: d9ff 993f 0000 803f 2e2a 9e3f 0000 803f
000000f0: 5884 613f 1349 4a3f 51b0 713f 0000 803f
00000100: be3a 853f 7617 753f e02d 1f3f 0000 803f
00000110: 0000 803f dba3 663f 91e7 813f f3f6 703f
00000120: 0000 803f 0000 803f e802 463f 8300 813f
00000130: 4326 503f 0000 803f 0000 803f d0f3 513f
00000140: ec4a 0d3f 955a 9e3f d4af 463f 0000 803f
00000150: 0000 803f 5e44 5d3f 9384 593f 0000 803f
00000160: 0000 803f 78d8 523f 0000 803f 4076 213f
00000170: 0000 803f 79e7 383f 4032 683f 16a8 533f
00000180: 0000 803f ce24 813f 8feb 823f eaf3 733f
00000190: 0000 803f 6259 7c3f 7ac0 3d3f 0000 803f
000001a0: 7a17 553f 716c 813f 8538 653f 0000 803f
000001b0: 0000 803f 0000 803f 4e2c 823f 54c7 753f
000001c0: 2071 843f fa63 4d3f 0000 803f c21e 833f
000001d0: 0000 803f ca71 8d3f 80f5 883f 4919 803f
000001e0: 0000 803f 2384 523f 9934 4b3f 0000 803f
000001f0: 4551 7d3f 51c6 383f 0000 803f 2d91 4e3f
00000200: 092a 653f 0000 803f ee58 5e3f c33d 503f
00000210: 7427 9f3f 0000 803f 37e6 a73f 8c7b 8c3f
00000220: 1307 433f 0000 803f 0000 803f 94ea 7e3f
00000230: 4138 433f 0000 803f d1a4 7f3f 0000 803f
00000240: 4d26 3f3f 71c3 473f 0000 803f 0000 803f
00000250: 6b11 573f 0000 803f 0428 7c3f 610e 713f
00000260: 0000 803f a40a 7f3f 0000 803f 0000 803f
00000270: 1988 643f e1bf 213f 6ab4 9c3f 0000 803f
00000280: 3a79 693f 0000 803f 9ff7 683f 0000 803f
00000290: 6cb1 813f 0000 803f a0ec 843f 0000 803f
000002a0: 2fd6 803f 0000 803f 0000 803f e800 7f3f
000002b0: 0000 803f 0000 803f 9462 5b3f a0d0 7e3f
000002c0: 0000 803f 321b 463f 669e 7b3f 0000 803f
000002d0: 3bef 653f 0000 803f 5e59 393f e496 a03f
000002e0: 45a2 7b3f 6014 503f 0000 803f 0000 803f
000002f0: dd4f 823f 2504 7b3f 0000 803f 0000 803f
00000300: 30c3 6b3f 512d 9b3f 184c 583f 7266 483f
00000310: 0000 803f ad22 5a3f 3c64 8e3f 135f 5b3f
00000320: 0000 803f d3c0 653f 2a1b 843f 0000 803f
00000330: 55c7 493f 0000 803f 2278 533f cf1f 873f
00000340: 371d 8d3f 0000 803f 0000 803f 6275 443f
00000350: 8e9d 423f 938d 383f 0000 803f 0000 803f
00000360: 11b8 953f e973 7f3f 0000 803f 7f5e a63f
00000370: 0000 803f 0000 803f 36eb 7d3f 0000 803f
00000380: 7c6d a03f e156 523f ecc9 7d3f 0000 803f
00000390: 30ba 983f 249e 7d3f 4cb2 4e3f 0000 803f
000003a0: 2189 863f 05f2 723f b533 3f3f 0000 803f
000003b0: ec00 813f 0000 803f 0000 803f 0000 803f
000003c0: 8eac 863f bbd2 833f f16c 473f 0000 803f
000003d0: 5d5e 843f 623c 473f e5e8 743f c077 8e3f
000003e0: 0000 803f 0000 803f a36b 523f 7637 533f
000003f0: 67c5 7b3f 0000 803f 0000 803f 0000 803f
1.0 0.9884987 0.6988041 1.0 0.8166494 0.93008053 0.81034946 1.0
1.0 0.66442806 1.0162295 1.0218017 0.7436281 1.0 0.6985539 1.1637138
0.9798114 0.6742017 0.71597934 0.8471081 0.72158384 1.0184067 0.8448852 1.0
0.89042014 0.7433354 0.6713218 0.76816386 0.7876505 0.57695544 1.0 1.0
0.78750145 1.1237713 1.1058319 1.0 0.7754566 1.0 1.0 1.0
1.0 0.76961553 0.7617747 1.0 1.0 0.8985201 0.78354716 0.74021995
1.0 1.0163263 1.0032287 0.9946748 1.0 0.98727894 1.0 0.7128412
1.2031204 1.0 1.2356622 1.0 0.88092566 0.7901775 0.9440966 1.0
1.0408552 0.95738924 0.62179375 1.0 1.0 0.90093774 1.0148793 0.94126815
1.0 1.0 0.77348185 1.0078281 0.8130838 1.0 1.0 0.82012653
0.55192447 1.2371393 0.7761204 1.0 1.0 0.86432445 0.8496792 1.0
1.0 0.82361555 1.0 0.6307106 1.0 0.722282 0.90701675 0.82678354
1.0 1.0089357 1.0228137 0.9529406 1.0 0.9857389 0.7412182 1.0
0.8323895 1.0111219 0.89539367 1.0 1.0 1.0 1.0169771 0.96007276
1.0347023 0.8023068 1.0 1.0243762 1.0 1.1050351 1.0699921 1.0007716
1.0 0.82232875 0.7937713 1.0 0.9895213 0.72177607 1.0 0.8069027
0.89517266 1.0 0.86854446 0.8134424 1.2433915 1.0 1.3117131 1.0975204
0.7618267 1.0 1.0 0.9957669 0.7625771 1.0 0.99860865 1.0
0.7466782 0.78032595 1.0 1.0 0.8401095 1.0 0.9849856 0.94162565
1.0 0.9962561 1.0 1.0 0.8927017 0.6318341 1.2242558 1.0
0.912006 1.0 0.9100284 1.0 1.013227 1.0 1.0384712 1.0
1.0065364 1.0 1.0 0.9961076 1.0 1.0 0.85697293 0.99537086
1.0 0.77385247 0.9828857 1.0 0.8981816 1.0 0.7240199 1.2546048
0.9829448 0.8128109 1.0 1.0 1.0180622 0.980532 1.0 1.0
0.9209471 1.2123204 0.8449111 0.7828132 1.0 0.8520916 1.1124339 0.85691947
1.0 0.8974735 1.032079 1.0 0.7881978 1.0 0.82605183 1.0556582
1.1024541 1.0 1.0 0.7674161 0.7602166 0.72091025 1.0 1.0
1.1696798 0.9978624 1.0 1.2997588 1.0 1.0 0.9918703 1.0
1.2533412 0.82163817 0.99136233 1.0 1.193182 0.9906943 0.8074081 1.0
1.0510598 0.9490054 0.74688274 1.0 1.0078406 1.0 1.0 1.0
1.052141 1.0298685 0.77900606 1.0 1.0341297 0.7782651 0.9566787 1.1130295
1.0 1.0 0.8219549 0.825065 0.9834809 1.0 1.0 1.0

bn1.bias f4 [256]
00000000: a08d 1fbc 71a3 d53d fb5f 8e3d 6d0d a4bb
00000010: 752e 523e 352e 983d 4ae9 58bc 603d 84bb
00000020: f5b5 203b 2fc7 d3bd a7f9 31be 27b3 29be
00000030: 257b cfbb 2b74 81bc c6fa 26bd 681b adbd
00000040: f31d 10be 13f9 0cbe 57e4 21bd e72b a7bd
00000050: f482 1dbc 918b 033e fc34 8bbd 6d48 aa3c
00000060: f589 f93d 58d9 973d 3530 15bd 3af6 8dbd
00000070: 45b4 e8bd 882f c9bd a8bf 18bc 5406 70bb
00000080: 359e 213e 378c 523e f0a9 15be 832d debc
00000090: 702c 2f3c ceb4 abbc 48ab 98bc ec47 15bd
000000a0: 9d93 69bc 3856 483d fbee 013e eab8 b83b
000000b0: ec06 90bb cfce b53c 1a1b 0e3e fa9d b0bd
000000c0: 1b11 f23b ff3a fbba bb6c 9d3d d436 063c
000000d0: 8a59 063d ea16 123c 1cba bc3b 468e 2ebe
000000e0: 02a9 07be a848 993c 926e 803c be26 e23c
000000f0: 5e11 77bd 9d71 c43d 3295 2bbb 7868 debb
00000100: c646 0f3e caf3 723b 03d5 f4bd 7287 3f3c
00000110: 7447 323d daf8 77bd b6a4 673d 8e17 22be
00000120: 226a 713b f295 7d3c 4c9b 9c3d d758 88bd
00000130: 12f6 5fbd 7a90 e8bb d052 95bb 4519 f63c
00000140: 16ec 563d d93a 483d 70ba 1eba bd1b f7bb
00000150: 13ae a5bc 6b3b 233c ccd2 01bd 2396 84bd
00000160: afc7 12bc a81d 323d b1f6 4abd c8e8 08be
00000170: 70b6 01bd db00 0e3d ca44 463d 4b1b d53d
00000180: 401a e03b fb5c 7dbd ac05 23bd 5e49 093c
00000190: 5931 543c 012c 85bd 5335 7c3c 314e cdbc
000001a0: 5fc6 9f3d b3b0 513b f9c3 9d3d 4355 31bc
000001b0: feb3 9ebb ed45 febb a981 12be 1b16 d63d
000001c0: 81f5 22bd 5396 223d d250 54bc 5449 78bd
000001d0: d946 00bd 7ce5 0b3e 99fe d03d cbeb 893d
000001e0: 6e42 45bd 9033 96bc 1ae7 6cbd 6d67 923a
000001f0: b96f 3bbc 28e2 9f3d 7960 0b3d ef63 72bd
00000200: f650 833d c716 9e3c 45ca 0e3d 7b57 533d
00000210: 99df b9bd 05a2 a9ba e3d1 cd3b dc9b 44bd
00000220: 1336 023e a24f 16bc e241 6fbd 51fb 89bb
00000230: 0236 b23d f441 ba3a b401 8fbd dfb6 973c
00000240: b74d f93c 5211 ac3d aa02 79bc 3e58 c2ba
00000250: 52ad 453c d3bf b43c d480 38bb 5cea 6d3c
00000260: 16b6 b3b9 3913 0b3d 6ba1 8d3b 77d6 f6bc
00000270: 0683 dbbc b7bb debd 8c62 003d 1a52 e0ba
00000280: 8957 93bd 22ec bfbb 69cf 2dbe c713 95ba
00000290: b65f c1bd d282 f3bb 671b 01be 8e6d b4ba
000002a0: 0436 31bc d608 b9bb 6249 c93a ac25 7ebd
000002b0: 1e8d eabc 1322 f1bb 694f 0dbd 60ee 8a3d
000002c0: 0ced 1f3d ca53 56bd 2d0b 6a3d 5d03 42bc
000002d0: c8ea d13d c7c3 45bb f1d3 6d3d b3d7 373d
000002e0: e508 dbbd 748b e63d cae3 2e3c e60d 03bd
000002f0: a78a 2a3e 84f6 41bd 7d88 efbc 42db f1bb
00000300: a575 903d 5f50 833d 4ba4 293d 4cc3 873b
00000310: 35ab 93bc 4fb3 e63c 7487 1a3e 5666 093e
00000320: 588c 9e3b 1ef2 f83b bf01 ba3d 980f 253d
00000330: 5a0f 473d ec5b b93a cae7 243e 6d08 313e
00000340: 2983 debd 6193 7dbc 9cc2 a9bc 95d5 a83d
00000350: 2266 42bd 3b14 5f3c 137d 14bc deac 303d
00000360: ab5a 983d 6c30 3ebc 1a07 90bc 41cd 143d
00000370: 14fa 08bd f760 133c 008f 35bd 0ff9 0ebc
00000380: 5c25 a93d c004 8e3d ff28 8dbb 4f45 b43a
00000390: 765c f33d 7723 983c 88fc 88bd 18df 2abd
000003a0: 69c1 e13d 1e1e 9cbd c098 23bd 1099 d83c
000003b0: 402e cabc 5f68 bc3c 997d 2e3b f302 9ebb
000003c0: 1364 933d c10e 10bd 5dc4 feb9 8936 2d3d
000003d0: 0e6f 043d eda1 063e 6c46 94bd 01c7 143e
000003e0: d099 68bd 9c48 09bb 7b21 be3d b426 fa3d
000003f0: 57a2 1cbd 7be1 24bc e7aa f3bb 2ab5 3bbd
-0.009738356 0.104315646 0.069519006 -0.0050064833 0.20525534 0.07430688 -0.013239214 -0.004035637
0.0024522517 -0.10340726 -0.17380391 -0.16572247 -0.0063318186 -0.015802464 -0.0407665 -0.08452493
-0.14073925 -0.1376689 -0.039524402 -0.081626706 -0.009613741 0.12846209 -0.06797215 0.020786488
0.12184516 0.07414502 -0.036422927 -0.069317296 -0.11362509 -0.09823519 -0.009323038 -0.0036624866
0.15783007 0.205613 -0.14615607 -0.027121311 0.010691747 -0.020960238 -0.01863636 -0.036445543
-0.014256385 0.04891035 0.1268882 0.005637278 -0.0043953564 0.02219334 0.13877526 -0.08623882
0.007387293 -0.0019167362 0.07686754 0.008191783 0.032800235 0.008916596 0.0057594907 -0.1704646
-0.13248065 0.018711403 0.015677724 0.027606364 -0.060319297 0.095919825 -0.0026181457 -0.006787356
0.13991842 0.003707158 -0.11954691 0.0116900075 0.043525174 -0.060540058 0.056553565 -0.15829298
0.0036836942 0.015477644 0.07646808 -0.0665757 -0.05467803 -0.007097301 -0.004556991 0.030041346
0.052471243 0.048884246 -0.0006055003 -0.0075411485 -0.020224607 0.009962897 -0.031695172 -0.06473949
-0.008958741 0.043485314 -0.04955167 -0.13370049 -0.031668127 0.034668785 0.048405446 0.10405596
0.0068390667 -0.06185625 -0.03980033 0.0083793085 0.0129512185 -0.06502534 0.015393573 -0.025061699
0.07801508 0.003199619 0.077033944 -0.010823551 -0.004843234 -0.0077598006 -0.14307274 0.10453435
-0.039784912 0.03969414 -0.012958722 -0.060616806 -0.031317566 0.1366176 0.10204811 0.06734427
-0.048159055 -0.018335134 -0.057837583 0.0011169739 -0.011440211 0.07806808 0.03402755 -0.059177335
0.064119264 0.01929797 0.034860868 0.0515971 -0.09075851 -0.0012941962 0.006281124 -0.0480002
0.1271594 -0.009174259 -0.05841244 -0.0042108675 0.087017074 0.0014210329 -0.06982747 0.018519817
0.030432565 0.08401741 -0.015198389 -0.0014827324 0.012065249 0.022064125 -0.002815296 0.014521208
-0.00034277205 0.03395388 0.004322221 -0.030131562 -0.026795875 -0.108756475 0.03134398 -0.0017114312
-0.071944304 -0.0058570066 -0.16973652 -0.0011373692 -0.094420835 -0.0074313665 -0.1260811 -0.001376556
-0.010816101 -0.0056468053 0.0015356953 -0.062047645 -0.028631743 -0.0073587983 -0.03449956 0.06783748
0.039044425 -0.052326 0.057139564 -0.011841622 0.10249859 -0.0030176507 0.05806345 0.04488344
-0.10695056 0.11257067 0.010674426 -0.031995676 0.16654454 -0.047354236 -0.029239887 -0.007380874
0.07053689 0.06411814 0.041416448 0.0041431542 -0.018025974 0.028161673 0.15090734 0.13417944
0.0048385076 0.007597222 0.09082364 0.040298074 0.048598625 0.0014141775 0.16104046 0.1728837
-0.108648606 -0.015477032 -0.02072268 0.082438625 -0.047460683 0.013615663 -0.009063023 0.04313361
0.074391685 -0.011608224 -0.017581511 0.036328558 -0.033441618 0.008995286 -0.04432583 -0.008726372
0.08259079 0.069345 -0.0043078656 0.0013753566 0.1188287 0.018571598 -0.066887915 -0.041716665
0.11023218 -0.07622932 -0.039940596 0.026440173 -0.024680257 0.022998987 0.0026625155 -0.004822129
0.07196822 -0.03517032 -0.00048592957 0.042288337 0.032332473 0.13147707 -0.072399944 0.14529039
-0.056787312 -0.002094782 0.0928373 0.12214413 -0.038240757 -0.010063524 -0.0074361446 -0.04582707

bn1.running_mean f4 [256]
00000000: 0000 0000 0400 0000 2a3e ae3e 0000 0000
00000010: e2dd 2b3f f68e 4c3d 71be c13e 0000 0000
00000020: 0000 0000 bad7 f43e 3ccd a83e 0400 0000
00000030: 13d7 193f 0000 0000 746f 013f 0400 0000
00000040: 0400 0000 352b fa3e d79c ca3e 16b7 b33e
00000050: ec64 cd3e 3e01 3a3f 6ced d83e 0000 0000
00000060: c3ac 4e3f 7005 3f3f 7881 bf3e b662 1d3f
00000070: 86a0 d53e 0ee1 fd3e 0000 0000 0000 0000
00000080: e4c7 423f 0400 0000 6761 a13b 0000 0000
00000090: 80a3 d33e 0000 0000 0000 0000 0000 0000
000000a0: 0000 0000 1b8f 763e bd2e 2f3e 0000 0000
000000b0: 0000 0000 8d86 a23e 29d3 163f 2478 ea3e
000000c0: 0000 0000 0400 0000 19a3 d13e 0400 0000
000000d0: 0000 0000 0400 0000 0000 0000 bfbe 843e
000000e0: 0400 0000 0000 0000 4447 2e3d 0000 0000
000000f0: f9f3 db3b 5018 2e3f 10e3 9b3a 0000 0000
00000100: 0400 0000 739d 573c 82f5 ac3e 0000 0000
00000110: 0000 0000 0497 bb3e 0400 0000 1c77 9b3e
00000120: 0000 0000 0000 0000 f5a6 043e 0400 0000
00000130: 650e ae3e 0000 0000 0000 0000 22c2 883e
00000140: f0fd 933e 3740 8f3e fb64 0f3e 0000 0000
00000150: 0000 0000 23bd c13e 2ec2 223f 0000 0000
00000160: 0000 0000 9bfe d43e 0000 0000 bd1c 3e3f
00000170: 0000 0000 6ac5 9e3e 508e 293f 2a92 d83e
00000180: 0000 0000 0400 0000 0400 0000 2a90 963e
00000190: 0000 0000 0400 0000 92c2 523f 0000 0000
000001a0: 537f 433f 0400 0000 0400 0000 0000 0000
000001b0: 0000 0000 0000 0000 e84a 1b3e c58e 543e
000001c0: 0400 0000 00cb 953e 0000 0000 0400 0000
000001d0: 0000 0000 0400 0000 0400 0000 0400 0000
000001e0: 0000 0000 eb3d ca3e 0bf7 993e 0000 0000
000001f0: e4e4 9c3c 0e13 313d 0000 0000 f2bd bc3e
00000200: fd31 713f 0000 0000 aa03 443d f003 b83b
00000210: 8822 ce3a 0000 0000 f489 273d 0400 0000
00000220: d692 9e3e 0000 0000 0000 0000 0400 0000
00000230: db0f 083f 0000 0000 26e5 fa3e 0000 0000
00000240: 1246 153f 98ea 8f3e 0000 0000 0000 0000
00000250: b57f e43e 0000 0000 0400 0000 0306 9f3b
00000260: 0000 0000 0400 0000 0000 0000 0000 0000
00000270: d07f cd3e a830 cf3e 8e75 373d 0000 0000
00000280: 7ccf eb3d 0000 0000 0893 4d3d 0000 0000
00000290: 0400 0000 0000 0000 0400 0000 0000 0000
000002a0: 80c6 f93e 0000 0000 0000 0000 0400 0000
000002b0: 0000 0000 0000 0000 0596 9e3e 0400 0000
000002c0: 0000 0000 0c9c a83e 0400 0000 0000 0000
000002d0: 2dd9 633f 0000 0000 a5a5 4a3f b3bd d33b
000002e0: 0400 0000 da12 f03e 0000 0000 0000 0000
000002f0: 0400 0000 0400 0000 0000 0000 0000 0000
00000300: 3141 0e3d 0400 0000 cbf4 e33e 3e7b 203f
00000310: 0000 0000 70a0 1d3f 0400 0000 e43a 133f
00000320: 0000 0000 8589 533e 0400 0000 0000 0000
00000330: a2e0 293f 0000 0000 3abc 4d3f 0400 0000
00000340: 5566 923c 0000 0000 0000 0000 5013 573e
00000350: e10c bf3e 9406 f33e 0000 0000 0000 0000
00000360: 0400 0000 0400 0000 0000 0000 0400 0000
00000370: 0000 0000 0000 0000 0400 0000 0000 0000
00000380: 0400 0000 8ba5 513f 0400 0000 0000 0000
00000390: f765 963d 800e 353f 8595 7e3e 0000 0000
000003a0: 9cec 273f cc28 9c3d a739 643e 0000 0000
000003b0: 0400 0000 0000 0000 0000 0000 0000 0000
000003c0: 3efa 8f3e 0400 0000 9220 523e 0000 0000
000003d0: 0400 0000 5515 073f c4d5 4b3e c64a 8e3e
000003e0: 0000 0000 0000 0000 3088 303f f1cd 8e3e
000003f0: 0400 0000 0000 0000 0000 0000 0000 0000
0.0 6e-45 0.34031802 0.0 0.6713544 0.049941026 0.37840608 0.0
0.0 0.47820836 0.3296908 6e-45 0.600938 0.0 0.5056069 6e-45
6e-45 0.4886109 0.39572784 0.3510062 0.4011606 0.72658145 0.4236864 0.0
0.80732363 0.7461767 0.37403464 0.61478746 0.41724032 0.49585766 0.0 0.0
0.7608626 6e-45 0.0049249413 0.0 0.41335678 0.0 0.0 0.0
0.0 0.24078028 0.17107673 0.0 0.0 0.3174328 0.58915955 0.45794785
0.0 6e-45 0.40944746 6e-45 0.0 6e-45 0.0 0.25926778
6e-45 0.0 0.042548433 0.0 0.0067124334 0.6800585 0.0011893231 0.0
6e-45 0.013160097 0.33781058 0.0 0.0 0.36638653 6e-45 0.3036431
0.0 0.0 0.12954314 6e-45 0.33995357 0.0 0.0 0.26710612
0.28904676 0.2797868 0.14003365 0.0 0.0 0.37839612 0.63577545 0.0
0.0 0.416005 0.0 0.742626 0.0 0.3100999 0.66232777 0.42299014
0.0 6e-45 6e-45 0.29406863 0.0 6e-45 0.8232814 0.0
0.76366156 6e-45 6e-45 0.0 0.0 0.0 0.15165293 0.20757587
6e-45 0.2925644 0.0 6e-45 0.0 6e-45 6e-45 6e-45
0.0 0.39500365 0.3007129 0.0 0.019152112 0.043231063 0.0 0.36863667
0.942169 0.0 0.047855057 0.0056157038 0.0015726844 0.0 0.040903047 6e-45
0.30971402 0.0 0.0 6e-45 0.53149194 0.0 0.4900295 0.0
0.58310044 0.28108668 0.0 0.0 0.44628683 0.0 6e-45 0.0048530116
0.0 6e-45 0.0 0.0 0.40136576 0.4046681 0.044789843 0.0
0.11514184 0.0 0.050189048 0.0 6e-45 0.0 6e-45 0.0
0.48784256 0.0 0.0 6e-45 0.0 0.0 0.3097383 6e-45
0.0 0.32931554 6e-45 0.0 0.8900326 0.0 0.79159003 0.006461823
6e-45 0.46889383 0.0 0.0 6e-45 6e-45 0.0 0.0
0.03473014 6e-45 0.445227 0.6268805 0.0 0.61572933 6e-45 0.57511735
0.0 0.20657928 6e-45 0.0 0.6635839 0.0 0.80365336 6e-45
0.017871061 0.0 0.0 0.21003461 0.37314513 0.47465956 0.0 0.0
6e-45 6e-45 0.0 6e-45 0.0 0.0 6e-45 0.0
6e-45 0.81893224 6e-45 0.0 0.07343667 0.7072525 0.24861725 0.0
0.6559541 0.07624969 0.22287618 0.0 6e-45 0.0 0.0 0.0
0.28120607 6e-45 0.20520237 0.0 6e-45 0.52766925 0.19905764 0.27791423
0.0 0.0 0.68957806 0.27891496 6e-45 0.0 0.0 0.0

bn1.running_var f4 [256]
00000000: 0400 0000 0400 0000 faaf 7a3c 0400 0000
00000010: 0a36 b23c 6c4a df3b 69ad 6b3c 0400 0000
00000020: 0400 0000 f2cf 143c 67b7 a93c 0400 0000
00000030: 326b 333c 0400 0000 c3ec 703c 0400 0000
00000040: 0400 0000 58d3 563c 1e1b f93b 5d23 553c
00000050: 469a ee3b ef40 e03c 0344 a13c 0400 0000
00000060: 08e4 8b3c d64d 923c 826d 633c 8824 243c
00000070: e4d3 3f3c 7796 3a3c 0400 0000 0400 0000
00000080: 2403 823c 0400 0000 2109 7739 0400 0000
00000090: b1cd 6e3c 0400 0000 0400 0000 0400 0000
000000a0: 0400 0000 97c4 303c c419 ab3c 0400 0000
000000b0: 0400 0000 3d15 1a3c 6c73 343c ba4b 913c
000000c0: 0400 0000 0400 0000 422a 873c 0400 0000
000000d0: 0400 0000 0400 0000 0400 0000 3b43 013c
000000e0: 0400 0000 0400 0000 f947 8c3b 0400 0000
000000f0: d5af 1b3a 0293 473d 53e3 6738 0400 0000
00000100: 0400 0000 1e6b 153a 6b5c 363c 0400 0000
00000110: 0400 0000 e280 433c 0400 0000 09ab 173c
00000120: 0400 0000 0400 0000 ad42 113c 0400 0000
00000130: df5b 753c 0400 0000 0400 0000 745a 3d3c
00000140: 2d39 0f3c c789 493c fb90 1e3c 0400 0000
00000150: 0400 0000 f72a 153c 19b0 2b3c 0400 0000
00000160: 0400 0000 727a 2a3c 0400 0000 937b 2a3c
00000170: 0400 0000 be7e 3d3c 9991 913c 01a0 823c
00000180: 0400 0000 0400 0000 0400 0000 c0f8 423c
00000190: 0400 0000 0400 0000 a298 7f3c 0400 0000
000001a0: 24fd 3c3c 0400 0000 0400 0000 0400 0000
000001b0: 0400 0000 0400 0000 1140 a63b bd04 423c
000001c0: 0400 0000 0dd3 5a3c 0400 0000 0400 0000
000001d0: 0400 0000 0400 0000 0400 0000 0400 0000
000001e0: 0400 0000 1856 623c e6f7 1b3c 0400 0000
000001f0: 5f8c c53a 295c b53b 0400 0000 8af4 6f3c
00000200: e4fc 3f3d 0400 0000 274c b53b 5d8a dc39
00000210: c762 be38 0400 0000 539f 8d3b 0400 0000
00000220: 1d3e 743c 0400 0000 0400 0000 0400 0000
00000230: 33d6 293d 0400 0000 ee25 893c 0400 0000
00000240: b41b 483c b588 8b3c 0400 0000 0400 0000
00000250: 1295 4c3c 0400 0000 0400 0000 518c 9b39
00000260: 0400 0000 0400 0000 0400 0000 0400 0000
00000270: 49a5 6b3c 951f 863c db38 a83b 0400 0000
00000280: 9a04 383c 0400 0000 dff9 a63b 0400 0000
00000290: 0400 0000 0400 0000 0400 0000 0400 0000
000002a0: 9c3c 903c 0400 0000 0400 0000 0400 0000
000002b0: 0400 0000 0400 0000 8767 463c 0400 0000
000002c0: 0400 0000 cf0a 373c 0400 0000 0400 0000
000002d0: b3d0 aa3c 0400 0000 9efa 1c3c b915 153a
000002e0: 0400 0000 fe53 763c 0400 0000 0400 0000
000002f0: 0400 0000 0400 0000 0400 0000 0400 0000
00000300: b4b3 5e3b 0400 0000 1ea7 b93c 50e5 323c
00000310: 0400 0000 5a06 9d3c 0400 0000 767d 5c3c
00000320: 0400 0000 a66b 153c 0400 0000 0400 0000
00000330: 0679 b53c 0400 0000 80a5 9f3c 0400 0000
00000340: d2ff b93a 0400 0000 0400 0000 60f5 1f3c
00000350: 7bdb 603c 693c f53b 0400 0000 0400 0000
00000360: 0400 0000 0400 0000 0400 0000 0400 0000
00000370: 0400 0000 0400 0000 0400 0000 0400 0000
00000380: 0400 0000 2895 303d 0400 0000 0400 0000
00000390: 26d4 0a3c 192f 773c 5673 383c 0400 0000
000003a0: cca4 8f3c ce90 023c e2c0 453c 0400 0000
000003b0: 0400 0000 0400 0000 0400 0000 0400 0000
000003c0: d3ff 9a3c 0400 0000 6d18 fd3b 0400 0000
000003d0: 0400 0000 bf5b 613c 6f8c 383c d7f9 843c
000003e0: 0400 0000 0400 0000 2480 393d 7926 3e3c
000003f0: 0400 0000 0400 0000 0400 0000 0400 0000
6e-45 6e-45 0.015300745 6e-45 0.021754283 0.0068142917 0.014384606 6e-45
6e-45 0.009082781 0.020717336 6e-45 0.01095085 6e-45 0.014704886 6e-45
6e-45 0.013111912 0.0076021096 0.01300892 0.0072815744 0.027374713 0.01968575 6e-45
0.017076507 0.01785938 0.013881089 0.010018475 0.0117082335 0.011388413 6e-45 6e-45
0.015870638 6e-45 0.00023559156 6e-45 0.014575408 6e-45 6e-45 6e-45
6e-45 0.010789058 0.02088631 6e-45 6e-45 0.009404478 0.011013847 0.017736305
6e-45 6e-45 0.016499642 6e-45 6e-45 6e-45 6e-45 0.007889564
6e-45 6e-45 0.0042810407 6e-45 0.0005938982 0.048724182 5.5286404e-05 6e-45
6e-45 0.00056998606 0.011130433 6e-45 6e-45 0.0119325835 6e-45 0.009257087
6e-45 6e-45 0.008865994 6e-45 0.014975517 6e-45 6e-45 0.01155721
0.008741659 0.012300915 0.009678121 6e-45 6e-45 0.009104482 0.010478997 6e-45
6e-45 0.01040517 6e-45 0.010405439 6e-45 0.011565862 0.017769622 0.015945436
6e-45 6e-45 6e-45 0.011900127 6e-45 6e-45 0.015600355 6e-45
0.011534963 6e-45 6e-45 6e-45 6e-45 6e-45 0.0050735553 0.01184195
6e-45 0.0133559825 6e-45 6e-45 6e-45 6e-45 6e-45 6e-45
6e-45 0.013814472 0.009519553 6e-45 0.0015071741 0.005534668 6e-45 0.014645705
0.046872035 6e-45 0.0055327597 0.0004206476 9.078305e-05 6e-45 0.0043219714 6e-45
0.014907387 6e-45 6e-45 6e-45 0.041464042 6e-45 0.01674172 6e-45
0.012213636 0.01703296 6e-45 6e-45 0.012486713 6e-45 6e-45 0.00029668448
6e-45 6e-45 6e-45 6e-45 0.014382669 0.016372481 0.005133731 6e-45
0.011231566 6e-45 0.005095705 6e-45 6e-45 6e-45 6e-45 6e-45
0.017607026 6e-45 6e-45 6e-45 6e-45 6e-45 0.012109644 6e-45
6e-45 0.011172011 6e-45 6e-45 0.020851469 6e-45 0.009581236 0.0005687136
6e-45 0.015034674 6e-45 6e-45 6e-45 6e-45 6e-45 6e-45
0.0033981623 6e-45 0.022662695 0.01091893 6e-45 0.019168068 6e-45 0.013457647
6e-45 0.009119904 6e-45 6e-45 0.022152435 6e-45 0.019488096 6e-45
0.001419062 6e-45 6e-45 0.009763092 0.013724203 0.007484008 6e-45 6e-45
6e-45 6e-45 6e-45 6e-45 6e-45 6e-45 6e-45 6e-45
6e-45 0.043110996 6e-45 6e-45 0.008473432 0.015086913 0.011257967 6e-45
0.017534636 0.007969094 0.012069913 6e-45 6e-45 6e-45 6e-45 6e-45
0.018920815 6e-45 0.007723859 6e-45 6e-45 0.013754784 0.011263951 0.016232414
6e-45 6e-45 0.04528822 0.011605852 6e-45 6e-45 6e-45 6e-45

bn2.weight f4 [128]
00000000: 0000 803f 0000 803f 0000 803f 0000 803f
00000010: 0000 803f 0000 803f 0000 803f 0000 803f
00000020: 0000 803f 0000 803f 0000 803f 0000 803f
00000030: 0000 803f 0000 803f 0000 803f 0000 803f
00000040: 0000 803f 0000 803f 0000 803f 0000 803f
00000050: 0000 803f 0000 803f 0000 803f 0000 803f
00000060: 0000 803f 0000 803f 0000 803f 0000 803f
00000070: 0000 803f 0000 803f 0000 803f 0000 803f
00000080: 0000 803f 0000 803f 0000 803f 0000 803f
00000090: 0000 803f 0000 803f 0000 803f 0000 803f
000000a0: 0000 803f 0000 803f 0000 803f 0000 803f
000000b0: 0000 803f 0000 803f 0000 803f 0000 803f
000000c0: 0000 803f 0000 803f 0000 803f 0000 803f
000000d0: 0000 803f 0000 803f 0000 803f 0000 803f
000000e0: 0000 803f 0000 803f 0000 803f 0000 803f
000000f0: 0000 803f 0000 803f 0000 803f 0000 803f
00000100: 0000 803f 0000 803f 0000 803f 0000 803f
00000110: 0000 803f 0000 803f 0000 803f 0000 803f
00000120: 0000 803f 0000 803f 0000 803f 0000 803f
00000130: 0000 803f 0000 803f 0000 803f 0000 803f
00000140: 0000 803f 0000 803f 0000 803f 0000 803f
00000150: 0000 803f 0000 803f 0000 803f 0000 803f
00000160: 0000 803f 0000 803f 0000 803f 0000 803f
00000170: 0000 803f 0000 803f 0000 803f 0000 803f
00000180: 0000 803f 0000 803f 0000 803f 0000 803f
00000190: 0000 803f 0000 803f 0000 803f 0000 803f
000001a0: 0000 803f 0000 803f 0000 803f 0000 803f
000001b0: 0000 803f 0000 803f 0000 803f 0000 803f
000001c0: 0000 803f 0000 803f 0000 803f 0000 803f
000001d0: 0000 803f 0000 803f 0000 803f 0000 803f
000001e0: 0000 803f 0000 803f 0000 803f 0000 803f
000001f0: 0000 803f 0000 803f 0000 803f 0000 803f
1.0 1.0 1.0 1.0 1.0 1.0 1.0 1.0
1.0 1.0 1.0 1.0 1.0 1.0 1.0 1.0
1.0 1.0 1.0 1.0 1.0 1.0 1.0 1.0
1.0 1.0 1.0 1.0 1.0 1.0 1.0 1.0
1.0 1.0 1.0 1.0 1.0 1.0 1.0 1.0
1.0 1.0 1.0 1.0 1.0 1.0 1.0 1.0
1.0 1.0 1.0 1.0 1.0 1.0 1.0 1.0
1.0 1.0 1.0 1.0 1.0 1.0 1.0 1.0
1.0 1.0 1.0 1.0 1.0 1.0 1.0 1.0
1.0 1.0 1.0 1.0 1.0 1.0 1.0 1.0
1.0 1.0 1.0 1.0 1.0 1.0 1.0 1.0
1.0 1.0 1.0 1.0 1.0 1.0 1.0 1.0
1.0 1.0 1.0 1.0 1.0 1.0 1.0 1.0
1.0 1.0 1.0 1.0 1.0 1.0 1.0 1.0
1.0 1.0 1.0 1.0 1.0 1.0 1.0 1.0
1.0 1.0 1.0 1.0 1.0 1.0 1.0 1.0
