Code/Model/Ward1_actor.pth (torch_old, 144376 bytes, 13 tensors)

fc1.weight f4 [256, 3]
0	0x3c48cab0	0.012255356
1	0x3ce58d98	0.028021619
2	0xbd553fe6	-0.05206289
3	0x3cbe6100	0.023239613
4	0xbc4b91ae	-0.012424869
5	0xbdeb9b34	-0.11504212
6	0xbdecf326	-0.115698144
7	0xbdc9495e	-0.09828447
8	0xbd246892	-0.04013879
9	0xbd2215c2	-0.03957153
10	0xbc1002f8	-0.00878977
11	0x3ca714e0	0.020395696
12	0xbd8d76c5	-0.06907419
13	0x3e2f4043	0.17114358
14	0xbd3e5749	-0.04646996
15	0xbd3ac5b9	-0.04559872
16	0x3e094877	0.1340655
17	0x3dd180c3	0.102296375
18	0x3d0ea34b	0.034823697
19	0xbd0a01fe	-0.033693306
20	0xbdfbcfa0	-0.12295461
21	0x3d6ccfd8	0.057815403
22	0xbc0295f8	-0.007970326
23	0x3d16c572	0.036809392
24	0xbac80f00	-0.0015263259
25	0x3d7ec10a	0.062195815
26	0xbcaba674	-0.020953394
27	0xbd956747	-0.07295089
28	0x3e2bcc6d	0.16777201
29	0x3c8d50c3	0.017250424
30	0x3d514ea9	0.051100407
31	0x3d2e0a06	0.042490028
32	0x3e41a555	0.18910725
33	0xbae88d1c	-0.0017742249
34	0x3cbaf870	0.022823542
35	0x3e4532d6	0.19257674
36	0x3badd215	0.0053045847
37	0x3d0bd531	0.034138862
38	0x3e688616	0.227074
39	0x3bd5fea0	0.006530598
40	0xbcf603c8	-0.0300311
41	0xbd47e6ca	-0.048804082
42	0xbc9bdc41	-0.019025924
43	0x3d54d1b3	0.051957797
44	0xbddd5287	-0.108067565
45	0x3e6a0046	0.22851667
46	0xbcd5c35e	-0.026094135
47	0x3cf1bede	0.029509958
48	0x3d67794c	0.056512162
49	0xbc994b64	-0.018712707
50	0xbde755d3	-0.112956665
51	0xbd43b753	-0.047782253
52	0x3e177a85	0.14792831
53	0xbd4da383	-0.050204765
54	0x3d069212	0.032854147
55	0x3c01f295	0.007931371
56	0x3e2df098	0.1698631
57	0x3abc3690	0.0014359523
58	0xbcd2688c	-0.025684617
59	0xbe44f621	-0.19234516
60	0xbc1d41b7	-0.009598187
61	0x3c72c5f6	0.014817705
62	0xbe1fc025	-0.15600641
63	0xbc04d74f	-0.008107974
64	0xbbb35824	-0.0054731537
65	0xbe22e4c7	-0.15907584
66	0x3de8354c	0.113382906
67	0xbda6607a	-0.0812387
68	0xbd6d7990	-0.05797726
69	0x3d76f87e	0.060295574
70	0xbd0aeb80	-0.033915997
71	0xbcb6cfe8	-0.022315934
72	0x3cba3c01	0.02273369
73	0xbd81c3fc	-0.06336209
74	0x3df3e57d	0.11909006
75	0x3c8350a3	0.016029662
76	0xbb321018	-0.0027170237
77	0x3e3b907f	0.1831684
78	0xbca44b10	-0.020055324
79	0xbd376614	-0.044775084
80	0xbdf9604a	-0.12176569
81	0xbd9e8b28	-0.07741386
82	0x3e4f962e	0.20272133
83	0xbd1c406e	-0.038147382
84	0x3dad34cf	0.08457338
85	0xbd727096	-0.0591894
86	0xbddf514a	-0.109041765
87	0x3d40858a	0.047002353
88	0xbdd7e463	-0.10541608
89	0xbd9e3cbb	-0.07726427
90	0x3d43d158	0.047807068
91	0x3d51cd72	0.05122132
92	0xbd38b086	-0.04509022
93	0xbbe7fd90	-0.0070797876
94	0x3d7908b2	0.060799308
95	0x3c1c15a0	0.00952664
96	0xbda19cc0	-0.07891226
97	0xbd00b1e0	-0.031419635
98	0xbe1c2b97	-0.15251003
99	0x3dd78f3c	0.10525367
100	0x3cf98763	0.030460065
101	0xbdc24bc6	-0.09487109
102	0xbe255f93	-0.1614974
103	0x3da38c4e	0.07985745
104	0x3c7338fe	0.014845131
105	0xbd16f348	-0.036853105
106	0x3c4c26d0	0.0124604255
107	0xbd4a0752	-0.049323387
108	0xbde3cb6a	-0.111227825
109	0xbd6aae25	-0.057294983
110	0x3c27aa09	0.010233411
111	0xbc0c7d90	-0.008574858
112	0x3c96ab40	0.018392205
113	0xbbf57790	-0.0074910596
114	0x3c54df08	0.012992628
115	0xbc3bd788	-0.011464961
116	0x3c67cd38	0.014148049
117	0xbadb0bc0	-0.0016711876
118	0xbd487d28	-0.048947483
119	0x3c22fe40	0.009948313
120	0x3c88b4f4	0.016687848
121	0x3ca5ac5c	0.020223789
122	0xbd5ea250	-0.054354012
123	0x3dd12dca	0.10213812
124	0xbdb6792d	-0.08909831
125	0xbd8e00bd	-0.069337346
126	0x3c543603	0.0129523305
127	0x3d925386	0.07144837
128	0x3e4a731b	0.19770472
129	0x3c841750	0.016124398
130	0x3d09a65a	0.03360591
131	0xbd24cf74	-0.040236905
132	0xbd33ea8c	-0.043924853
133	0x3d2f4d96	0.0427986
134	0xbd30d6e8	-0.0431737
135	0x3e49993e	0.19687364
136	0xbd1634fb	-0.03667162
137	0x3d10a0d2	0.03530962
138	0x3c777642	0.015103878
139	0xbd0ed5c7	-0.034871843
140	0xbe1200aa	-0.14258066
141	0x3c387393	0.011258024
142	0x3e067eb4	0.13134271
143	0xbdea7bca	-0.11449392
144	0x3bf9b950	0.007620968
145	0xbd23bb0a	-0.039973296
146	0xbd3ddb36	-0.046351634
147	0x3cd3ee8c	0.025870584
148	0xbdb5c52c	-0.08875498
149	0xbd6b71a1	-0.05748141
150	0x3d2df4a2	0.04246963
151	0x3cfb4c28	0.030675963
152	0x3e805d47	0.25071165
153	0xbccc6e21	-0.024954857
154	0xbd2a8c6e	-0.04163783
155	0xbc44e51f	-0.012017517
156	0xbd3a09c2	-0.045419462
157	0x3c8f0ff4	0.017463662
158	0x3d623b38	0.055232257
159	0x3e07a752	0.13247421
160	0xbc4c91f8	-0.012485974
161	0x3d8f8e07	0.070095114
162	0xbd75e6be	-0.060034506
163	0x3d1b4ebe	0.03791689
164	0xbb368b20	-0.002785392
165	0x3cb265ec	0.021777116
166	0xbd2acc73	-0.041698884
167	0xbd9a4729	-0.07533104
168	0xbc0ae210	-0.008476749
169	0xbdeb8ea9	-0.1150182
170	0xbd8a5b57	-0.06755703
171	0x3ca6cef8	0.020362362
172	0xbcfba598	-0.03071861
173	0x3c0a71e0	0.0084500015
174	0x3ca5e1be	0.020249244
175	0x3d0f5853	0.034996342
176	0xbda4cec1	-0.08047248
177	0xbcb882c0	-0.022523284
178	0xbd5a6164	-0.053315535
179	0x3d0b7bd8	0.034053653
180	0xbd813998	-0.06309813
181	0x3e3a8377	0.18214212
182	0x3cf0248f	0.029314307
183	0xbd284fdb	-0.04109178
184	0xbd85f8e1	-0.065416105
185	0xbe548b85	-0.20756347
186	0x3cf31b96	0.02967624
187	0x3d4d565c	0.050131187
188	0xbdbd0f97	-0.09231489
189	0xbce04100	-0.027374744
190	0xbd774e24	-0.060377255
191	0x3ce2636c	0.027635299
192	0xbd18b986	-0.037286304
193	0x3d8d9a47	0.06914192
194	0xbe1c495d	-0.15262361
195	0x3d171726	0.03688731
196	0xbca87d39	-0.020567523
197	0xbe054c0b	-0.1301729
198	0xbe112f54	-0.1417821
199	0x3dc22972	0.09480561
200	0xbcb701b1	-0.022339674
201	0xbceae1b8	-0.028672084
202	0xbd175522	-0.036946423
203	0xbd3ad6aa	-0.045614876
204	0xbb285da0	-0.002569057
205	0xbd5627bc	-0.052283987
206	0x3d5a7d0a	0.053341903
207	0xbc410376	-0.01178061
208	0xbcf8bc5a	-0.03036325
209	0xbe18a30b	-0.14905946
210	0x3cb56286	0.022141706
211	0xbda1ebfe	-0.0790634
212	0xbdd2bfaf	-0.10290467
213	0x3d74f404	0.059803024
214	0xbc270771	-0.010194645
215	0x3e3588f3	0.17728023
216	0xbcceffe4	-0.025268503
217	0x3d52ae36	0.05143567
218	0xbd523ea6	-0.051329277
219	0x3ce50e18	0.027960822
220	0x3c9e3b6c	0.019315444
221	0xbd4b4170	-0.049622953
222	0x3ce1cf6d	0.027564729
223	0x3c848d59	0.016180681
224	0xbdc62a2c	-0.096760124
225	0xbd89d8a8	-0.06730777
226	0x3e4327f1	0.19058205
227	0xbc843762	-0.01613969
228	0xbdc6fb8b	-0.09715947
229	0xbdf29b81	-0.11846066
230	0x3c11a840	0.008890212
231	0x3c84a7bc	0.016193263
232	0xbcfa0798	-0.0305212
233	0xbd7d8f2a	-0.06190411
234	0xbcc6e6a4	-0.0242799
235	0xbd42a0dc	-0.04751669
236	0xbc655d60	-0.013999313
237	0x3dd61ee6	0.10455112
238	0xbe12f145	-0.1434985
239	0x3ca863b8	0.020555362
240	0xbc42dd61	-0.011893601
241	0x3d92b0da	0.07162638
242	0x3e013be3	0.12620501
243	0x3e3796b4	0.17928582
244	0x3bdf9da9	0.0068242145
245	0x3d8c8032	0.06860389
246	0x3bd0bd13	0.0063701957
247	0x3c8592bf	0.016305326
248	0xbe18599a	-0.1487793
249	0xbd0c95e8	-0.03432265
250	0xbca20004	-0.019775398
251	0xbd14b018	-0.03630075
252	0xbd59043c	-0.052982554
253	0x3d321af6	0.043482743
254	0x3d784b64	0.060618773
255	0x3e29dd8b	0.16588418

fc1.bias f4 [256]
0	0xbe9e330e	-0.30898327
1	0x3eb326cd	0.3499054
2	0x3e2e56d0	0.17025304
3	0xbed257ac	-0.41082513
4	0x3eb78e99	0.3585098
5	0xbd54a3da	-0.051914074
6	0x3ee427cd	0.44561616
7	0xbf10503d	-0.56372434
8	0xbf02b61f	-0.51059145
9	0x3e7412a8	0.23835242
10	0x3f016983	0.50551623
11	0x3e4fc7ec	0.20291108
12	0x3f08bad9	0.53410107
13	0xbf0a489a	-0.5401703
14	0x3ed1edd4	0.4100176
15	0x3e0f5659	0.13997783
16	0x3eb8a117	0.36060402
17	0x3e6528b3	0.22378807
18	0x3e4c5f18	0.1995815
19	0x3f25ac06	0.6471561
20	0x3f193ba7	0.5985665
21	0x3edd87d8	0.43267703
22	0x3f0f2db5	0.5592912
23	0xbea4b1f1	-0.3216701
24	0x3edaee4f	0.4275994
25	0x3f11e61b	0.5699174
26	0x3f0ca621	0.5494099
27	0x3f05b019	0.5222183
28	0x3ed83fba	0.4223612
29	0x3eebbdee	0.46043342
30	0xbeb2a1dc	-0.34889114
31	0xbf0f12b2	-0.558879
32	0x3ec8d45c	0.39224517
33	0x3e1a7d63	0.15086894
34	0x3eda0dc6	0.42588633
35	0xbe0ddcca	-0.13853756
36	0x3d4cffef	0.050048765
37	0xbf0632a4	-0.5242102
38	0xbe595ae8	-0.21226084
39	0xbb3ba200	-0.0028630495
40	0xbedc7385	-0.43056884
41	0x3eceb39e	0.40371412
42	0x3d42cfe8	0.047561556
43	0xbec62584	-0.38700497
44	0xbf032798	-0.5123229
45	0x3d95f21b	0.073215686
46	0x3f03f1bc	0.5154073
47	0x3f0d714b	0.55250996
48	0xbed550f0	-0.41663313
49	0xbd0503fc	-0.032474503
50	0x3de9fd56	0.11425273
51	0x3d40a84e	0.047035508
52	0xbed86ad2	-0.42268997
53	0x3cf628ef	0.030048816
54	0xbdd48c98	-0.10378379
55	0x3b909d23	0.0044132634
56	0x3e21d336	0.15803227
57	0xbdb933d4	-0.090430886
58	0x3e32ec09	0.17472853
59	0xbf0443ce	-0.5166596
60	0x3eb18deb	0.34678587
61	0x3e64c7a3	0.2234178
62	0x3e500d27	0.20317517
63	0xbd2fd260	-0.04292524
64	0xbde532bb	-0.11191317
65	0x3ee3c7a2	0.44488245
66	0x3ed2610f	0.41089675
67	0xbecd47ba	-0.40093786
68	0xbeef803a	-0.46777517
69	0x3f0dfc05	0.55462676
70	0x3dba00d2	0.09082188
71	0x3e5d993b	0.21640484
72	0xbe61bb18	-0.22044027
73	0xbdd7aa50	-0.105305314
74	0x3e8cb3ed	0.27481022
75	0x3d31447f	0.043278214
76	0x3e3075b4	0.172324
77	0xbe4de3ae	-0.20106384
78	0xbddf4d4c	-0.10903415
79	0x3ec043dd	0.37551776
80	0x3e3f3068	0.1867081
81	0xbd1f944a	-0.03895978
82	0x3ee80f0b	0.45323977
83	0xbe4efaca	-0.20212856
84	0xbf0d9d10	-0.55317783
85	0x3e9f7949	0.3114722
86	0x3ee11ccb	0.4396728
87	0xbe906dcd	-0.2820877
88	0xbecb94a8	-0.39761853
89	0x3f1f5c76	0.6225046
90	0xbd1d0f50	-0.03834468
91	0x3f1c31b2	0.6101333
92	0xbf00d0e7	-0.5031876
93	0x3ed31b8d	0.41231957
94	0x3f0111f7	0.5041804
95	0x3e8bc4a7	0.2729847
96	0xbf0bcd50	-0.54610157
97	0x3e8a4985	0.27009216
98	0x3e46b5aa	0.19405237
99	0x3db4cfb5	0.088286795
100	0x3c4f0cc0	0.012637317
101	0xbea17152	-0.3153177
102	0x3ecbbdb8	0.3979318
103	0xbe5e5bac	-0.21714658
104	0x3f190374	0.59770894
105	0x3e38374f	0.17989849
106	0x3ea34dea	0.3189538
107	0xbedc62e0	-0.43044186
108	0xbe17502a	-0.14776674
109	0xbd865138	-0.0655846
110	0x3e88f95f	0.26752755
111	0x3de8d25d	0.113682486
112	0x3e144514	0.14479476
113	0x3d9bb881	0.07603551
114	0xbe8a747b	-0.27041993
115	0x3ea5e67d	0.3240241
116	0x3d7120e0	0.058869243
117	0xbd32e4fe	-0.043675415
118	0x3ddb59e5	0.107105054
119	0x3df41fa2	0.11920096
120	0xbe8dce14	-0.27696288
121	0x3f14b890	0.5809412
122	0x3ebda5b7	0.37040493
123	0xbefe575f	-0.49676034
124	0x3e17edca	0.14836803
125	0x3e298ad5	0.16556866
126	0xbf01da51	-0.5072375
127	0x3f046561	0.5171719
128	0x3f2589d2	0.6466342
129	0xbecec7e2	-0.40386873
130	0xbd1b56ae	-0.03792446
131	0x3e5a3da6	0.2131258
132	0x3ed3870d	0.41313973
133	0xbeaaf473	-0.33389625
134	0x3b807e76	0.0039213253
135	0x3ea7c119	0.3276451
136	0x3edffb08	0.4374621
137	0xbee07dda	-0.43846017
138	0xbea9ae23	-0.33140668
139	0x3e0d828e	0.13819334
140	0x3dff2a01	0.124591835
141	0xbdd80608	-0.10548025
142	0x3e12efa2	0.14349225
143	0xbed9e10a	-0.42554504
144	0x3f07f652	0.5311023
145	0x3eef76b2	0.46770245
146	0xbee5f76e	-0.44915336
147	0xbe26453c	-0.16237348
148	0x3ea6e8e7	0.32599565
149	0xbeafff0b	-0.3437427
150	0xbd30065b	-0.04297481
151	0x3dfbbda5	0.12292031
152	0xbf115598	-0.5677123
153	0xbe1e0b51	-0.15434004
154	0xbeb4ac19	-0.3528755
155	0xbe2374c2	-0.15962508
156	0x3eedd5e6	0.46452254
157	0x3ecdf307	0.40224478
158	0x3b42a07e	0.0029697712
159	0xbef08e46	-0.46983546
160	0x3e8e15ab	0.27750906
161	0xbebf74a5	-0.3739368
162	0x3f042947	0.51625484
163	0xbefb234a	-0.4905036
164	0x3e86c8ba	0.26325017
165	0x3d575330	0.05256957
166	0x3e27c1b0	0.1638248
167	0xbedbf9a5	-0.429639
168	0x3e9b0bd8	0.30282474
169	0xbe4a63e2	-0.19764665
170	0xbf064fb0	-0.52465343
171	0x3e9882c4	0.29787266
172	0xbec72516	-0.38895482
173	0xbe98ba39	-0.29829577
174	0x3ebb04c0	0.3652706
175	0x3c43d2e6	0.011952138
176	0x3d8ec528	0.06971198
177	0x3e715be6	0.23570213
178	0xbd64367d	-0.055716027
179	0xbf0bcb82	-0.54607403
180	0x3f03ca5e	0.5148066
181	0xbeb824c8	-0.35965562
182	0x3f1d8048	0.61523867
183	0xbe1f930d	-0.15583439
184	0x3e15f4af	0.1464412
185	0x3ec3f548	0.38273072
186	0xbe50e934	-0.2040146
187	0xbe34f15e	-0.176702
188	0x3b91bf9c	0.0044478904
189	0x3e16aa08	0.147133
190	0xbf00017a	-0.50002253
191	0xbeb2e8df	-0.34943292
192	0x3d82cd6e	0.06386839
193	0xbcbc0bd8	-0.022954866
194	0xbdd4a683	-0.10383322
195	0x3eeb554b	0.4596351
196	0xbe8ffd4a	-0.28122932
197	0x3efad067	0.48987123
198	0x3e2cd534	0.16878206
199	0x3edb6777	0.42852375
200	0xbec77d13	-0.38962612
201	0x3d5ace71	0.053419534
202	0x3de49427	0.1116107
203	0xbeee2d93	-0.46519145
204	0x3f05fc83	0.5233843
205	0xbececd60	-0.40391064
206	0x3f216479	0.63043934
207	0x3dba3a4d	0.09093151
208	0x3eda33a1	0.42617515
209	0xbec709d0	-0.38874674
210	0xbe838779	-0.25689295
211	0x3d9deb38	0.0771088
212	0x3f0cfa89	0.55069786
213	0x3ea13535	0.31485906
214	0xbed043b3	-0.4067665
215	0x3d01d620	0.031698346
216	0xbd7aa362	-0.06119097
217	0x3eb6109d	0.3555955
218	0xbf06af34	-0.5261109
219	0xbe345161	-0.17609169
220	0xbe94e2dc	-0.2907933
221	0xbebb3e25	-0.3657085
222	0x3e092e7f	0.13396643
223	0xbe9bfaf6	-0.30464906
224	0xbd8d8776	-0.06910603
225	0x3efe93dd	0.49722186
226	0xbe6ceff1	-0.23138405
227	0xbedde89a	-0.43341523
228	0xbd1d9cd2	-0.038479634
229	0x3f0f082e	0.55871856
230	0x3ed4d203	0.41566476
231	0xbdb52948	-0.088457644
232	0x3f135ecf	0.5756654
233	0x3ea7b34d	0.32753983
234	0x3f22ee3d	0.6364477
235	0xbedf01ac	-0.43555963
236	0x3e36f1d6	0.1786569
237	0xbeee2286	-0.46510714
238	0xbd46f3b0	-0.048572242
239	0xbec9e103	-0.39429483
240	0xbe4b8cb3	-0.19877891
241	0x3ea3cf26	0.3199398
242	0x3e45aefc	0.19305032
243	0xbeed90c5	-0.46399513
244	0x3d63bf0b	0.055602115
245	0x3eccb732	0.39983517
246	0x3eb1ecba	0.3475092
247	0xbd8175fe	-0.06321333
248	0xbe38f47e	-0.18062016
249	0xbe9f7c81	-0.31149676
250	0x3e016438	0.12635887
251	0x3eb04a6a	0.34431773
252	0x3e01bc0c	0.1266939
253	0xbf0b27cb	-0.54357594
254	0xbe680c46	-0.22660932
255	0xbf11848f	-0.56842893

fc2.weight f4 [128, 256]
0	0x3d53d161	0.05171335
1	0x3c805486	0.015665304
2	0x3dafa0cb	0.08575591
3	0x3d472517	0.048619356
4	0xbd357b9d	-0.04430734
5	0xbd478baa	-0.04871718
6	0xbcb0da8d	-0.021588588
7	0xbaf3b484	-0.0018593227
8	0xbdbf966b	-0.09354862
9	0x3cd1c9e6	0.025608968
10	0xbd8760cd	-0.0661026
11	0xbd1b935a	-0.037982322
12	0xbd94c857	-0.07264774
13	0xbd318562	-0.043340094
14	0x3dfc8cbd	0.12331531
15	0xbdb794d4	-0.089639336
16	0x3d2db5b9	0.042409632
17	0x3c91b747	0.017787589
18	0xbd279fd7	-0.04092392
19	0x3e3259c0	0.1741705
20	0x3d57427c	0.05255364
21	0x3dae4b03	0.08510401
22	0x3c9e7252	0.019341622
23	0xbc6ac32b	-0.014328758
24	0xbc679695	-0.014135023
25	0xbce4fbee	-0.02795216
26	0x3e472f06	0.19451532
27	0x3ccf4e37	0.02530585
28	0x3b83d317	0.0040229666
29	0xbcd1bd01	-0.02560282
30	0xbd75f9d4	-0.060052708
31	0xbe645e0d	-0.22301503
32	0x3e858c5b	0.26083645
33	0xbd0edcc0	-0.034878492
34	0x3dd0303f	0.10165452
35	0x3df36287	0.11884027
36	0x3d93da26	0.07219343
37	0x3e27884b	0.16360585
38	0xbe08d3ec	-0.13362092
39	0x3d66027a	0.056154706
40	0xbe58faf3	-0.2118948
41	0xbd40c14c	-0.047059342
42	0xbe1628b9	-0.14663972
43	0xbdf70c5f	-0.120629065
44	0x3e322ced	0.1739995
45	0xbce22781	-0.027606728
46	0x3e295f29	0.16540207
47	0xbda7b101	-0.08188058
48	0xbe1b6ae4	-0.15177494
49	0xbe09f87c	-0.13473696
50	0xbdea06b8	-0.11427063
51	0x3cb9ec9e	0.022695836
52	0xbddedc7d	-0.108818986
53	0xbe1ec61c	-0.1550526
54	0xbd177999	-0.0369812
55	0xbe260490	-0.16212678
56	0xbe14d34c	-0.14533728
57	0xbe079a0e	-0.13242361
58	0x3caf294d	0.021381998
59	0xbdc789c9	-0.09743077
60	0xbdce585d	-0.10075448
61	0xbe1763b6	-0.1478413
62	0xbdc06242	-0.09393741
63	0xba82ec6b	-0.0009988671
64	0xbd6bb7fe	-0.057548515
65	0x3d4d341f	0.050098535
66	0x3bde4115	0.0067826607
67	0x3d4dc641	0.050237898
68	0xbdc1db38	-0.09465641
69	0x3e471eef	0.19445394
70	0xbde4967e	-0.111615166
71	0xbd57bbe5	-0.052669425
72	0x3dafb7df	0.085799925
73	0x3cf2ba54	0.029629864
74	0xbd148827	-0.036262657
75	0xbd815682	-0.06315328
76	0x3dd23204	0.10263446
77	0x3e206787	0.15664493
78	0x3e0176c1	0.12642957
79	0x3be6363b	0.0070255077
80	0xbd312135	-0.04324456
81	0xbd91b3a3	-0.07114341
82	0x3d29eaf3	0.04148383
83	0x3e389614	0.18026
84	0x3dd5ec19	0.10445423
85	0xbca81cbf	-0.02052152
86	0xbbe6a2c7	-0.0070384475
87	0x3dd60aa7	0.104512505
88	0x3be5d200	0.0070135593
89	0x3d1dfba9	0.03857008
90	0xbdcd25fc	-0.100170106
91	0x3cfe49ec	0.031041108
92	0xbdba9a56	-0.091114685
93	0xbcc4c994	-0.024021901
94	0xbdcb10ce	-0.099153146
95	0x3e88ce86	0.26720065
96	0xbd791028	-0.060806423
97	0xbd9381f1	-0.07202519
98	0xbdfaa721	-0.122389086
99	0xbd5b684d	-0.053566266
100	0x3ddd2896	0.10798757
101	0xbdb74381	-0.08948422
102	0xbd1e5905	-0.038659114
103	0xbdaa59df	-0.08317923
104	0x3d69174a	0.056906976
105	0xbda1df9c	-0.07903978
106	0xbce72e30	-0.028220266
107	0xbe4777bd	-0.1947927
108	0x3d413562	0.04717005
109	0xbe143051	-0.14471556
110	0x3e380dc0	0.17973995
111	0xbd4150a0	-0.04719603
112	0xbd174f5b	-0.036940914
113	0x3e31392f	0.1730697
114	0xbabab84a	-0.0014245596
115	0x3d80d9de	0.06291555
116	0xbddbdead	-0.107358314
117	0xbcd9cffa	-0.026588429
118	0xbd43106f	-0.047623094
119	0xbe41acb0	-0.18913531
120	0xbd442a4f	-0.04789191
121	0x3e38dab9	0.18052186
122	0x3b56f07e	0.0032797153
123	0x3d811455	0.06302706
124	0xbcfbbca0	-0.030729592
125	0x3da1074e	0.078627214
126	0xbe271849	-0.16317858
127	0xbb715a09	-0.0036827347
128	0x3e334524	0.17506844
129	0xbb5936b9	-0.003314419
130	0xbd38a222	-0.045076497
131	0xbdd09c24	-0.101860315
132	0x3d6eeb5d	0.05832993
133	0xbd5dd3c6	-0.05415704
134	0x3e67f13b	0.22650616
135	0xbe00ba2e	-0.12571022
136	0x3e1a25f9	0.15053548
137	0xbda20f29	-0.07913048
138	0x3da2b81e	0.07945274
139	0x3da33387	0.079688124
140	0xbd0b4696	-0.034002863
141	0x3b23d874	0.0025000842
142	0xbd7a3de3	-0.061094176
143	0xbc91ed95	-0.017813483
144	0x3e218443	0.1577311
145	0x3d24a8db	0.040200096
146	0xbd1d68b2	-0.038429923
147	0xbe0f40a1	-0.13989498
148	0xbdfa12bf	-0.12210607
149	0x3d4a186b	0.049339693
150	0xbe004ff8	-0.12530506
151	0xbe454a69	-0.19266666
152	0x3d66e2fe	0.05636882
153	0xbdd79e38	-0.10528225
154	0xbd6d7e5d	-0.057981838
155	0xbb9e66f8	-0.004834052
156	0xbcfa9fad	-0.030593717
157	0x3a5a4704	0.0008326622
158	0xbe2eb252	-0.17060211
159	0xbdd92cfd	-0.10604284
160	0xbbbee891	-0.005826064
161	0x3caad9d4	0.020855822
162	0x3d54f241	0.051988844
163	0xbdc75f08	-0.09734923
164	0x3cdc9626	0.026927065
165	0x3d7f7a22	0.062372334
166	0x3c017fee	0.007904036
167	0x3e0296fa	0.12752905
168	0xbd142ae4	-0.036173716
169	0x3b8440b5	0.004036034
170	0x3de76591	0.11298669
171	0xbcf263c4	-0.029588588
172	0xbe16baa7	-0.1471964
173	0xbdf93314	-0.121679455
174	0x3d3d7f39	0.046263907
175	0xbd483d30	-0.048886478
176	0xbc0cd597	-0.008595846
177	0x3a762395	0.00093894574
178	0xbcd49444	-0.025949605
179	0x3c1ec134	0.009689618
180	0x3ddcc075	0.10778896
181	0xbce973f7	-0.02849768
182	0x3db9eb68	0.09078103
183	0xbcea76e7	-0.02862115
184	0xbdbe7ffd	-0.093017556
185	0xbd83dcc5	-0.06438593
186	0x3e265396	0.16242823
187	0x3c399548	0.011327095
188	0xbe21de46	-0.15807447
189	0xbdb63b78	-0.088980615
190	0xbde52bb2	-0.11189975
191	0xbe043fa8	-0.12914908
192	0xbd121fc3	-0.03567482
193	0xbdbec06d	-0.09314046
194	0x3e4bbc08	0.19895947
195	0xbd286eee	-0.041121416
196	0xbca50729	-0.020145016
197	0x3d3777f7	0.04479214
198	0xbe29fee8	-0.16601145
199	0xbd51960e	-0.051168494
200	0xbd593ffe	-0.053039543
201	0x3e402329	0.18763413
202	0xbe03ae75	-0.12859519
203	0x3e5b97a7	0.2144457
204	0xbe1acab5	-0.15116389
205	0x3da9aad7	0.08284538
206	0x3e01a860	0.12661886
207	0x3b808994	0.0039226506
208	0x3c011441	0.007878364
209	0xbcf5fe20	-0.030028403
210	0xbd06c022	-0.032898076
211	0xbe3caca8	-0.18425238
212	0x3b913c1e	0.0044322154
213	0xbdc6d203	-0.09708025
214	0x3d612f54	0.054976776
215	0xbd47a35f	-0.048739787
216	0x3dce50ad	0.100739814
217	0x3cf275b7	0.029597146
218	0x3dc96fe2	0.09835793
219	0xbe57ff6a	-0.21093526
220	0xbd6d5b22	-0.05794824
221	0xbccf928f	-0.02533844
222	0x3b6fbd29	0.0036581254
223	0xbd41c196	-0.04730376
224	0xbda85f43	-0.08221295
225	0x3dea9f7e	0.11456202
226	0x3e7f45d4	0.24928981
227	0x3d8cbef1	0.06872357
228	0xbe2e01cb	-0.16992871
229	0x3c7c8d98	0.015414618
230	0x3dd5a4f4	0.10431853
231	0x3ca92ec5	0.020652184
232	0xbdb5af16	-0.088712856
233	0xbd69a6e5	-0.05704393
234	0x3d49bc22	0.049251683
235	0xbe12f3e9	-0.14350857
236	0x3e192743	0.14956383
237	0x3d847c84	0.06469062
238	0x3e4f8d18	0.20268667
239	0xbda945c9	-0.082652636
240	0xbb55c605	-0.003261925
241	0x3d565851	0.05233032
242	0xbd67ee98	-0.056624025
243	0x3da6817e	0.081301674
244	0xbe2c7f3b	-0.1684541
245	0xbb04979c	-0.0020231968
246	0xbe1cc130	-0.1530807
247	0xbe1f5c8f	-0.15562652
248	0x3e313c5f	0.17308186
249	0x3e0cfbb5	0.13767894
250	0xbe4aa333	-0.19788818
251	0x3cefbcc3	0.029264813
252	0xbd88147a	-0.066445306
253	0xbdad522b	-0.08462938
254	0x3e0fdd87	0.1404935
255	0xbcee6af7	-0.02910374

fc2.bias f4 [128]
0	0xbe853261	-0.26015
1	0x3e348fe1	0.1763301
2	0xbdfd1188	-0.123568594
3	0xbe2625e3	-0.1622539
4	0xbe1c3a99	-0.15256728
5	0xbd00f70f	-0.031485613
6	0xbe3703aa	-0.17872491
7	0x3dbfc8b7	0.09364455
8	0xbe2c710e	-0.16840002
9	0xbe307610	-0.17232537
10	0xbdaf210e	-0.085512266
11	0xbe55c01d	-0.20874067
12	0x3e03dda7	0.12877522
13	0xbe015f91	-0.12634112
14	0xbd7f7b84	-0.062373653
15	0xbdfb0442	-0.122566715
16	0xbe308abf	-0.17240427
17	0xbdb0a877	-0.08625882
18	0xbc9791f3	-0.018502211
19	0xbe693b3d	-0.22776504
20	0xbe11c061	-0.14233543
21	0xbde3ffb1	-0.11132754
22	0xbdbcc3a1	-0.09217001
23	0xbdb92d40	-0.09041834
24	0x3d4533d4	0.04814513
25	0x3e4f9f04	0.20275503
26	0xbdc3571f	-0.095381014
27	0xbd54e8da	-0.051979877
28	0xbd967481	-0.0734644
29	0xbe53e9d3	-0.20694666
30	0xbe1403d3	-0.14454584
31	0xbe2ed0b6	-0.17071804
32	0xbde30d2b	-0.11086496
33	0x3e5233f7	0.20527636
34	0xbda309c0	-0.07960844
35	0xbe0d5cf5	-0.13804992
36	0xbcb18a13	-0.021672284
37	0x3d9b8b66	0.075949475
38	0xbd9b3107	-0.075777106
39	0xbdd57409	-0.104225226
40	0xbe311ad1	-0.17295386
41	0xbde0076f	-0.10938918
42	0xbd32f026	-0.043686055
43	0xbd8f699d	-0.07002566
44	0x3e1a55d2	0.150718
45	0xbc9364b1	-0.01799235
46	0xbe550ed2	-0.20806435
47	0xbdcef719	-0.10105724
48	0xbd960d44	-0.07326749
49	0x3ca574c0	0.020197272
50	0xbe313752	-0.1730626
51	0xbe037194	-0.12836295
52	0xbe7b78f1	-0.24557854
53	0xbdb07fb6	-0.08618109
54	0xbd92ac31	-0.07161749
55	0x3da03608	0.07822806
56	0xbd12f4e3	-0.035878073
57	0xbe08eb59	-0.13371028
58	0xbdad3de0	-0.08459067
59	0xbe24d5a1	-0.16097118
60	0xbd63a9d0	-0.055581868
61	0xbd5f3eed	-0.05450337
62	0xbd74d1ff	-0.05977058
63	0xbc7b2ef6	-0.015331021
64	0xbe6a1013	-0.22857694
65	0xbe61aa17	-0.2203754
66	0xbde3a3d9	-0.11115236
67	0xbde59210	-0.112095
68	0xbe33bda3	-0.1755281
69	0xbdf95420	-0.12174249
70	0x3d1bc8f0	0.038033426
71	0xbd828549	-0.063730784
72	0x3d418037	0.047241416
73	0xbdf99dd3	-0.12188306
74	0xbe0141ce	-0.12622759
75	0xbbc35a4c	-0.005961692
76	0xbd9d5b06	-0.07683377
77	0xbe275448	-0.16340744
78	0xbdbf1f7c	-0.09332177
79	0xbddd927d	-0.10818956
80	0xbdc8323e	-0.09775208
81	0xbe2de773	-0.16982822
82	0xbd9907f1	-0.07472218
83	0xbe2feadc	-0.17179435
84	0xbdcee29f	-0.10101818
85	0xbd95bb28	-0.07311088
86	0xbdce318f	-0.10068046
87	0x3e119a07	0.14218913
88	0xbe2d3edd	-0.16918512
89	0xbd3bd149	-0.045853887
90	0xbdf104a9	-0.11768467
91	0xbe03840d	-0.12843342
92	0xbdfe9a77	-0.124318056
93	0xbcf68c35	-0.030096153
94	0xbcea2c17	-0.028585477
95	0xbc048e1a	-0.00809052
96	0xbde272bc	-0.1105704
97	0xbdb7d860	-0.08976817
98	0xbe15580c	-0.14584368
99	0xbe32f221	-0.17475177
100	0xbe2e9bdc	-0.17051643
101	0xbd93d72e	-0.07218777
102	0xbe0639e2	-0.13108018
103	0xbdb8ffbc	-0.090331525
104	0xbd4506c0	-0.04810214
105	0xbe1414fd	-0.14461131
106	0xbdb0960d	-0.0862237
107	0xbe72f080	-0.23724556
108	0xbe3b39b8	-0.18283737
109	0xbd631206	-0.05543711
110	0xbe2726a8	-0.1632334
111	0x3d22355d	0.039601672
112	0xbe192bbe	-0.14958093
113	0xbcadbca2	-0.021208111
114	0xbe24a169	-0.16077198
115	0xbe4da447	-0.20082198
116	0xbe122ec2	-0.14275649
117	0xbe113b0b	-0.1418268
118	0xbe51617c	-0.20447344
119	0xbd26892a	-0.040658154
120	0xbe0da7d1	-0.13833548
121	0x3df7a6fd	0.12092397
122	0x3bf2aadf	0.0074056233
123	0xbe8b1149	-0.27161625
124	0xbe2d8442	-0.16944984
125	0xbe1a45d9	-0.15065707
126	0xbe6d35e1	-0.23165084
127	0xbdace2cf	-0.08441698

fc3.weight f4 [1, 128]
0	0x3d34eb9b	0.044170003
1	0xbb9247e4	-0.0044641364
2	0x3db66985	0.08906845
3	0x3dbc6cf8	0.09200472
4	0x3c9d4204	0.019196518
5	0x3c99bb73	0.01876614
6	0x3dfa1620	0.12211251
7	0xbd48f01a	-0.049057104
8	0xbc397baf	-0.011320992
9	0x3da5c937	0.08095019
10	0x3dcc33a9	0.09970791
11	0x3baa5be8	0.0051989444
12	0xbc35dc33	-0.011099863
13	0x3cf158d9	0.029461311
14	0xbb8aed7b	-0.0042397357
15	0x3d99523b	0.07486387
16	0x3dc5d55b	0.09659835
17	0x3be6554a	0.00702921
18	0x3df622d2	0.1201836
19	0x3db7d400	0.08975983
20	0xbba9d587	-0.005182925
21	0x3dafdeb9	0.08587403
22	0xbb184768	-0.002323592
23	0xbdefc9ab	-0.11708387
24	0xbc4899d8	-0.01224371
25	0xbdc50a35	-0.096210875
26	0x3db537fa	0.08848567
27	0xbc0eec72	-0.008723365
28	0x3c7a6269	0.015282252
29	0x3d5042ac	0.050844833
30	0xbe0a74b9	-0.13521089
31	0x3db1eca5	0.086877145
32	0x3c08ac89	0.008341917
33	0xbd88e2f8	-0.06683916
34	0x3e0502d9	0.12989368
35	0x3d457f49	0.04821709
36	0xbca8ad1e	-0.020590361
37	0xbc87fd68	-0.016600326
38	0x3de6dcb1	0.11272562
39	0x3d9485f4	0.07252112
40	0x3df01df1	0.11724461
41	0x3ca3afe8	0.01998134
42	0x3d9998ec	0.07499871
43	0x3d1da885	0.03849079
44	0xbce48b9c	-0.027898602
45	0xbb7178d9	-0.0036845712
46	0x3d34e2e5	0.044161696
47	0xbdd0d482	-0.10196783
48	0x3c2b6357	0.010460696
49	0x3d6c5301	0.057696346
50	0x3df53130	0.119722724
51	0x3c9dd6eb	0.01926752
52	0x3d934df6	0.07192604
53	0xb7cf2d77	-2.4697494e-05
54	0x3c24392a	0.010023395
55	0xbbe6339e	-0.007025196
56	0xbb1709e6	-0.0023046671
57	0x3cd7a042	0.026321534
58	0x3d8bf411	0.06833661
59	0x3cfc2448	0.030779019
60	0x3a1e705c	0.00060439645
61	0x3bdc5ee7	0.0067251804
62	0xba92f19f	-0.0011210925
63	0x3d05bfba	0.032653548
64	0x3d88fb89	0.066886015
65	0x3d9a130d	0.07523165
66	0xbbed84c2	-0.007248492
67	0xb8750d02	-5.8424666e-05
68	0x3ca3b6a0	0.019984543
69	0x3d7e80ed	0.062134672
70	0xb9824e9d	-0.00024854104
71	0x3d6ddb31	0.058070365
72	0xbd0e4e96	-0.034742914
73	0xbb2157e4	-0.0024619037
74	0xb99e37a0	-0.00030177552
75	0x3e026732	0.12734678
76	0x3da79a1b	0.0818369
77	0x3d2f1748	0.042746812
78	0x3bdc3cfd	0.0067211376
79	0x3d262c29	0.04056946
80	0x3b155053	0.0022783473
81	0x3b8bb31a	0.004263294
82	0x3df258e4	0.11833361
83	0x3aa89a17	0.0012863305
84	0x3d2447a9	0.040107403
85	0x3d087b88	0.033320934
86	0x3c82311b	0.015892556
87	0xbd259f79	-0.040435288
88	0x3ddbd5f5	0.107341684
89	0x3bd5d6ab	0.0065258346
90	0x3dd606a1	0.10450483
91	0x3d0c3bfd	0.034236897
92	0x3de16053	0.110047005
93	0x3cf206ef	0.029544322
94	0xbbb14b74	-0.005410606
95	0x3ab73718	0.0013978211
96	0xbb4a9d6d	-0.0030916587
97	0x3d962b1d	0.07332442
98	0x3cf60dca	0.030035872
99	0x3decb484	0.11557868
100	0x3bdef726	0.0068043647
101	0x3c9c36a4	0.019069023
102	0x3e08c8b7	0.13357817
103	0x3dbdd08d	0.092682935
104	0x3dafe576	0.08588688
105	0x3b047de5	0.002021664
106	0x3b3f79b9	0.002921684
107	0x3c2bbcf9	0.010482066
108	0x3d3c09e6	0.045907877
109	0x3b2ba856	0.0026192865
110	0x3cbcac0a	0.023031253
111	0x3cc9a418	0.024614379
112	0x3d327700	0.04357052
113	0x3c83f1aa	0.016106445
114	0x3d872773	0.06599321
115	0x3ddfe273	0.10931864
116	0x3df57ddd	0.11986897
117	0x3cb6b538	0.022303209
118	0xbb4f5da0	-0.0031641498
119	0x3d2f490d	0.042794276
120	0x39501567	0.00019844399
121	0xbd14ab69	-0.036296282
122	0x3a4f737a	0.00079136307
123	0x3c005284	0.007832173
124	0x3dfa7e8d	0.12231169
125	0x3c4aaf4e	0.012370897
126	0x3cb1f3cf	0.021722702
127	0x3cefc499	0.02926855

bn1.weight f4 [256]
0	0x3f800000	1.0
1	0x3f6f7c89	0.935494
2	0x3f8006b2	1.0002043
3	0x3f800000	1.0
4	0x3f7f6d23	0.99775904
5	0x3f79a4a8	0.9751687
6	0x3f5dafa9	0.8659616
7	0x3f800000	1.0
8	0x3f800000	1.0
9	0x3f573d4b	0.840779
10	0x3f55f0f7	0.8357081
11	0x3f6eb257	0.93240875
12	0x3f6d4a64	0.92691636
13	0x3f800000	1.0
14	0x3f63cf52	0.8898822
15	0x3f6e2426	0.9302391
16	0x3f19ccc4	0.6007807
17	0x3f52331f	0.82109255
18	0x3f5df678	0.86704206
19	0x3f570e98	0.84006643
20	0x3f6eec3c	0.93329215
21	0x3f4daafc	0.80339026
22	0x3f34abfc	0.7057493
23	0x3f800000	1.0
24	0x3f58ce32	0.8468963
25	0x3f566a29	0.8375574
26	0x3f4a681d	0.79065114
27	0x3f804b13	1.0022911
28	0x3f6e8fbf	0.9318809
29	0x3f7f690f	0.9976968
30	0x3f800000	1.0
31	0x3f800000	1.0
32	0x3f6adbfd	0.91741925
33	0x3f45f05d	0.7731989
34	0x3f72962a	0.9476038
35	0x3f800000	1.0
36	0x3f82ad99	1.0209228
37	0x3f800000	1.0
38	0x3f800000	1.0
39	0x3f800000	1.0
40	0x3f800000	1.0
41	0x3f6811f8	0.9065242
42	0x3f43bc10	0.76458836
43	0x3f800000	1.0
44	0x3f800000	1.0
45	0x3f79318e	0.9734124
46	0x3f4a7366	0.79082334
47	0x3f64d72b	0.8939082
48	0x3f800000	1.0
49	0x3f8e23cf	1.1104678
50	0x3f6a4ca5	0.915232
51	0x3f7e394b	0.9930617
52	0x3f800000	1.0
53	0x3f90ec6e	1.1322153
54	0x3f800000	1.0
55	0x3f84ac58	1.0365095
56	0x3f80386c	1.0017219
57	0x3f800000	1.0
58	0x3f381a43	0.7191507
59	0x3f800000	1.0
60	0x3f770c8d	0.96503526
61	0x3f82d992	1.0222647
62	0x3f73ec6c	0.95282626
63	0x3f800000	1.0
64	0x3f7d93d5	0.990537
65	0x3f49c6b5	0.7881883
66	0x3f3a0ff1	0.72680575
67	0x3f800000	1.0
68	0x3f800000	1.0
69	0x3f5ffa5e	0.87491405
70	0x3f6ff397	0.93731064
71	0x3f5e7a19	0.86905056
72	0x3f800000	1.0
73	0x3f800000	1.0
74	0x3f71e7be	0.94494236
75	0x3f771b71	0.9652625
76	0x3f859f62	1.0439265
77	0x3f800000	1.0
78	0x3f800000	1.0
79	0x3f4e781b	0.80652016
80	0x3f5f52d2	0.8723575
81	0x3f67d2d2	0.9055606
82	0x3f46a808	0.77600145
83	0x3f800000	1.0
84	0x3f800000	1.0
85	0x3f420c8c	0.75800395
86	0x3f6e98ce	0.9320191
87	0x3f800000	1.0
88	0x3f800000	1.0
89	0x3f5df76c	0.8670566
90	0x3f800000	1.0
91	0x3f338582	0.7012559
92	0x3f800000	1.0
93	0x3f383021	0.7194844
94	0x3f68d452	0.90948975
95	0x3fb53eda	1.4159806
96	0x3f800000	1.0
97	0x3f7c9a7a	0.9867321
98	0x3f5e34ea	0.8679949
99	0x3f6df538	0.929523
100	0x3f800000	1.0
101	0x3f7d6e93	0.9899685
102	0x3f499bb6	0.7875322
103	0x3f800000	1.0
104	0x3f6f9a23	0.9359457
105	0x3f8e5456	1.1119487
106	0x3f4edc86	0.8080524
107	0x3f800000	1.0
108	0x3f800000	1.0
109	0x3f800000	1.0
110	0x3f65fd64	0.8983977
111	0x3f66de34	0.90182805
112	0x3f8ae40a	1.0850842
113	0x3f8f4cce	1.1195314
114	0x3f800000	1.0
115	0x3f731260	0.94949913
116	0x3f800000	1.0
117	0x3f5ed9b4	0.8705094
118	0x3f801b29	1.0008289
119	0x3f6ad9ac	0.9173839
120	0x3f800000	1.0
121	0x3f65399a	0.8954102
122	0x3f7144d8	0.9424567
123	0x3f800000	1.0
124	0x3f880ed4	1.0629525
125	0x3f5575a1	0.8338261
126	0x3f800000	1.0
127	0x3f579f52	0.8422748
128	0x3f577eab	0.84177655
129	0x3f800000	1.0
130	0x3f7fb6b3	0.9988815
131	0x3f71ec0a	0.9450079
132	0x3f72f0ed	0.94898874
133	0x3f800000	1.0
134	0x3f7aad79	0.9792095
135	0x3f7189e2	0.9435102
136	0x3f577514	0.8416302
137	0x3f800000	1.0
138	0x3f800000	1.0
139	0x3f839374	1.0279374
140	0x3f696ebb	0.91184586
141	0x3f800000	1.0
142	0x3f5d1f25	0.8637565
143	0x3f800000	1.0
144	0x3f5b29ac	0.8561046
145	0x3f7165ae	0.94295776
146	0x3f800000	1.0
147	0x3f800000	1.0
148	0x3f6290f2	0.8850242
149	0x3f800000	1.0
150	0x3f7e7991	0.99404246
151	0x3f790529	0.972735
152	0x3f800000	1.0
153	0x3f7d15e3	0.9886152
154	0x3f800000	1.0
155	0x3f800000	1.0
156	0x3f77b93e	0.9676703
157	0x3f6cde07	0.92526287
158	0x3f4fc0c4	0.8115351
159	0x3f800000	1.0
160	0x3f74376e	0.9539708
161	0x3f800000	1.0
162	0x3f63e463	0.89020365
163	0x3f800000	1.0
164	0x3f8485e2	1.0353358
165	0x3f800000	1.0
166	0x3f6963c4	0.91167855
167	0x3f800000	1.0
168	0x3f40e79e	0.7535342
169	0x3f800000	1.0
170	0x3f800000	1.0
171	0x3f4dacc5	0.8034175
172	0x3f800000	1.0
173	0x3f800000	1.0
174	0x3f6d3071	0.9265204
175	0x3f86626f	1.049879
176	0x3f800000	1.0
177	0x3f6560c3	0.8960077
178	0x3f7f4244	0.9971049
179	0x3f800000	1.0
180	0x3f624d95	0.8839963
181	0x3f800000	1.0
182	0x3f4ea926	0.8072685
183	0x3f767352	0.96269715
184	0x3f5a40de	0.8525523
185	0x3f648db3	0.89278716
186	0x3f800000	1.0
187	0x3f800000	1.0
188	0x3f62a0cf	0.88526624
189	0x3f6c79d0	0.9237337
190	0x3f800000	1.0
191	0x3f800000	1.0
192	0x3f393e84	0.72361016
193	0x3f640532	0.8907043
194	0x3f8c15ba	1.094413
195	0x3f76dda6	0.9643196
196	0x3f800000	1.0
197	0x3f6449c3	0.8917505
198	0x3f861b85	1.0477148
199	0x3f80fec0	1.0077744
200	0x3f800000	1.0
201	0x3f80e7b4	1.007071
202	0x3f867553	1.0504555
203	0x3f800000	1.0
204	0x3f5061a1	0.8139897
205	0x3f800000	1.0
206	0x3f5f0dd3	0.8713047
207	0x3f6c1546	0.9221996
208	0x3f57cd38	0.84297514
209	0x3f800000	1.0
210	0x3f800000	1.0
211	0x3f89b76d	1.0759102
212	0x3f5a7347	0.8533215
213	0x3f608d56	0.8771566
214	0x3f800000	1.0
215	0x3f800000	1.0
216	0x3f7dec2c	0.99188495
217	0x3f7cf578	0.98812056
218	0x3f800000	1.0
219	0x3f60188f	0.87537473
220	0x3f800000	1.0
221	0x3f800000	1.0
222	0x3f886f0c	1.0658889
223	0x3f800000	1.0
224	0x3f83c313	1.0293907
225	0x3f576e4e	0.84152687
226	0x3f8fcc5e	1.1234243
227	0x3f800000	1.0
228	0x3f6d21a9	0.92629486
229	0x3f630f65	0.88695365
230	0x3f48259b	0.7818238
231	0x3f800000	1.0
232	0x3f3f19ec	0.7464893
233	0x3f678754	0.9044087
234	0x3f60db86	0.87834966
235	0x3f800000	1.0
236	0x3f95ffda	1.1718705
237	0x3f800000	1.0
238	0x3f800000	1.0
239	0x3f800000	1.0
240	0x3f7c7e19	0.9862991
241	0x3f516741	0.8179818
242	0x3f6003e4	0.87505937
243	0x3f800000	1.0
244	0x3f63083f	0.8868446
245	0x3f5e049f	0.867258
246	0x3f53566f	0.8255376
247	0x3f647147	0.8923535
248	0x3f800000	1.0
249	0x3f800000	1.0
250	0x3f8a6b9d	1.0814091
251	0x3f52904c	0.8225143
252	0x3f828924	1.0198102
253	0x3f800000	1.0
254	0x3f800000	1.0
255	0x3f800000	1.0

bn1.bias f4 [256]
0	0xbd9c0adb	-0.07619258
1	0x3e1fa771	0.15591218
2	0xbd8cee08	-0.06881338
3	0xbda7d7bc	-0.08195445
4	0xbd877a0a	-0.06615074
5	0xbdfbdfa7	-0.12298518
6	0x3e1d34d8	0.1535219
7	0x3dd823c9	0.105537005
8	0x3da6c327	0.08142691
9	0xbd970dbb	-0.07375666
10	0xbd76ff83	-0.06030227
11	0xbe59d1f5	-0.21271499
12	0xbe29fc9b	-0.16600268
13	0x3d05ae79	0.032637093
14	0x3df9bf13	0.12194648
15	0x3e334d3b	0.1750993
16	0x3d2c37ef	0.04204553
17	0x3bc4b4f2	0.0060030157
18	0xbdbe81e5	-0.09302119
19	0x3ddcfd50	0.10790503
20	0x3e0029c4	0.12515932
21	0x3e1c2751	0.15249373
22	0x3e006ca0	0.12541437
23	0xbd745203	-0.059648525
24	0x3acc9cb2	0.0015610664
25	0xbdcb4e38	-0.099270284
26	0xbcf28dcd	-0.029608632
27	0xbe11c99f	-0.14237069
28	0x3e1ff73c	0.15621656
29	0x3e2ff9c4	0.17185122
30	0xba7123ea	-0.0009198772
31	0x3df946bd	0.121716954
32	0x3dd1d80a	0.10246284
33	0x3e4b3b6c	0.19846886
34	0xbdf1a768	-0.11799508
35	0xbddcfd82	-0.1079054
36	0xbdef4860	-0.11683726
37	0xbe1285ef	-0.14308904
38	0x3dd4dbf5	0.10393516
39	0x3c55f0d3	0.013057905
40	0x3e0b7cfc	0.13621897
41	0x3e0ed21d	0.1394734
42	0xbda0bf5e	-0.078490004
43	0x3c812e43	0.01576913
44	0xbe237182	-0.15961269
45	0xbd9084d3	-0.07056584
46	0x3d625d93	0.05526502
47	0x3e3563be	0.1771383
48	0x3e0dca88	0.13846791
49	0x3e634bb9	0.22196855
50	0xbdfee28b	-0.124455534
51	0xbd18513d	-0.03718685
52	0x3d2189d7	0.039438095
53	0x3dee181b	0.116256915
54	0x3dce79c3	0.10081818
55	0x3e4850ba	0.19562045
56	0x3e0c9931	0.13730313
57	0x3df44e78	0.11929029
58	0x3e7534df	0.2394595
59	0x3e08a698	0.133448
60	0xbd545060	-0.051834464
61	0x3e597bbd	0.21238609
62	0x3e81998f	0.25312468
63	0x3d4149a4	0.04718937
64	0x3d00ac68	0.03141442
65	0x3e285844	0.1643992
66	0xbb934ddb	-0.004495365
67	0xbcd75264	-0.026284404
68	0x3d5cd3d5	0.053912956
69	0x3dff8620	0.12476754
70	0x3d91e81e	0.07124351
71	0xbdf8661e	-0.12128852
72	0xbd797d6d	-0.06091063
73	0x3c159493	0.009129661
74	0x3e7076e8	0.23482859
75	0xbd83c12f	-0.06433331
76	0xbddabe66	-0.10680847
77	0xbdcb6a12	-0.09932341
78	0xbd9547fc	-0.072891206
79	0x3d05a08b	0.03262381
80	0xbe1dd2bc	-0.1541242
81	0x3e2d915b	0.1694998
82	0x3e53a1b1	0.20667149
83	0xbd9e651f	-0.07734131
84	0x3bb5b65e	0.0055454215
85	0xbd55a480	-0.052158833
86	0xbe2e2d4c	-0.17009467
87	0xbd80ad44	-0.06283048
88	0xbd7cf160	-0.06175363
89	0x3e18178f	0.14852737
90	0x3d90df94	0.07073894
91	0xbe1e91ff	-0.1548538
92	0x3cbe276e	0.02321216
93	0x3d1a8f41	0.037734274
94	0xbdcde8e9	-0.1005419
95	0xbe8589ae	-0.26081604
96	0x3ddc40e1	0.10754562
97	0x3e6737fc	0.2257995
98	0xbdceb94e	-0.10093938
99	0xbe2faec0	-0.17156506
100	0xbe13907b	-0.14410584
101	0x3df15943	0.117846034
102	0xbdd20b5d	-0.102560736
103	0x3da19a15	0.07890717
104	0x3dc1e452	0.09467377
105	0x3e023245	0.12714489
106	0x3e49dac5	0.1971236
107	0x3e4f7dde	0.20262858
108	0xbdc723b6	-0.09723608
109	0x3e0c1b9c	0.13682407
110	0xbd951698	-0.072797
111	0x3e023864	0.12716824
112	0x3e108a60	0.14115286
113	0xbe2c26e2	-0.16811708
114	0xbbf1e971	-0.0073825647
115	0xbe5b4761	-0.21413948
116	0xbb3c8b3b	-0.0028769511
117	0x3e4daebb	0.20086186
118	0x3e20f3aa	0.1571795
119	0x3e641b1b	0.22275965
120	0x3dbfeb85	0.09371094
121	0x3d558acc	0.05213432
122	0xbdfb978c	-0.12284765
123	0xbd88eec8	-0.06686169
124	0x3ddfd871	0.10929955
125	0xbe0a35f9	-0.13497151
126	0x3d7293d5	0.059223015
127	0xbe241e32	-0.16027144
128	0x3dfb64ce	0.12275086
129	0xbdb98cbc	-0.09060046
130	0x3e12ea30	0.14347148
131	0x3e4378a5	0.19088991
132	0x3e686939	0.2269639
133	0x3d1feab5	0.039042193
134	0xbe74b3a5	-0.23896654
135	0xbdb78fc8	-0.08962971
136	0x3e1ab565	0.15108259
137	0x3de35b43	0.11101391
138	0xbde0b0e1	-0.10971237
139	0xbe5a48ed	-0.21316881
140	0x3e2056df	0.15658139
141	0x3d6f0358	0.0583528
142	0xbe074c4d	-0.132127
143	0x3cb96cff	0.022634981
144	0x3df6d1f6	0.120517656
145	0x3e060486	0.13087663
146	0x3d96dfed	0.07366929
147	0x3dcde675	0.10053722
148	0xbe2e4439	-0.17018212
149	0xbd31e7f0	-0.043434083
150	0x3e915b89	0.28390148
151	0x3e45e557	0.19325767
152	0x3dbf3b13	0.093374394
153	0x3e323fbb	0.17407124
154	0x3d95d767	0.07316475
155	0x3bb96664	0.005657958
156	0xbe09ba7a	-0.13450041
157	0xbe32aa36	-0.17447743
158	0xbe040f65	-0.12896498
159	0x3d0b411f	0.03399765
160	0xbdadc185	-0.084841765
161	0x3c47216f	0.012153967
162	0x3e249aaf	0.16074632
163	0x3dad72d0	0.08469164
164	0x3e0ec67a	0.139429
165	0xbdd95eee	-0.106138095
166	0xbdd5fe97	-0.1044895
167	0xbddef16b	-0.108858906
168	0xbdebe2e6	-0.11517887
169	0xbc8922bb	-0.016740194
170	0xbdc4faf8	-0.09618181
171	0x3e2f3cab	0.17112987
172	0x3dd33257	0.10312336
173	0x3e07b2a7	0.13251744
174	0x3dbedfbe	0.09320019
175	0x3e40f202	0.18842319
176	0xbda6cea5	-0.08144883
177	0x3dc8d45d	0.0980613
178	0x3d1a3bc9	0.03765467
179	0xbd8ec7d4	-0.06971708
180	0x3e5525ed	0.20815249
181	0x3dc633ad	0.09677825
182	0xbd98afe3	-0.07455423
183	0x3d80ce10	0.06289303
184	0x3dc4139c	0.09574053
185	0x3e1e1b0d	0.15440007
186	0xbde6147c	-0.11234376
187	0x3da51e8f	0.08062469
188	0x3e442651	0.19155242
189	0xbdd7588a	-0.10514934
190	0x3dc62344	0.09674695
191	0x3e116a88	0.14200795
192	0x3cbf956f	0.023386685
193	0xbe1cf3a9	-0.15327324
194	0xbdb07b5c	-0.08617279
195	0x3e8ed95e	0.27900213
196	0x3c8b399f	0.01699525
197	0x3e46a4a2	0.1939874
198	0x3e373213	0.17890196
199	0xbbcf0ecb	-0.006318902
200	0x3d87581f	0.06608605
201	0xbe6f1164	-0.23346478
202	0x3e24255d	0.16029878
203	0xbe55ab2b	-0.20866077
204	0xbde89e12	-0.113582745
205	0xbde67898	-0.1125347
206	0x3da56995	0.08076779
207	0xbe0461aa	-0.12927881
208	0xbe6a5e00	-0.2288742
209	0xbb91e6da	-0.0044525685
210	0xbcfeab2f	-0.031087486
211	0x3e284edb	0.16436331
212	0x3e27fb00	0.16404343
213	0xbe23cb0e	-0.15995428
214	0x3c2ecb6a	0.010668615
215	0xbbafccaf	-0.0053649764
216	0xbe33e115	-0.1756633
217	0x3e339317	0.17536579
218	0xbd084095	-0.033264715
219	0x3e8512f5	0.25991026
220	0x3de8f2cb	0.11374434
221	0xbc91ad46	-0.017782819
222	0x3e14db89	0.14536871
223	0xbc24272b	-0.010019104
224	0x3de904ac	0.11377844
225	0x3d501d1d	0.050809015
226	0xbdf86364	-0.12128332
227	0xbddf0db5	-0.10891286
228	0x3e412adc	0.18864006
229	0xbe0f380c	-0.13986224
230	0x3c3a1930	0.011358544
231	0xbc5d3902	-0.013502361
232	0x3ea0cd7c	0.31406772
233	0x3e687e24	0.22704369
234	0x3e022fca	0.12713543
235	0x3e215fe9	0.15759243
236	0xbe0f80f5	-0.14014037
237	0xbd5c1d90	-0.05373913
238	0xbe320897	-0.1738609
239	0x3dedc8dd	0.11610577
240	0x3a33a43d	0.00068527815
241	0x3dc35ff1	0.09539784
242	0x3e202c97	0.1564201
243	0xbdfbd9c7	-0.12297397
244	0xbd299a9d	-0.041407216
245	0x3e4fe17b	0.20300858
246	0xbdc52629	-0.09626419
247	0x3e2a16e2	0.16610292
248	0xbe230930	-0.15921474
249	0xbe09e0e1	-0.1346469
250	0x3e3a6c33	0.18205337
251	0x3e815021	0.25256446
252	0xbe0ce63f	-0.13759707
253	0x3d924297	0.07141607
254	0xbe101a16	-0.14072451
255	0x3d88de61	0.066830404

bn1.running_mean f4 [256]
0	0x00000000	0.0
1	0x3e1a7c3f	0.15086459
2	0x00000004	6e-45
3	0x00000000	0.0
4	0x3ee95527	0.4557278
5	0x3e9c0ab9	0.3047693
6	0x3e59b31c	0.21259731
7	0x00000000	0.0
8	0x00000000	0.0
9	0x3ee61ed5	0.44945398
10	0x3f849523	1.0358013
11	0x3f1ad26f	0.60477346
12	0x3f84c7cc	1.0373473
13	0x00000000	0.0
14	0x3e88ddb7	0.26731655
15	0x3f0e5578	0.55599165
16	0x3e59828c	0.21241206
17	0x3e9e96a9	0.3097432
18	0x3f17474e	0.5909318
19	0x3e78acb1	0.24284627
20	0x3ea24c3e	0.31698793
21	0x3e02da05	0.1277848
22	0x3f022736	0.5084108
23	0x00000000	0.0
24	0x3f163346	0.5867199
25	0x3f703c49	0.9384199
26	0x3e50b9aa	0.20383325
27	0x3f2d8b19	0.6779037
28	0x3e82040b	0.2539371
29	0x3e55e099	0.20886458
30	0x00000000	0.0
31	0x00000000	0.0
32	0x3caef05c	0.021354847
33	0x3e5dcb10	0.21659493
34	0x3e9db8a9	0.30804947
35	0x00000000	0.0
36	0x00000004	6e-45
37	0x00000000	0.0
38	0x00000000	0.0
39	0x00000000	0.0
40	0x00000000	0.0
41	0x3e959149	0.29212406
42	0x3f134c5e	0.575384
43	0x00000000	0.0
44	0x00000000	0.0
45	0x3ed6f744	0.41985524
46	0x3e552b9c	0.20817417
47	0x3f185c57	0.595159
48	0x00000000	0.0
49	0x00000004	6e-45
50	0x3f39922c	0.72488666
51	0x00000004	6e-45
52	0x00000000	0.0
53	0x3ec14283	0.37746057
54	0x00000000	0.0
55	0x00000004	6e-45
56	0x00000004	6e-45
57	0x00000000	0.0
58	0x3e02170f	0.12704109
59	0x00000000	0.0
60	0x3f1eaed1	0.619855
61	0x00000004	6e-45
62	0x3e3010c4	0.17193896
63	0x00000000	0.0
64	0x00000004	6e-45
65	0x3e68dad9	0.22739734
66	0x3e94f5e6	0.29093856
67	0x00000000	0.0
68	0x00000000	0.0
69	0x3e4f71cb	0.20258252
70	0x00000004	6e-45
71	0x3f235489	0.63800865
72	0x00000000	0.0
73	0x00000000	0.0
74	0x3e2ca1e2	0.16858628
75	0x3e7742ae	0.2414653
76	0x00000004	6e-45
77	0x00000000	0.0
78	0x00000000	0.0
79	0x3eaf0edd	0.34191027
80	0x3f091a8a	0.5355612
81	0x3ed8ae30	0.42320395
82	0x3e5dbe09	0.21654524
83	0x00000000	0.0
84	0x00000000	0.0
85	0x3f0a496d	0.5401829
86	0x3f71e15d	0.944845
87	0x00000000	0.0
88	0x00000000	0.0
89	0x3e9f8255	0.31154123
90	0x00000000	0.0
91	0x3e94f071	0.29089692
92	0x00000000	0.0
93	0x3ea8471a	0.32866746
94	0x3f5bdb90	0.858819
95	0x3d5cb681	0.053884987
96	0x00000000	0.0
97	0x3f293587	0.660973
98	0x3f389a13	0.721101
99	0x3f4bda03	0.79629534
100	0x00000000	0.0
101	0x00000004	6e-45
102	0x3f355426	0.70831525
103	0x00000000	0.0
104	0x3e749363	0.23884349
105	0x3ec118b2	0.37714154
106	0x3e3a2d4f	0.18181346
107	0x00000000	0.0
108	0x00000000	0.0
109	0x00000000	0.0
110	0x00000004	6e-45
111	0x3f0169af	0.50551885
112	0x3ea57223	0.32313642
113	0x00000004	6e-45
114	0x00000000	0.0
115	0x3f4c4e07	0.7980656
116	0x00000000	0.0
117	0x3ebaf41d	0.3651437
118	0x3e35de87	0.17760669
119	0x3e5da4a4	0.21644837
120	0x00000000	0.0
121	0x3e679e3c	0.22618955
122	0x3f12038f	0.5703668
123	0x00000000	0.0
124	0x3e490766	0.19631729
125	0x3e8a1892	0.2697187
126	0x00000000	0.0
127	0x3f41df75	0.75731593
128	0x3e6fe7d2	0.23428276
129	0x00000000	0.0
130	0x00000004	6e-45
131	0x3ebefe43	0.3730336
132	0x3e3f8f69	0.1870705
133	0x00000000	0.0
134	0x00000004	6e-45
135	0x3f5a3e0b	0.8525092
136	0x3e30a0eb	0.17248885
137	0x00000000	0.0
138	0x00000000	0.0
139	0x00000004	6e-45
140	0x26d59060	1.4818977e-15
141	0x00000000	0.0
142	0x3f2670eb	0.6501605
143	0x00000000	0.0
144	0x3e4655d9	0.19368686
145	0x3ec99f28	0.3937924
146	0x00000000	0.0
147	0x00000000	0.0
148	0x3f4936d5	0.7859929
149	0x00000000	0.0
150	0x00000004	6e-45
151	0x3e806b80	0.25082016
152	0x00000000	0.0
153	0x00000004	6e-45
154	0x00000000	0.0
155	0x00000000	0.0
156	0x3f49ae5d	0.7878168
157	0x3f56036e	0.83598983
158	0x3f030f65	0.51195365
159	0x00000000	0.0
160	0x3ec99fbf	0.3937969
161	0x00000000	0.0
162	0x3e8bc3ac	0.27297723
163	0x00000000	0.0
164	0x3e6dab4a	0.23209873
165	0x00000000	0.0
166	0x3f023998	0.5086913
167	0x00000000	0.0
168	0x3f06605f	0.524908
169	0x00000000	0.0
170	0x00000000	0.0
171	0x3e352ae5	0.17692144
172	0x00000000	0.0
173	0x00000000	0.0
174	0x3eb5346f	0.35391566
175	0x00000004	6e-45
176	0x00000000	0.0
177	0x3df3ec55	0.11910311
178	0x00000004	6e-45
179	0x00000000	0.0
180	0x3e588d94	0.21147758
181	0x00000000	0.0
182	0x3e9b394b	0.3031715
183	0x00000004	6e-45
184	0x3f108d42	0.5646554
185	0x3ebca771	0.36846498
186	0x00000000	0.0
187	0x00000000	0.0
188	0x3ee952b7	0.4557092
189	0x3f19d2db	0.60087365
190	0x00000000	0.0
191	0x00000000	0.0
192	0x3ec53fac	0.3852514
193	0x3ec7a8b5	0.389959
194	0x00000004	6e-45
195	0x3e82b64c	0.25529706
196	0x00000000	0.0
197	0x3e7985d1	0.24367453
198	0x3ed4e13b	0.41578087
199	0x3f419a2f	0.7562589
200	0x00000000	0.0
201	0x00000004	6e-45
202	0x3ece825e	0.40333837
203	0x00000000	0.0
204	0x3f902538	1.1261358
205	0x00000000	0.0
206	0x3e74fa69	0.23923649
207	0x3ebc9964	0.36835778
208	0x3ee29b76	0.44259232
209	0x00000000	0.0
210	0x00000000	0.0
211	0x00000004	6e-45
212	0x3e7d5864	0.2474075
213	0x3f5673c2	0.8377038
214	0x00000000	0.0
215	0x00000000	0.0
216	0x00000004	6e-45
217	0x3e50f744	0.20406824
218	0x00000000	0.0
219	0x3ee3a06b	0.44458327
220	0x00000000	0.0
221	0x00000000	0.0
222	0x3e625ff3	0.22106914
223	0x00000000	0.0
224	0x00000004	6e-45
225	0x3e5272b9	0.20551576
226	0x00000004	6e-45
227	0x00000000	0.0
228	0x3ece0f4e	0.40246052
229	0x3f7d3aaa	0.9891764
230	0x3e582d70	0.21111083
231	0x00000000	0.0
232	0x3ea4d637	0.32194683
233	0x3e4024ab	0.18763988
234	0x3ed330e6	0.41248244
235	0x00000000	0.0
236	0x3d5b67dd	0.05356585
237	0x00000000	0.0
238	0x00000000	0.0
239	0x00000000	0.0
240	0x00000004	6e-45
241	0x3e066db5	0.13127787
242	0x3e29d887	0.16586505
243	0x00000000	0.0
244	0x3f1e8a5d	0.61929876
245	0x3e8e77b3	0.27825698
246	0x3f5b73cc	0.85723567
247	0x3ee4ca82	0.4468575
248	0x00000000	0.0
249	0x00000000	0.0
250	0x00000004	6e-45
251	0x3e49b4e8	0.19697917
252	0x3f006b7d	0.50164014
253	0x00000000	0.0
254	0x00000000	0.0
255	0x00000000	0.0
